checkpoint/student_1/casia/client/student_7.pt (torch, 253477 bytes, 50 tensors)

torch.sparse_coo f4 [17]
000000 03 32 0d be 80 06 d5 3d 48 11 aa 3d ff 92 ce 3b
       -0.13788609 0.104016304 0.083040774 0.0063041444
000010 fb 9a a5 bd 29 de 0b 3d 66 db 86 3c f3 b9 9e 3a
       -0.08086201 0.034147415 0.01646204 0.001210986
000020 c4 63 09 be db 03 88 3a 64 c5 66 3b 99 7a c1 bd
       -0.13416964 0.0010377126 0.0035212869 -0.09447212
000030 4d 72 70 3d f5 5b 0c 3e 05 e8 21 be 92 b7 3b bd
       0.058702756 0.13706954 -0.15811165 -0.045829363
000040 cf 79 f8 3d
       0.12132608

conv1.1.weight f4 [64]
000000 6e 54 7f 3f 45 e7 7e 3f 00 00 80 3f 00 00 80 3f
       0.99738204 0.9957164 1.0 1.0
000010 00 00 80 3f 06 22 7c 3f 08 32 80 3f 00 00 80 3f
       1.0 0.98489416 1.0015268 1.0
000020 00 00 80 3f 00 00 80 3f b3 da 7f 3f 00 00 80 3f
       1.0 1.0 0.99943084 1.0
000030 00 00 80 3f 00 00 80 3f 00 00 80 3f 00 00 80 3f
       1.0 1.0 1.0 1.0
000040 00 00 80 3f 00 00 80 3f 00 00 80 3f 00 00 80 3f
       1.0 1.0 1.0 1.0
000050 00 00 80 3f 00 00 80 3f 00 00 80 3f 00 00 80 3f
       1.0 1.0 1.0 1.0
000060 00 00 80 3f 00 00 80 3f 00 00 80 3f 00 00 80 3f
       1.0 1.0 1.0 1.0
000070 00 00 80 3f 00 00 80 3f 00 00 80 3f 00 00 80 3f
       1.0 1.0 1.0 1.0
000080 00 00 80 3f 00 00 80 3f 00 00 80 3f 00 00 80 3f
       1.0 1.0 1.0 1.0
000090 00 00 80 3f ce aa 81 3f 91 e5 7d 3f 00 00 80 3f
       1.0 1.013025 0.99178416 1.0
0000a0 0f 4d 80 3f 54 53 80 3f 00 00 80 3f 00 00 80 3f
       1.0023516 1.002543 1.0 1.0
0000b0 00 00 80 3f 00 00 80 3f 00 00 80 3f 00 00 80 3f
       1.0 1.0 1.0 1.0
0000c0 00 00 80 3f 14 e0 7e 3f c7 94 7c 3f 3a ff 7d 3f
       1.0 0.99560666 0.98664516 0.9921757
0000d0 00 00 80 3f 00 00 80 3f 00 00 80 3f 00 00 80 3f
       1.0 1.0 1.0 1.0
0000e0 00 00 80 3f 00 00 80 3f 00 00 80 3f 79 e5 7f 3f
       1.0 1.0 1.0 0.9995952
0000f0 00 00 80 3f 00 00 80 3f 00 00 80 3f 00 00 80 3f
       1.0 1.0 1.0 1.0

conv1.1.bias f4 [64]
000000 03 78 9e 3c 72 0b 1b 3d 00 00 00 00 00 00 00 00
       0.019344335 0.037852712 0.0 0.0
000010 00 00 00 00 d0 fc 09 3a 30 4e be 3d 00 00 00 00
       0.0 0.0005263807 0.09292257 0.0
000020 00 00 00 00 00 00 00 00 69 54 0e bb 00 00 00 00
       0.0 0.0 -0.0021717793 0.0
000030 00 00 00 00 00 00 00 00 00 00 00 00 00 00 00 00
       0.0 0.0 0.0 0.0
000040 00 00 00 00 00 00 00 00 00 00 00 00 00 00 00 00
       0.0 0.0 0.0 0.0
000050 00 00 00 00 00 00 00 00 00 00 00 00 00 00 00 00
       0.0 0.0 0.0 0.0
000060 00 00 00 00 00 00 00 00 00 00 00 00 00 00 00 00
       0.0 0.0 0.0 0.0
000070 00 00 00 00 00 00 00 00 00 00 00 00 00 00 00 00
       0.0 0.0 0.0 0.0
000080 00 00 00 00 00 00 00 00 00 00 00 00 00 00 00 00
       0.0 0.0 0.0 0.0
000090 00 00 00 00 33 dc c8 3c 7a 5f 93 3a 00 00 00 00
       0.0 0.024519062 0.0011243664 0.0
0000a0 a6 07 3b 3d 15 eb 9b b9 00 00 00 00 00 00 00 00
       0.04566159 -0.00029739054 0.0 0.0
0000b0 00 00 00 00 00 00 00 00 00 00 00 00 00 00 00 00
       0.0 0.0 0.0 0.0
0000c0 00 00 00 00 13 76 b5 3c e3 98 3e 3d 6f 38 2c 3d
       0.0 0.022151029 0.046532523 0.042046007
0000d0 00 00 00 00 00 00 00 00 00 00 00 00 00 00 00 00
       0.0 0.0 0.0 0.0
0000e0 00 00 00 00 00 00 00 00 00 00 00 00 e9 9b 19 3d
       0.0 0.0 0.0 0.037502203
0000f0 00 00 00 00 00 00 00 00 00 00 00 00 00 00 00 00
       0.0 0.0 0.0 0.0

conv1.1.running_mean f4 [64]
000000 a9 8b ed 39 04 00 00 80 00 00 00 00 00 00 00 00
       0.00045308218 -6e-45 0.0 0.0
000010 00 00 00 00 1d cb 29 bc 19 52 ef bb 00 00 00 00
       0.0 -0.010363367 -0.007303488 0.0
000020 00 00 00 00 00 00 00 00 04 00 00 80 00 00 00 00
       0.0 0.0 -6e-45 0.0
000030 00 00 00 00 00 00 00 00 00 00 00 00 00 00 00 00
       0.0 0.0 0.0 0.0
000040 00 00 00 00 00 00 00 00 00 00 00 00 00 00 00 00
       0.0 0.0 0.0 0.0
000050 00 00 00 00 00 00 00 00 00 00 00 00 00 00 00 00
       0.0 0.0 0.0 0.0
000060 00 00 00 00 00 00 00 00 00 00 00 00 00 00 00 00
       0.0 0.0 0.0 0.0
000070 00 00 00 00 00 00 00 00 00 00 00 00 00 00 00 00
       0.0 0.0 0.0 0.0
000080 00 00 00 00 00 00 00 00 00 00 00 00 00 00 00 00
       0.0 0.0 0.0 0.0
000090 00 00 00 00 d3 12 85 3c a6 13 3d 3c 00 00 00 00
       0.0 0.016244328 0.011540329 0.0
0000a0 e3 36 17 3b 04 00 00 00 00 00 00 00 00 00 00 00
       0.0023073487 6e-45 0.0 0.0
0000b0 00 00 00 00 00 00 00 00 00 00 00 00 00 00 00 00
       0.0 0.0 0.0 0.0
0000c0 00 00 00 00 94 3f 86 bc 70 21 c6 3c f0 cb e9 3b
       0.0 -0.016387738 0.024185866 0.007134907
0000d0 00 00 00 00 00 00 00 00 00 00 00 00 00 00 00 00
       0.0 0.0 0.0 0.0
0000e0 00 00 00 00 00 00 00 00 00 00 00 00 b3 da 72 bc
       0.0 0.0 0.0 -0.01482265
0000f0 00 00 00 00 00 00 00 00 00 00 00 00 00 00 00 00
       0.0 0.0 0.0 0.0

conv1.1.running_var f4 [64]
000000 55 15 28 3a 04 00 00 00 04 00 00 00 04 00 00 00
       0.000641187 6e-45 6e-45 6e-45
000010 04 00 00 00 d5 0c e7 3a 64 06 09 3a 04 00 00 00
       6e-45 0.0017627726 0.00052270875 6e-45
000020 04 00 00 00 04 00 00 00 04 00 00 00 04 00 00 00
       6e-45 6e-45 6e-45 6e-45
000030 04 00 00 00 04 00 00 00 04 00 00 00 04 00 00 00
       6e-45 6e-45 6e-45 6e-45
000040 04 00 00 00 04 00 00 00 04 00 00 00 04 00 00 00
       6e-45 6e-45 6e-45 6e-45
000050 04 00 00 00 04 00 00 00 04 00 00 00 04 00 00 00
       6e-45 6e-45 6e-45 6e-45
000060 04 00 00 00 04 00 00 00 04 00 00 00 04 00 00 00
       6e-45 6e-45 6e-45 6e-45
000070 04 00 00 00 04 00 00 00 04 00 00 00 04 00 00 00
       6e-45 6e-45 6e-45 6e-45
000080 04 00 00 00 04 00 00 00 04 00 00 00 04 00 00 00
       6e-45 6e-45 6e-45 6e-45
000090 04 00 00 00 0d b4 5c 3b 42 81 14 3b 04 00 00 00
       6e-45 0.0033676655 0.0022660051 6e-45
0000a0 37 f3 67 3a 04 00 00 00 04 00 00 00 04 00 00 00
       0.00088481925 6e-45 6e-45 6e-45
0000b0 04 00 00 00 04 00 00 00 04 00 00 00 04 00 00 00
       6e-45 6e-45 6e-45 6e-45
0000c0 04 00 00 00 eb c6 9e 3b ea cc ce 3b ad e1 08 3a
       6e-45 0.00484549 0.0063110488 0.00052216166
0000d0 04 00 00 00 04 00 00 00 04 00 00 00 04 00 00 00
       6e-45 6e-45 6e-45 6e-45
0000e0 04 00 00 00 04 00 00 00 04 00 00 00 63 47 7a 3b
       6e-45 6e-45 6e-45 0.0038189522
0000f0 04 00 00 00 04 00 00 00 04 00 00 00 04 00 00 00
       6e-45 6e-45 6e-45 6e-45

Block1.0.weight f4 [737]
000000 d6 12 57 bc 78 dd 1e 3d 68 6c 99 3c 9b 9c a9 bc
       -0.013127049 0.038785428 0.01872845 -0.020704558
000010 4a 51 1f bd 2c 11 1b bd 0e 9b e5 bc 8b c6 ed bc
       -0.038895883 -0.037858173 -0.028028037 -0.029025337
000020 58 a2 06 bd 57 62 27 bd 37 01 05 bd d6 84 65 3c
       -0.032869667 -0.04086527 -0.03247186 0.014008721
000030 9b 1a bb 3c 98 ec 0f bd 79 9c 4b b9 c9 46 bf bb
       0.022839835 -0.035137743 -0.00019417879 -0.0058372957
000040 48 4f 3f bb 80 a4 86 bc be 00 09 3d e6 f8 0e 3d
       -0.0029191542 -0.016435862 0.033447973 0.034905337
000050 59 58 16 bb eb e6 4a b9 6d f9 dc 3c 42 eb 2e b9
       -0.0022940843 -0.00019350245 0.026974404 -0.00016681573
000060 d8 15 a8 bc c6 bd 38 bc e8 5b 23 bd c6 57 2a 3c
       -0.020518228 -0.011275714 -0.03988257 0.010396903
000070 8e a5 8d 3c b0 16 96 bc 2e de 82 3c 2f 2b 22 3d
       0.017290857 -0.018321365 0.015975084 0.039591964
000080 a0 a7 21 bc be 8c d7 3c ce ae 9d 3c 1a 7e 22 3d
       -0.009866625 0.026312228 0.019248392 0.03967104
000090 62 36 04 bd 06 d3 a9 3c c6 3b 9d bc 26 69 be bc
       -0.032278426 0.020730507 -0.019193541 -0.023243498
0000a0 c3 84 b2 bc e0 14 11 3c c6 31 2a bc fb 09 29 37
       -0.021791821 0.008855075 -0.0103878435 1.0075509e-05
0000b0 f8 58 86 b9 13 bd 03 bd 30 7c b9 3c 2a 1a 1b bd
       -0.0002562476 -0.032162737 0.022642225 -0.03786675
0000c0 20 9c 92 b7 8b 21 3a 3c b5 43 9c b9 bc a3 fd 39
       -1.7477258e-05 0.011360536 -0.00029805084 0.00048377912
0000d0 d6 4b fd 3c 82 90 ac 39 97 8d 95 3b e6 1d 0b 3b
       0.03091995 0.00032914063 0.004563998 0.0021227538
0000e0 3f 1f 3a bb 2b 7d 1a bd 53 0c d0 3c 3b 9b 96 bb
       -0.0028399972 -0.037717026 0.025396502 -0.0045961416
0000f0 42 13 94 3a 6f 9f d8 38 e0 b3 ba 3c 5b 94 cc 3c
       0.0011297243 0.000103293794 0.02279085 0.024973085
000100 16 c8 29 bd d6 5c 2f 3c 0b 55 16 bd 58 28 a9 3c
       -0.041450582 0.010703286 -0.036702197 0.02064912
000110 83 88 89 3c 09 61 b7 bc 5c ce 19 bd 00 c6 fe 3b
       0.016788727 -0.022385137 -0.037550315 0.0077750683
000120 26 e9 d5 3c 43 15 94 bc f6 47 6b bc 0a a1 c5 3b
       0.02611215 -0.018076545 -0.014360419 0.0060311602
000130 40 6d c2 bc 4b e2 bc 3c 10 e1 cc 3c 52 76 d8 3c
       -0.023733735 0.023057124 0.025009662 0.026423607
000140 e0 1d e1 3c 23 60 fe 3c a2 58 5f 3b d0 8d f6 3c
       0.027480066 0.031051701 0.003407993 0.030096918
000150 de 5c af bc a0 69 32 3c b0 e5 25 3c c1 33 8f bc
       -0.021406587 0.010889441 0.010125563 -0.017480733
000160 f0 d3 a8 bc 6d f6 83 bb 72 4b dd bc 87 58 02 3d
       -0.020608872 -0.004027179 -0.027013514 0.031822708
000170 98 5f bb bc 26 1b 1d 3c 5e 39 c5 bc f7 1c 1e 3d
       -0.022872731 0.009588992 -0.024075206 0.03860184
000180 96 e6 e1 bc 5a bc 26 3d c6 c8 f3 3a 8b a9 e5 3c
       -0.027575772 0.04070697 0.0018599264 0.028034946
000190 d6 25 af bc 09 35 40 39 17 be 20 3c a2 16 09 bd
       -0.021380346 0.00018330304 0.009810946 -0.03346885
0001a0 2b ea 32 bc b3 c5 e4 bc f4 78 0a 3d 8b 95 83 3c
       -0.010920088 -0.027926302 0.033806756 0.016062519
0001b0 47 28 29 3d 44 37 93 b7 e6 f6 a9 38 52 dc 94 b8
       0.041298177 -1.75495e-05 8.1045364e-05 -7.098228e-05
0001c0 d2 7e 86 38 26 1c e9 39 78 94 98 3c d6 25 11 3d
       6.41324e-05 0.00044462195 0.018625483 0.035436474
0001d0 38 69 a8 3c ee d9 8f bc 07 d0 10 3d db d5 eb 3c
       0.020557985 -0.017559972 0.03535464 0.028788498
0001e0 79 d4 1b bb 5a d0 31 3d 5a 7b 2a 3d 36 c5 03 3c
       -0.0023777767 0.04341159 0.041621543 0.008042624
0001f0 56 36 c4 bc 40 c1 91 3c 39 cf 47 3b fa 9a a3 3c
       -0.02395169 0.017792344 0.0030488505 0.01997136
000200 73 05 29 bd ab e9 18 bc c8 d0 d9 bc de c8 11 3d
       -0.041264962 -0.009333055 -0.026588812 0.035591953
000210 a0 05 d1 bc 36 95 10 3d f0 8f b3 bc 50 f7 49 3c
       -0.025515378 0.03529855 -0.02191922 0.01232703
000220 50 8d 41 3c fe 04 8d bc 30 97 06 3c ce 69 22 3a
       0.011813477 -0.017214295 0.008214757 0.00061955757
000230 c4 82 98 39 1b 46 90 b9 9b 1d 02 bd c3 33 ca 3c
       0.00029089127 -0.00027518053 -0.031766515 0.024682885
000240 1b 91 3f bc a1 c3 33 bd 80 c1 40 3a c5 93 af 39
       -0.011692311 -0.04388774 0.00073530525 0.00033488698
000250 ba 6b 79 b9 dd 8c 16 39 94 e0 24 bd d9 f4 1d 3a
       -0.00023786622 0.0001435759 -0.040253237 0.000602556
000260 8f 6a a7 39 88 17 a8 b9 13 a5 df 38 e8 16 e7 39
       0.00031932115 -0.0003206099 0.00010664216 0.0004407682
000270 e5 59 99 3c 6e fe c2 bc 10 fe 2f 3c 38 3d db bc
       0.018719623 -0.023802962 0.010741726 -0.02676259
000280 5f fb 24 3d d7 67 bd 3b 20 5e 07 bc d3 88 e1 3c
       0.04027879 0.005780201 -0.008262187 0.027531063
000290 32 ae db ba c6 65 01 bc 5f d2 8e 3b 0c d1 ea 3c
       -0.0016760288 -0.0078978 0.0043585743 0.028664134
0002a0 4e 62 be bc e6 5a 10 bd 73 5c 8d bc 76 3a cd bc
       -0.023240235 -0.035242938 -0.017255997 -0.02505229
0002b0 56 59 ff 3b 4e 0a 8b 3c 4c 73 37 3a df 10 9e 3c
       0.007792632 0.016972687 0.00069980766 0.019295154
0002c0 94 4b 26 bd b0 bb cf bc 36 a5 06 3d fb 1a 22 3c
       -0.04059942 -0.025358051 0.0328724 0.009894128
0002d0 a3 c8 94 bc 2a f0 0d 3d 80 c5 0b bc db a3 df bc
       -0.018162077 0.034652866 -0.008530974 -0.027299812
0002e0 28 76 9b bc 17 d2 06 bd c6 1b b4 3b e2 81 10 3d
       -0.01897724 -0.0329152 0.005496475 0.035280116
0002f0 2c a7 13 3d 55 1b dd bb 44 d6 99 39 20 b0 4b ba
       0.0360481 -0.006747643 0.00029342074 -0.000777008
000300 08 71 12 3d ae 67 60 3c b3 f3 84 3c bb 21 06 3c
       0.035752326 0.013696594 0.016229486 0.008186753
000310 a8 03 08 3d 63 58 4c 3c f4 72 36 3c aa d1 11 3d
       0.033206612 0.012472245 0.011135805 0.03560034
000320 2e cc ba bb 05 39 3f bc d3 25 8f bc ce 0f ff bc
       -0.0057006096 -0.011671309 -0.01747409 -0.031135466
000330 f9 87 f2 bc c6 5f e2 3c 86 d8 d7 bc 63 92 0b 3c
       -0.029605852 0.027633559 -0.026348364 0.008518788
000340 4b 29 ca 3c d0 de 3a 3c 53 b3 1c bd 03 f6 12 3d
       0.024677893 0.011405662 -0.038256954 0.035879146
000350 4e c9 d7 bc 03 0b f8 3c 20 58 0a bd db ba 08 3c
       -0.026341107 0.030278688 -0.03377545 0.008345331
000360 a0 35 0b 3d b3 a0 b1 3c 0e e1 0f bd d0 91 89 bc
       0.033986688 0.021683073 -0.03512674 -0.016793162
000370 33 bd 21 bd e6 4a d8 3a f5 27 cb 3c 53 88 0f 3d
       -0.039487075 0.0016501814 0.024799326 0.03504212
000380 d3 e3 f6 3c d0 ee 49 3c d0 68 74 3c 13 5b c2 3c
       0.030137932 0.012325004 0.014917567 0.023725068
000390 58 db bc 3c c2 ac 94 3c 7d 13 7d 3c 3c 21 53 3c
       0.02305381 0.018148784 0.015446541 0.012886342
0003a0 6e 67 2b bd fe 8e f2 bc 03 9a 9f 3c 4e f8 bd bc
       -0.041846685 -0.0296092 0.019482618 -0.02318969
0003b0 c0 bc 3f bc a3 0f 25 3d f0 aa 0c bd 48 67 86 3c
       -0.011702716 0.040298115 -0.034342706 0.01640667
0003c0 42 e5 28 3d 5b 23 40 bc 1e c5 9e bc 90 a3 d2 bc
       0.041234262 -0.011727179 -0.019381102 -0.025712758
0003d0 4e 0a 2a 3d 16 41 e3 bc 12 00 1f 3d 0c f1 16 bd
       0.041513734 -0.027740996 0.038818426 -0.036850974
0003e0 38 71 c0 3c 72 78 0a bd 20 d0 79 3c e7 fe 20 3d
       0.023491487 -0.03380627 0.015247375 0.039305594
0003f0 81 4c 46 bc 4b 68 f2 bc 27 f5 05 3a a4 fc 2f bd
       -0.012103201 -0.029590746 0.0005110078 -0.042965546

Block1.1.weight f4 [128]
000000 00 00 80 3f 00 00 80 3f 09 c0 80 3f 00 00 80 3f
       1.0 1.0 1.0058604 1.0
000010 00 00 80 3f 00 00 80 3f 00 00 80 3f 00 00 80 3f
       1.0 1.0 1.0 1.0
000020 48 40 7b 3f 00 00 80 3f 88 04 7f 3f 00 00 80 3f
       0.9814496 1.0 0.9961629 1.0
000030 37 31 82 3f 61 19 7f 3f 28 af 7d 3f b8 2b 80 3f
       1.0171269 0.996481 0.9909539 1.0013342
000040 1b d7 80 3f ce d4 7f 3f bd 99 7d 3f cf 3f 7e 3f
       1.0065645 0.9993409 0.9906271 0.99316114
000050 d8 02 82 3f 00 00 80 3f 00 00 80 3f 7a 36 7e 3f
       1.0157118 1.0 1.0 0.99301875
000060 f6 6d 80 3f 00 00 80 3f 00 00 80 3f 7a 41 7f 3f
       1.0033557 1.0 1.0 0.99709284
000070 2d 06 81 3f b0 b7 81 3f e8 72 7f 3f 0c a3 7e 3f
       1.008001 1.0134182 0.9978471 0.9946754
000080 bc b8 80 3f 88 43 81 3f 00 00 80 3f 74 f6 7e 3f
       1.0056376 1.0098734 1.0 0.9959481
000090 00 00 80 3f 00 00 80 3f 38 9d 81 3f 90 7d 7d 3f
       1.0 1.0 1.0126104 0.9901972
0000a0 00 00 80 3f 0a f7 7e 3f d6 09 80 3f 62 24 80 3f
       1.0 0.995957 1.0003002 1.0011103
0000b0 78 8b 7f 3f 76 27 80 3f 00 00 80 3f cf 49 7e 3f
       0.9982219 1.0012043 1.0 0.9933137
0000c0 00 00 80 3f f6 85 7f 3f cf 28 80 3f a0 6a 80 3f
       1.0 0.99813783 1.0012454 1.0032539
0000d0 19 1e 7c 3f ea d8 7e 3f 00 00 80 3f 8c 31 7e 3f
       0.98483425 0.99549735 1.0 0.9929435
0000e0 d4 b2 7e 3f 01 3d 81 3f a4 6d 7f 3f c6 46 82 3f
       0.9949162 1.0096742 0.99776673 1.0177848
0000f0 18 4d 7f 3f 70 be 7d 3f 6e 1f 80 3f 00 00 80 3f
       0.9972701 0.9911871 1.0009592 1.0
000100 00 00 80 3f 00 00 80 3f f5 85 81 3f c6 9d 80 3f
       1.0 1.0 1.0119005 1.0048149
000110 63 e0 7e 3f 7f 4d 7b 3f 00 00 80 3f 00 00 80 3f
       0.99561137 0.98165125 1.0 1.0
000120 0a 21 7e 3f 9b 19 7e 3f a1 f8 7e 3f 55 3c 81 3f
       0.99269164 0.9925782 0.9959813 1.0096537
000130 72 4f 82 3f 3e ea 80 3f 82 3e 7f 3f 52 47 80 3f
       1.0180495 1.0071485 0.99704754 1.0021765
000140 00 00 80 3f 00 00 80 3f dc d3 80 3f 00 00 80 3f
       1.0 1.0 1.0064654 1.0
000150 8f ee 7c 3f 00 00 80 3f 97 6d 80 3f 00 00 80 3f
       0.9880151 1.0 1.0033444 1.0
000160 c1 2e 81 3f ae ee 7d 3f 39 cf 7e 3f c6 a8 80 3f
       1.0092393 0.9919232 0.99534947 1.0051506
000170 95 17 81 3f 15 b0 80 3f 34 89 7c 3f d0 60 80 3f
       1.0085322 1.0053736 0.98646855 1.0029545
000180 00 00 80 3f 4b 4c 7e 3f 00 00 80 3f 00 00 80 3f
       1.0 0.99335164 1.0 1.0
000190 4a 7e 80 3f 00 00 80 3f 6d 06 81 3f b4 4b 80 3f
       1.003854 1.0 1.0080086 1.0023103
0001a0 ca 27 7f 3f 00 00 80 3f 02 9f 81 3f be b4 7a 3f
       0.9967009 1.0 1.012665 0.9793204
0001b0 af eb 7e 3f d6 5e 7e 3f 00 00 80 3f a3 fd 7f 3f
       0.99578375 0.9936346 1.0 0.99996394
0001c0 37 60 7e 3f fa f7 84 3f 2c a4 7e 3f b7 d8 7e 3f
       0.9936556 1.0388176 0.99469256 0.9954943
0001d0 9c df 7f 3f 00 00 80 3f 05 cf 7e 3f 11 e8 7b 3f
       0.99950576 1.0 0.99534637 0.9840098
0001e0 50 ec 80 3f 00 00 80 3f d0 41 7f 3f 00 00 80 3f
       1.0072117 1.0 0.99709797 1.0
0001f0 00 00 80 3f 45 5a 7e 3f 52 82 80 3f 29 e8 7e 3f
       1.0 0.9935649 1.0039771 0.99573

Block1.1.bias f4 [128]
000000 00 00 00 00 00 00 00 00 15 5c 3e 3d 00 00 00 00
       0.0 0.0 0.046474535 0.0
000010 00 00 00 00 00 00 00 00 00 00 00 00 00 00 00 00
       0.0 0.0 0.0 0.0
000020 9d 8b 18 3d 00 00 00 00 4a a7 cd 3c 00 00 00 00
       0.03724252 0.0 0.025104184 0.0
000030 e5 8c c4 3c b2 13 02 bc 7d f1 2f 3d 0b a6 34 bb
       0.023992965 -0.007939266 0.04295491 -0.002756479
000040 8b e8 85 3c 6a bb cc ba 30 62 b7 3b 2c 3f 1a 3c
       0.016346237 -0.0015619819 0.0055964217 0.009414475
000050 40 af d7 bb 00 00 00 00 00 00 00 00 ea 98 06 3c
       -0.0065821707 0.0 0.0 0.0082151685
000060 cb 79 20 3d 00 00 00 00 00 00 00 00 32 82 5b bc
       0.03917865 0.0 0.0 -0.01339774
000070 15 f5 20 3d 45 79 8f 3c 4f 4c 60 bb 03 16 c2 3c
       0.03929623 0.01751388 -0.003422517 0.023692137
000080 6f 51 c5 3c c9 0c 8a 3c 00 00 00 00 b8 3c 52 3c
       0.024086682 0.0168518 0.0 0.012831859
000090 00 00 00 00 00 00 00 00 b1 f1 eb 3c b0 23 09 bc
       0.0 0.0 0.02880177 -0.008370325
0000a0 00 00 00 00 8b 5f bc ba 78 a8 6c b9 d1 43 73 bb
       0.0 -0.0014371736 -0.00022569473 -0.003711928
0000b0 c8 f4 9f bc 80 7a 5b bc 00 00 00 00 ac 60 89 3d
       -0.0195259 -0.0133959055 0.0 0.06707892
0000c0 00 00 00 00 b5 0e 8b bb 3b 06 0d b9 35 bf 2a 3d
       0.0 -0.0042436966 -0.00013449129 0.041686255
0000d0 a2 83 f6 3b d7 61 99 bb 00 00 00 00 7e f3 3b 3c
       0.007523016 -0.004680853 0.0 0.011471627
0000e0 99 57 4d 3c a5 e8 87 3c 31 d9 64 bb 3f 4a 95 3c
       0.012533092 0.016590426 -0.0034919495 0.01822388
0000f0 e4 94 6b b8 b1 83 79 bc 48 1b 24 3d 00 00 00 00
       -5.616703e-05 -0.015229152 0.04006508 0.0
000100 00 00 00 00 00 00 00 00 be 32 8e 3c 89 c1 c8 bc
       0.0 0.0 0.01735818 -0.024506347
000110 49 b3 fe bb 45 29 23 3b 00 00 00 00 00 00 00 00
       -0.0077728373 0.0024896425 0.0 0.0
000120 fb dc 56 3a 0f c7 9f 3b 0e 2b 1c 3c 25 06 94 3b
       0.0008196381 0.0048760246 0.009531749 0.004517334
000130 b3 2f f7 3b a9 a5 5d 3c 0e a0 aa ba 1f 00 e3 3c
       0.007543528 0.013528266 -0.0013017671 0.027710019
000140 00 00 00 00 00 00 00 00 2c f2 96 3c 00 00 00 00
       0.0 0.0 0.018426023 0.0
000150 6b 40 fc 3b 00 00 00 00 8e 9b 21 3c 00 00 00 00
       0.007698109 0.0 0.009863747 0.0
000160 5c 60 ac 3c a0 dc 8d 3c 22 42 36 3d 8e 27 88 bb
       0.021042041 0.017317116 0.044496663 -0.004155106
000170 60 97 c9 3c 6f 96 0c 3d 81 52 3a bd 03 3a 0d bb
       0.024608314 0.034323152 -0.045488838 -0.002154947
000180 00 00 00 00 59 20 af 39 00 00 00 00 00 00 00 00
       0.0 0.00033402702 0.0 0.0
000190 76 1f 68 3c 00 00 00 00 76 a0 e0 3c 32 47 da 3c
       0.014167657 0.0 0.027420264 0.026645277
0001a0 67 93 66 bb 00 00 00 00 62 a5 77 3b 21 59 cf 3c
       -0.0035183073 0.0 0.0037787785 0.025311055
0001b0 38 09 69 bb c2 46 aa bc 00 00 00 00 d1 db 9d 3b
       -0.0035558473 -0.020785693 0.0 0.004817464
0001c0 cb 97 54 3d f5 7a 63 3d ba ae d7 3c 77 38 70 bb
       0.051902574 0.055537183 0.026328433 -0.003665475
0001d0 3c b3 30 3c 00 00 00 00 27 cc 2f 3c e0 6e 89 bb
       0.01078492 0.0 0.010729826 -0.0041941255
0001e0 5b 18 1f 3d 00 00 00 00 8f 7f e4 bb 00 00 00 00
       0.038841587 0.0 -0.006973214 0.0
0001f0 00 00 00 00 78 a5 1d bd 0b 7d 5b 3d c7 bb a4 3c
       0.0 -0.03848788 0.053586047 0.02010907

Block1.1.running_mean f4 [128]
000000 00 00 00 00 00 00 00 00 e4 af d9 3b 00 00 00 00
       0.0 0.0 0.0066432822 0.0
000010 00 00 00 00 00 00 00 00 00 00 00 00 00 00 00 00
       0.0 0.0 0.0 0.0
000020 ee 45 9f 3b 00 00 00 00 cb c7 23 3c 00 00 00 00
       0.004860631 0.0 0.009996365 0.0
000030 bf 26 12 bc 9a 89 5e 3c c6 be 70 3c 04 00 00 80
       -0.008920371 0.013582611 0.014693921 -6e-45
000040 4b aa 9c 3b 96 52 4e ba 9d 0f e6 39 ca 30 d3 3a
       0.0047810427 -0.00078705826 0.0004388065 0.0016112563
000050 21 ef 8a 3c 00 00 00 00 00 00 00 00 3d b6 23 3c
       0.016959729 0.0 0.0 0.009992179
000060 04 00 00 80 00 00 00 00 00 00 00 00 10 b3 90 bc
       -6e-45 0.0 0.0 -0.017663509
000070 57 5c f7 3b ab b8 60 3c 04 00 00 00 4a 06 97 3b
       0.0075488496 0.013715903 6e-45 0.004608904
000080 34 b0 44 bc c3 21 a5 3c 00 00 00 00 0e bf 1d 3b
       -0.012004901 0.0201577 0.0 0.0024070176
000090 00 00 00 00 00 00 00 00 28 d7 39 3c 15 9b a8 3c
       0.0 0.0 0.011342801 0.020581761
0000a0 00 00 00 00 04 00 00 80 04 00 00 80 04 00 00 80
       0.0 -6e-45 -6e-45 -6e-45
0000b0 1b 73 8d bc 1e 4c 65 bc 00 00 00 00 64 fe cd bc
       -0.0172668 -0.0139951985 0.0 -0.025145717
0000c0 00 00 00 00 04 00 00 00 04 00 00 00 59 eb 7c bc
       0.0 6e-45 6e-45 -0.015436971
0000d0 1b 61 fa ba 04 00 00 00 00 00 00 00 04 00 00 80
       -0.0019102426 6e-45 0.0 -6e-45
0000e0 90 6c 68 bc 16 17 22 bc 04 00 00 80 83 f0 33 3c
       -0.01418604 -0.009893199 -6e-45 0.010982635
0000f0 04 00 00 00 12 3b 87 bc c3 cd 1f 3c 00 00 00 00
       6e-45 -0.01650766 0.009753647 0.0
000100 00 00 00 00 00 00 00 00 42 bc a0 3c d9 77 c5 bc
       0.0 0.0 0.019621018 -0.024105
000110 04 00 00 00 d9 61 b3 3c 00 00 00 00 00 00 00 00
       6e-45 0.021897243 0.0 0.0
000120 bb 82 8f 3b dd 03 00 80 ad 93 56 ba de 72 67 ba
       0.004379598 -1.386e-42 -0.00081854576 -0.0008829067
000130 e9 b8 bc bc 4d 19 3f bc 04 00 00 80 65 36 a4 3c
       -0.02303739 -0.011663747 -6e-45 0.020045469
000140 00 00 00 00 00 00 00 00 fc 86 af bb 00 00 00 00
       0.0 0.0 -0.0053566676 0.0
000150 ec 72 3a bb 00 00 00 00 bf 6e 8e bc 00 00 00 00
       -0.0028449846 0.0 -0.017386792 0.0
000160 2b 61 d4 bb 3c 98 0b bc 66 9c 50 3c 11 28 43 3c
       -0.00648131 -0.008520182 0.012732601 0.011911408
000170 20 47 3c bc c4 0a 03 3d 66 a6 f1 3b 04 00 00 00
       -0.011491567 0.03199269 0.0073745726 6e-45
000180 00 00 00 00 c4 73 0a bb 00 00 00 00 00 00 00 00
       0.0 -0.002112613 0.0 0.0
000190 56 83 bb bc 00 00 00 00 1f 64 26 bc 16 40 70 bc
       -0.022889774 0.0 -0.010155707 -0.014663717
0001a0 04 00 00 80 00 00 00 00 26 38 09 bc 53 45 9c 3b
       -6e-45 0.0 -0.008375203 0.0047690063
0001b0 04 00 00 00 9e f5 45 3c 00 00 00 00 c7 11 0a 3c
       6e-45 0.0120824855 0.0 0.00842709
0001c0 e6 8d ae 3b ae d7 d6 3c a3 68 10 3c ed 77 73 3a
       0.005326974 0.026225891 0.00881401 0.00092875847
0001d0 88 1c 6e bc 00 00 00 00 68 1d cf aa 3a 24 28 3c
       -0.01453317 0.0 -3.679099e-13 0.010262543
0001e0 ff 79 97 3c 00 00 00 00 04 00 00 00 00 00 00 00
       0.01849079 0.0 6e-45 0.0
0001f0 00 00 00 00 3d 3a 08 3c 4b d5 f4 bb 94 58 dc 3b
       0.0 0.008314666 -0.0074717156 0.0067244265

Block1.1.running_var f4 [128]
000000 04 00 00 00 04 00 00 00 19 ca 3e 39 04 00 00 00
       6e-45 6e-45 0.00018195099 6e-45
000010 04 00 00 00 04 00 00 00 04 00 00 00 04 00 00 00
       6e-45 6e-45 6e-45 6e-45
000020 09 b1 5d 38 04 00 00 00 4e a1 5b 39 04 00 00 00
       5.2855383e-05 6e-45 0.00020945558 6e-45
000030 ce d5 37 39 ae 27 86 39 09 56 fe 39 04 00 00 00
       0.00017531888 0.00025588035 0.00048510756 6e-45
000040 d7 97 ba 39 82 48 28 32 9b ce 55 32 09 ad 0f 38
       0.00035589814 9.795373e-09 1.2445208e-08 3.425501e-05
000050 56 e3 dd 39 04 00 00 00 04 00 00 00 bf 89 f5 38
       0.00042321783 6e-45 6e-45 0.000117081676
000060 04 00 00 00 04 00 00 00 04 00 00 00 ac 38 3a 3a
       6e-45 6e-45 6e-45 0.00071037817
000070 51 f2 36 39 c6 77 c9 39 04 00 00 00 e0 20 40 38
       0.00017447142 0.00038426946 6e-45 4.5806984e-05
000080 fe ec 89 39 05 94 99 3a 04 00 00 00 36 ad 97 37
       0.0002630725 0.0011717087 6e-45 1.808126e-05
000090 04 00 00 00 04 00 00 00 4b 70 2a 39 3d b3 49 39
       6e-45 6e-45 0.00016254296 0.00019235625
0000a0 04 00 00 00 04 00 00 00 04 00 00 00 04 00 00 00
       6e-45 6e-45 6e-45 6e-45
0000b0 ef d4 27 3a 7e dd 8f 39 04 00 00 00 52 77 3b 39
       0.0006402274 0.0002744011 6e-45 0.0001787816
0000c0 04 00 00 00 04 00 00 00 04 00 00 00 cd f1 ac 39
       6e-45 6e-45 6e-45 0.00032986552
0000d0 92 db 77 33 04 00 00 00 04 00 00 00 04 00 00 00
       5.7708867e-08 6e-45 6e-45 6e-45
0000e0 5a 84 c2 39 c7 1a 77 39 04 00 00 00 8c f2 b2 39
       0.00037101173 0.00023565731 6e-45 0.00034131517
0000f0 04 00 00 00 07 4f 1f 3a 4d 4c 95 38 04 00 00 00
       6e-45 0.00060771446 7.119086e-05 6e-45
000100 04 00 00 00 04 00 00 00 fd f7 34 3a 2c a0 37 3a
       6e-45 6e-45 0.0006903408 0.00070047635
000110 04 00 00 00 8c 9d 2d 3a 04 00 00 00 04 00 00 00
       6e-45 0.00066229026 6e-45 6e-45
000120 26 3c dd 37 04 00 00 00 14 5d b9 2b cd c7 53 32
       2.6373262e-05 6e-45 1.3170875e-12 1.2327246e-08
000130 c1 8e 7a 3a 3d 1b a2 39 04 00 00 00 62 d9 9b 39
       0.0009558015 0.00030919342 6e-45 0.00029725867
000140 04 00 00 00 04 00 00 00 ad 6d 8b 38 04 00 00 00
       6e-45 6e-45 6.648465e-05 6e-45
000150 ea 61 9b 37 04 00 00 00 67 1a c2 39 04 00 00 00
       1.8523035e-05 6e-45 0.00037022235 6e-45
000160 a8 15 18 39 db 63 d2 38 1f 75 a1 39 e0 4f 3e 39
       0.00014503917 0.0001003218 0.00030795575 0.00018149568
000170 d7 ae a2 39 23 33 75 3a f8 2c aa 38 04 00 00 00
       0.00031029314 0.0009353628 8.114608e-05 6e-45
000180 04 00 00 00 2b ec 19 3a 04 00 00 00 04 00 00 00
       6e-45 0.00058716786 6e-45 6e-45
000190 cf 3c 85 3a 04 00 00 00 f5 9d 89 39 4d 0e 0a 3a
       0.0010165217 6e-45 0.00026248363 0.0005266413
0001a0 04 00 00 00 04 00 00 00 e6 75 b9 38 e9 a4 c4 39
       6e-45 6e-45 8.843448e-05 0.000375069
0001b0 04 00 00 00 97 95 51 39 04 00 00 00 db cf bc 38
       6e-45 0.0001998752 6e-45 9.003255e-05
0001c0 b5 c7 84 38 6c 80 00 3a f5 37 c5 38 a5 51 6a 32
       6.331449e-05 0.0004901949 9.404115e-05 1.36391565e-08
0001d0 6a da 92 39 04 00 00 00 5c 5c 8b 25 32 d3 0d 39
       0.0002801002 6e-45 2.4175241e-16 0.00013525484
0001e0 91 5a 04 3a 04 00 00 00 04 00 00 00 04 00 00 00
       0.0005048896 6e-45 6e-45 6e-45
0001f0 04 00 00 00 a5 e4 e4 38 f3 b1 ab 38 87 e4 ea 38
       6e-45 0.000109144756 8.187061e-05 0.00011200556

Block1.3.weight f4 [2259]
000000 fd 2d 8a bc 51 a4 2f 3c de e5 c9 bc b4 33 2e 3c
       -0.016867632 0.010720328 -0.024645742 0.010632444
000010 d0 97 e4 bc 90 7e 7f bb 3a 47 dd 3b 4e ca b9 3c
       -0.027904421 -0.003898535 0.0067528756 0.022679474
000020 1b be 43 bc a5 35 5c 3c bc 8c ca 3c c5 b6 fa 3c
       -0.01194718 0.013440524 0.02472531 0.03060473
000030 7b 6d d3 bc b7 e9 05 3c 2b fc ea bc 25 07 84 bc
       -0.02580904 0.008173398 -0.028684696 -0.016116688
000040 2a 37 96 bc a0 db 43 bc 17 d6 ae bc 7f 18 8e bc
       -0.018336851 -0.011954218 -0.02134232 -0.017345665
000050 34 e4 88 bc d3 3d bc b8 ea d5 dd b9 33 2e a8 bc
       -0.016710378 -8.976054e-05 -0.00042311783 -0.020529842
000060 60 d6 d4 39 5f 99 3e 3a f3 89 43 bc 14 a9 71 b8
       0.00040595513 0.0007270779 -0.011934745 -5.7616344e-05
000070 cb f1 1d 3a 0f 3e cb b9 fc 97 01 ba 01 bb 2c b9
       0.00060251047 -0.00038765415 -0.0004943607 -0.00016472863
000080 f2 12 87 39 dd 59 b9 bb 1f 64 32 ba f1 9f 28 bc
       0.00025763322 -0.0056564645 -0.00068050803 -0.010292039
000090 85 35 b9 bb 36 1d 6d b7 c8 df 63 ba 4f 38 f8 39
       -0.005652132 -1.4133102e-05 -0.0008692709 0.000473442
0000a0 a2 c2 db bb 54 d9 2b 3a a1 49 01 3a 6f 44 0e b9
       -0.0067065516 0.0006555517 0.0004931931 -0.00013567669
0000b0 73 78 d7 b9 0a e3 f3 3c 82 36 d1 3c 54 14 fa bc
       -0.00041097737 0.029771347 0.025538687 -0.030527271
0000c0 9b 05 8f bc fb 45 9f ba f8 c4 2d bc d6 37 0c 3c
       -0.017458728 -0.0012151593 -0.010606043 0.008558234
0000d0 13 5a cb 38 4f 42 f4 b8 e9 a1 55 38 ee 73 2b b9
       9.696572e-05 -0.000116471776 5.0933948e-05 -0.00016351018
0000e0 95 7b 5e b9 a0 ab eb b8 5e 34 cc bc 41 40 d4 3c
       -0.00021217608 -0.00011237641 -0.024927314 0.025909545
0000f0 d4 da 08 bc aa 00 af 3c dc aa e0 3c d4 63 d6 bc
       -0.008352954 0.021362621 0.027425222 -0.026170649
000100 60 dd 15 bc 26 0d 96 bc 0d 0f 9f 3c 9e 88 fa 3c
       -0.009147018 -0.018316817 0.019416356 0.030582722
000110 b7 9b 19 3c ac 80 d5 bb 2d c8 1c bc c8 27 1c bc
       0.009375504 -0.006515583 -0.00956921 -0.009530969
000120 3a 27 db bc 81 e4 74 bc 09 90 0d bc 99 f0 ee bb
       -0.026752103 -0.014947058 -0.008640298 -0.007291865
000130 36 d4 a3 bc 0d 3f 99 3c e5 42 6e 3c 55 52 b8 bc
       -0.019998651 0.018706823 0.014542316 -0.022500196
000140 a0 10 a5 3c 0b fe 19 bc 4a 48 9a 3c 32 e8 d0 3b
       0.020149529 -0.0093989475 0.018833298 0.006375336
000150 90 d8 ee 3c d9 37 b8 bc ba 98 db bc d9 7a b6 bc
       0.029156 -0.022487568 -0.026806224 -0.022275375
000160 d6 72 1a bc fc 71 ed 3c 2b 71 b6 3c 31 07 2e 3c
       -0.009426793 0.028985016 0.02227076 0.010621832
000170 4d 8b d0 bb b1 8a 8d bc 4d 08 1e 3c 4a 66 a8 bc
       -0.006364262 -0.017278047 0.009645534 -0.020556588
000180 d0 74 42 3c 3b 21 1b 3c 27 29 a7 3c 5f 30 e6 3c
       0.011868671 0.009468372 0.020405365 0.028099237
000190 ee ea f6 bb d4 b0 46 bc 72 b8 3a 3c 5e bc b0 3b
       -0.00753533 -0.01212712 0.011396514 0.005393549
0001a0 39 89 e5 bc 84 bb f3 3c 8b 15 bb 3c 94 90 94 3c
       -0.028019534 0.0297525 0.02283742 0.018135346
0001b0 54 4b 27 3c 5a 5a 94 3c 4d 83 4a 3c 6c ce 2c bc
       0.010210831 0.01810949 0.012360406 -0.010547262
0001c0 9b c9 c4 bc db dd 27 3c 6b 55 e0 bc 9e 00 e0 3c
       -0.024021914 0.010245766 -0.02738448 0.027344044
0001d0 c7 fc 2f bc d8 03 23 bd 57 47 79 bc a5 85 b9 3c
       -0.010741419 -0.039798588 -0.015214763 0.022646734
0001e0 75 1e 05 3c a8 cb e3 bb 27 11 e0 3c 5f 9c df 3b
       0.008124937 -0.006951768 0.027351929 0.006824061
0001f0 fd 3b 85 bc 8b 35 f4 3c 74 c3 21 bc ac 89 ac 3c
       -0.016263956 0.029810688 -0.00987326 0.02106174
000200 6e 75 d8 bb a4 42 94 3c 40 f7 bf bc a7 cb 38 3c
       -0.0066057956 0.018098183 -0.023433328 0.011279023
000210 95 8f a4 bc a0 8e dd 3b f6 53 16 3c 91 f9 08 bd
       -0.020087996 0.006761387 0.009175291 -0.03344113
000220 ce af 93 3c 49 a5 50 bc eb a9 e5 bc 17 90 a5 3c
       0.018028166 -0.01273472 -0.028035125 0.020210309
000230 7f f3 e7 bb a3 b9 de 3b 93 a9 e1 3c 95 ba aa bb
       -0.0070785875 0.006797032 0.02754668 -0.0052102306
000240 b0 70 07 bc d9 94 b2 bc fc 81 0c bc 42 a3 d4 bc
       -0.008266613 -0.021799492 -0.008575913 -0.025956754
000250 bd 4a 85 3b db 96 f0 bb 57 db ed 3c 4b cd 72 3c
       0.0040677474 -0.007342202 0.029035253 0.0148194535
000260 5e 10 66 3c 39 82 c1 bc 49 3c bd bc ff c1 9e 3b
       0.014041988 -0.023621665 -0.023100035 0.0048449035
000270 3a 78 21 3c 28 f0 9f bc c2 03 16 3c 5f fc 1f bc
       0.009855324 -0.019523695 0.009156169 -0.00976476
000280 0a 4c 8a 3c cf 2e 33 3c 4c e9 a8 3c 5d 38 67 3c
       0.016881961 0.010936453 0.020619057 0.014112559
000290 68 d6 a2 3c 83 b3 cc 3c 65 0b 14 3c aa fb ab bc
       0.019877627 0.024987942 0.00903592 -0.020994026
0002a0 9a b1 b5 3c fc c8 a7 bc c7 59 ca ba 07 a1 2d ba
       0.022179414 -0.020481579 -0.0015438133 -0.0006623421
0002b0 34 3c b1 ba 4b 33 3c 3b df ac a0 3b b6 ce 39 bc
       -0.001352197 0.0028717096 0.0049034203 -0.011340788
0002c0 d5 d0 c9 3c 1a 96 1e 3b 60 92 ad bb ec dd f0 bb
       0.024635712 0.0024198354 -0.0052969903 -0.007350674
0002d0 a9 4a 12 3c 11 64 d5 bc 3d 60 61 3b 00 fe bb bc
       0.008928933 -0.026048692 0.0034389638 -0.022948265
0002e0 51 d3 49 bc 24 f0 d0 3c 54 33 1e bc db 06 12 bc
       -0.012318448 0.025505133 -0.009655792 -0.008912767
0002f0 ab 58 c3 3c ec 20 2d bc e2 81 d4 3b 7f 98 a1 bb
       0.023845991 -0.010566931 0.00648521 -0.004931509
000300 f3 77 50 bc 68 9a 9c 3c 60 fc 0a bc dd 8f ed 3b
       -0.012723911 0.019116595 -0.008483022 0.007249816
000310 97 3c d0 bc 2d 5a 3c bc e4 4c a1 3c 03 ea cc 3c
       -0.025419516 -0.011496109 0.019689985 0.02501393
000320 22 11 ea 3c 0e 9b 96 3c f0 ab b8 3c 67 c1 0f bc
       0.028572623 0.018384483 0.022542924 -0.008774138
000330 8e a7 92 bc 92 ad c5 bc 14 c8 07 bd c5 bc bc bc
       -0.017902162 -0.024130616 -0.033149794 -0.023039231
000340 95 89 bc 3c 3b 85 96 3c 79 71 09 bd 78 84 f2 3c
       0.023014823 0.018374076 -0.03355548 0.029604182
000350 97 a7 9a bc 46 a9 c3 3c ce d6 ab bc c1 45 f5 3c
       -0.018878741 0.023884427 -0.02097645 0.029940488
000360 69 98 12 3c 14 13 18 3c 3f cf b7 3c 69 4d 82 bc
       0.00894747 0.009281892 0.02243769 -0.015906053
000370 0e e9 81 bc 66 fb 01 3d 30 86 d4 3c 2c 4e d7 bc
       -0.0158582 0.031733893 0.025942892 -0.026282392
000380 38 99 ca 3a 7d 29 bd bc 87 56 96 bc 21 1a 1e bc
       0.001545704 -0.023091072 -0.018351806 -0.009649784
000390 56 e6 98 bc 68 8f 44 ba 02 b4 82 39 8c 2b d3 bc
       -0.01866452 -0.0007498176 0.00024929648 -0.0257776
0003a0 9f be 14 3b be a8 c6 3c 29 10 c5 3c 00 82 c7 bc
       0.0022696627 0.024250384 0.024055557 -0.024353981
0003b0 e0 9b 03 bd f5 60 a1 bc e2 58 b6 bc bb 61 f4 3b
       -0.032131076 -0.019699553 -0.02225918 0.0074579394
0003c0 77 6c 8a bc 64 fa b8 3c d1 00 f8 3b be e7 06 3c
       -0.016897423 0.022580333 0.0075684567 0.008233963
0003d0 f0 e8 a6 3c 00 8f 55 3c 1f f9 8f 3c fb f1 58 3c
       0.020374745 0.013034582 0.017574845 0.013241286
0003e0 88 42 d8 bc 12 21 04 bc e2 2a a3 bc 66 ad cf bb
       -0.026398912 -0.008064525 -0.019917909 -0.0063378094
0003f0 40 c6 e6 bc a2 d4 bb bc 97 ee 3a 3a 8f 0e e9 3b
       -0.028170705 -0.02292854 0.00071308896 0.007112331

Block1.4.weight f4 [196]
000000 1a 38 7f 3f 28 ee 7d 3f 1e d1 7f 3f 76 fe 7d 3f
       0.9969498 0.9919152 0.9992846 0.992164
000010 06 4e 82 3f 19 07 82 3f f0 c9 80 3f 8e ff 7e 3f
       1.0180061 1.0158416 1.0061626 0.99608696
000020 33 f2 7c 3f c8 59 7c 3f 77 1d 82 3f e3 7c 7f 3f
       0.98807067 0.98574495 1.0165242 0.99799937
000030 39 90 7f 3f 5a bc 7a 3f 91 b4 83 3f 77 c5 7e 3f
       0.9982944 0.9794365 1.028948 0.9952006
000040 f2 a9 7a 3f ae bf 7e 3f ae 70 85 3f c4 4d 80 3f
       0.97915566 0.9951123 1.0425012 1.0023732
000050 cd 78 7d 3f 67 bb 7c 3f c7 ab 7d 3f 3f 78 85 3f
       0.9901245 0.98723453 0.99090236 1.0427321
000060 e4 d2 7e 3f 69 5f 80 3f 7d 41 7f 3f c2 80 81 3f
       0.99540544 1.0029117 0.997093 1.0117419
000070 fc 37 81 3f df 06 80 3f ae 3c 80 3f 43 81 7d 3f
       1.009521 1.0002097 1.0018518 0.9902536
000080 c6 f9 7b 3f 88 18 7b 3f c7 01 7f 3f 66 61 7e 3f
       0.98428 0.98084307 0.99612087 0.9936737
000090 79 cb 84 3f 05 58 7e 3f d8 5b 80 3f e9 e1 81 3f
       1.0374595 0.9935306 1.0028028 1.0147067
0000a0 01 9f 80 3f 15 d3 7e 3f 00 b3 7c 3f b3 bd 81 3f
       1.0048524 0.99540836 0.9871063 1.0136017
0000b0 09 3c 83 3f 16 d0 81 3f db dc 7f 3f 4d c7 81 3f
       1.0252696 1.0141628 0.99946374 1.0138947
0000c0 bd 4d 7e 3f 36 cf 7b 3f 04 f7 80 3f e6 6b 82 3f
       0.9933737 0.98363054 1.0075383 1.0189178
0000d0 d1 24 7e 3f 25 06 83 3f 49 5a 83 3f 0f 4f 83 3f
       0.9927493 1.023625 1.0261928 1.0258502
0000e0 5c fc 82 3f 40 67 7c 3f cf bb 7f 3f 3a e0 7f 3f
       1.0233264 0.98595047 0.9989595 0.9995152
0000f0 6e d4 7f 3f f6 9c 7f 3f c1 07 80 3f d9 a2 7c 3f
       0.99933517 0.9984888 1.0002366 0.98685986
000100 0b c7 7f 3f c1 db 7f 3f cc aa 83 3f 4c 5b 7d 3f
       0.9991309 0.9994469 1.0286498 0.9896743
000110 55 75 7e 3f da 46 80 3f c4 2d 83 3f a6 23 80 3f
       0.99397784 1.0021622 1.0248342 1.0010879
000120 7c 5d 7e 3f 02 8b 80 3f 36 2e 81 3f ff fd 7e 3f
       0.99361396 1.0042422 1.0092227 0.9960632
000130 ee 3f 7f 3f 6a e1 7d 3f 00 d9 80 3f a5 b1 7f 3f
       0.99706924 0.9917208 1.0066223 0.9988044
000140 f0 0e 7b 3f e1 b6 7a 3f cc 56 80 3f 50 ba 80 3f
       0.9806967 0.979353 1.0026488 1.0056858
000150 c7 f9 7e 3f db eb 82 3f cf c5 7e 3f 38 56 7f 3f
       0.9959988 1.0228227 0.9952058 0.99740934
000160 e8 eb 7a 3f df 69 85 3f 86 e1 7b 3f 2d a1 7d 3f
       0.98016214 1.0422934 0.98390996 0.9907406
000170 46 be 7e 3f e4 00 83 3f ff f0 80 3f a6 6a 7c 3f
       0.99509084 1.0234647 1.0073546 0.9860023
000180 ca a7 7d 3f ad 2a 7e 3f c3 75 81 3f d8 f8 85 3f
       0.9908415 0.9928387 1.0114063 1.0466566
000190 52 d8 7e 3f e6 35 7d 3f b6 80 83 3f d1 83 7e 3f
       0.9954883 0.9891037 1.0273654 0.99419886
0001a0 dc b5 80 3f c9 c7 7d 3f 15 15 80 3f ee 80 7f 3f
       1.0055499 0.9913297 1.0006434 0.99806106
0001b0 53 4a 80 3f 92 36 7d 3f a9 f9 7e 3f a6 86 7c 3f
       1.0022682 0.9891139 0.995997 0.9864296
0001c0 7d ec 84 3f 43 ba 7e 3f 0b 51 80 3f 9e cd 7a 3f
       1.038467 0.9950296 1.0024732 0.97969997
0001d0 32 8e 80 3f 69 22 7e 3f 5f 87 7b 3f 7c 9a 80 3f
       1.0043395 0.99271256 0.98253435 1.0047145
0001e0 ef 85 80 3f 8b b3 81 3f cf 41 82 3f f4 1c 81 3f
       1.0040873 1.0132917 1.0176333 1.0086961
0001f0 e3 a3 82 3f 3f 31 7b 3f 28 0c 7f 3f a9 50 7e 3f
       1.0206264 0.9812202 0.99627924 0.9934183
000200 70 85 81 3f 51 9c 82 3f 87 56 80 3f ae 68 82 3f
       1.0118847 1.0203954 1.0026406 1.0188196
000210 79 7c 7d 3f a9 59 7f 3f a5 55 7e 3f da 3e 86 3f
       0.99018055 0.99746186 0.99349433 1.0487931
000220 69 b2 7f 3f fa 35 7d 3f 76 83 7d 3f c0 58 7d 3f
       0.9988161 0.98910487 0.9902872 0.98963547
000230 9b 1d 81 3f b5 d5 80 3f fe ed 7c 3f 1a 36 81 3f
       1.008716 1.0065218 0.9880065 1.0094635
000240 dc 40 80 3f 38 9a 7c 3f 7b 59 7e 3f cd cd 82 3f
       1.0019794 0.9867282 0.99355286 1.0219055
000250 f8 fe 81 3f 56 66 7c 3f a6 37 7c 3f 61 7b 80 3f
       1.0155935 0.9859365 0.9852241 1.0037652
000260 b5 18 81 3f ca a2 82 3f 41 8d 7b 3f 24 c7 7f 3f
       1.0085665 1.0205929 0.9826241 0.9991324
000270 44 76 80 3f 9f e9 7e 3f 61 4b 81 3f e9 20 7c 3f
       1.0036092 0.9957523 1.0101129 0.98487717
000280 0c 93 82 3f 45 f0 7c 3f 5e e7 7b 3f 0b e3 81 3f
       1.0201125 0.9880412 0.98399913 1.0147413
000290 91 89 7e 3f 4b 9e 7d 3f 85 9d 7d 3f 65 5d 7a 3f
       0.9942866 0.9906966 0.9906848 0.9779876
0002a0 38 1c 83 3f c1 7b 7b 3f 54 3c 7e 3f 05 01 80 3f
       1.0242987 0.9823571 0.99310803 1.0000311
0002b0 e0 6e 80 3f 3e 64 81 3f 27 e8 80 3f 9a d3 7d 3f
       1.0033836 1.0108716 1.0070847 0.99151003
0002c0 b8 a8 7d 3f f3 77 7c 3f 2a 41 7f 3f a6 aa 81 3f
       0.9908557 0.9862053 0.9970881 1.0130203
0002d0 4a b0 85 3f e3 40 81 3f 88 70 80 3f eb 5c 7f 3f
       1.0444424 1.0097927 1.0034342 0.99751157
0002e0 4c 99 81 3f da ee 81 3f ae 52 7c 3f ed bb 80 3f
       1.0124907 1.0151017 0.9856366 1.005735
0002f0 93 ac 7c 3f ec b7 7e 3f 00 15 7e 3f 0d ee 7d 3f
       0.9870083 0.9949939 0.99250793 0.9919136
000300 7c 1d 83 3f 2b 44 80 3f ee 96 81 3f d6 7e 81 3f
       1.0243373 1.0020803 1.0124185 1.0116832

Block1.4.bias f4 [196]
000000 c5 b9 d6 bc c7 99 90 3c dc 8f 5a 3d 59 37 ad 3c
       -0.026211629 0.017651452 0.05335985 0.021144556
000010 4f f8 fd 3c da 11 bd 3c b0 80 4d bc 13 aa e8 3c
       0.031002192 0.023079801 -0.0125428885 0.02840141
000020 46 15 ef bb ca e3 ae bc 40 78 f4 3c 92 64 57 bc
       -0.007296237 -0.021348853 0.029842496 -0.013146536
000030 b8 49 18 3c 80 d5 0c bb 63 83 a0 3c 42 92 c7 bc
       0.00929492 -0.002148956 0.0195939 -0.024361733
000040 cf 64 ae 3b 41 4f a4 39 f4 b7 58 bd 3b 82 a7 3c
       0.005322076 0.00031339566 -0.052909806 0.02044784
000050 bb 12 cd 3c 91 ff 45 3b 4b 33 f0 bc ad 56 ad 3d
       0.025033345 0.0030212144 -0.029321333 0.08463798
000060 cb 58 e6 3a a9 1d 65 bc 0d 99 af bc b9 28 0b 3d
       0.001757407 -0.013984122 -0.021435285 0.033974383
000070 a7 e7 45 3d 00 32 9a 3c d5 8a 5d bb 11 99 33 3c
       0.048316624 0.01882267 -0.0033804674 0.010961787
000080 97 fb f6 bc 06 e5 f8 bc 55 72 df 3a be e2 36 bd
       -0.030149264 -0.030382644 0.0017047623 -0.044649832
000090 87 45 25 3d 05 25 3a 3d bd 75 38 bc 60 73 6c 3d
       0.04034951 0.04544546 -0.01125854 0.057727218
0000a0 95 ee 27 bc 06 e3 3f 3d 66 d4 48 bc 24 49 2b 3d
       -0.0102497535 0.046847366 -0.012257671 0.0418178
0000b0 d8 af ca 3c 50 6e d3 bb 2b e8 30 bc 79 eb 1f bc
       0.024742052 -0.0064523593 -0.010797541 -0.009760731
0000c0 05 98 b8 3b 62 9b a3 bc 00 60 ac bc 81 bf 88 bc
       0.0056333565 -0.019971553 -0.02104187 -0.016692879
0000d0 2c 72 1a 3c 8e da 9d 3c c4 ba 7e 3c 79 61 0e 3c
       0.009426635 0.019269254 0.015547458 0.0086902315
0000e0 f1 f0 ad 3c 2a 47 51 3c 46 4b 89 bb 8c 71 07 3c
       0.021233054 0.0127733145 -0.0041898815 0.008266818
0000f0 46 f6 e3 ba 51 cd c6 ba 29 f5 b8 3c 86 b6 ed bc
       -0.0017392121 -0.001516739 0.022577839 -0.029017698
000100 f0 f8 ee bc c3 74 ce 3c 9b ed 0a 3c 8f ed 66 bb
       -0.029171437 0.02520216 0.008479501 -0.003523681
000110 47 7b 8a 3a bb ab 14 bb b5 51 b0 3b 46 38 86 3c
       0.0010565304 -0.0022685367 0.005380834 0.016384255
000120 b3 01 a0 3c 8f 55 2d 3c 2a 99 99 3b 8d 82 a4 3c
       0.01953206 0.010579481 0.004687448 0.020081783
000130 f8 7f b4 3c f8 cc c9 ba a5 8c 1b 39 f3 9f a9 3b
       0.022033677 -0.0015396168 0.00014834346 0.005176538
000140 5e 51 38 bc 4e f0 0a bd df 5b bf 3c 25 88 0e 3a
       -0.011249868 -0.03392058 0.023359237 0.0005437157
000150 1a b9 5c 3c 8d 94 cb bb 81 ec c0 3c 16 0b 41 bb
       0.013471866 -0.006212777 0.023550274 -0.002945607
000160 b7 30 cf bc 2c f3 8d 3d eb 9c 24 3b d5 59 8d 3c
       -0.025291784 0.06931147 0.0025117944 0.01725475
000170 bd 91 dd 3c 58 d0 c2 3c 79 06 12 3d e8 83 71 bc
       0.027047032 0.023780987 0.035650704 -0.014740922
000180 c5 1d 27 bc 1b c0 02 3c aa 92 0d bc 3a ec f8 bc
       -0.010199969 0.007980372 -0.0086409245 -0.03038608
000190 cb 22 f7 bb 49 88 f5 bc c4 51 4b 3c f8 99 84 bb
       -0.0075419894 -0.029972212 0.012409631 -0.004046675
0001a0 ec cb 01 3c bb dd 3b bc 89 4e 16 3c e5 76 bc 3c
       0.007922154 -0.011466439 0.009173998 0.023005912
0001b0 af b3 7d bb 58 44 45 3d 24 bc 56 bb cd 47 d9 ba
       -0.0038711836 0.04816088 -0.003276595 -0.0016577184
0001c0 16 a5 a5 3d fb d0 1b bc c3 57 ef 3b 45 7d f2 bc
       0.08088128 -0.009510274 0.007304163 -0.029600749
0001d0 6c b9 1d 3d f0 36 e2 3c ef 91 5a 3c 1d b7 44 3d
       0.03850691 0.027614087 0.013340457 0.048026193
0001e0 bc df c0 3c c1 01 18 bc 44 91 f0 ba ee 7e b3 3c
       0.023544185 -0.009277762 -0.0018353839 0.02191111
0001f0 09 3b f4 3c d8 7e 44 bc 2f 1b 69 3b 89 6f aa bc
       0.029813306 -0.0119931325 0.0035569181 -0.020805137
000200 55 fd 89 bb 9a f8 12 3d 3c 5d 62 3c c9 aa 45 3c
       -0.0042111077 0.035881616 0.013816174 0.012064644
000210 a7 8c 16 bd d2 90 1f 3d 42 3a 0f bd b0 69 6a 3d
       -0.03675523 0.03895647 -0.03496767 0.057229698
000220 ef 78 53 3c db c7 0c 3d 4c da b9 bc ef 31 cc bb
       0.012907251 0.034370285 -0.0226871 -0.0062315385
000230 3d 1e b3 3c a9 ac 7d 3d 80 47 cd bc 12 ce 9d 3b
       0.021865005 0.06193224 -0.025058508 0.0048158253
000240 50 dc 9d 3a 49 83 fe bc cc bc 4c 3b b9 e6 ec 3c
       0.0012043808 -0.031068461 0.0031240461 0.02891861
000250 d9 2d 59 bc 1c 96 24 bd d6 52 40 bd 5c e2 05 bb
       -0.01325556 -0.040182218 -0.046954 -0.002042911
000260 de c2 01 3d dc e2 83 3c 1c 3c 74 3b 0a 25 b0 bb
       0.03167998 0.016099386 0.0037267273 -0.005375509
000270 f6 c6 a7 bc 33 64 18 3c d7 73 bb 3b 67 a4 0e bd
       -0.020480614 0.009301233 0.0057205963 -0.034824755
000280 98 4a 02 3d 60 fa 14 bd 6f ad ac 3b 6e 02 fe 3b
       0.03180942 -0.03637159 0.0052696983 0.0077517545
000290 d9 c5 20 3c c6 2d 12 3b f0 51 49 3b 40 e9 32 bc
       0.009812796 0.0022305115 0.0030719005 -0.010919869
0002a0 f9 b6 bc 3c 4a 88 d2 bc cd e3 dd 3a e8 10 c8 bc
       0.023036467 -0.025699753 0.0016928852 -0.024422124
0002b0 4c 94 80 3c 45 06 c2 3d 39 d1 9c bb be ad 7a 3c
       0.015695713 0.09473852 -0.0047856835 0.015300212
0002c0 f6 2e d7 3c af e9 0d bc f0 7c ad bb c4 94 01 3d
       0.02626751 -0.008661672 -0.0052944347 0.031636015
0002d0 b2 ca cd 3c 22 20 54 ba a7 ea a1 3c 40 d1 b8 3a
       0.025121067 -0.00080919464 0.019765211 0.0014100447
0002e0 0c e0 b6 3c 1b 5e c3 3c f8 ac 6a bc 81 87 58 3b
       0.02232363 0.023848584 -0.0143234655 0.003303975
0002f0 74 23 08 bd 5c f7 cb bc 5b ae a8 3c fb e2 03 3c
       -0.033236936 -0.024898224 0.020590952 0.008049722
000300 3a 06 de 3a 55 cd a1 bc ee 3b 3c bd cb 76 2d 3c
       0.0016939112 -0.01975123 -0.04595559 0.0105874045

Block1.4.running_mean f4 [196]
000000 fc 44 4c bb 25 8b 3f bc 88 06 f9 bc 83 62 35 3b
       -0.0031169048 -0.0116908895 -0.030398622 0.0027677126
000010 c6 71 11 bc 83 84 df bb 92 8b e6 3b 10 e3 1a 3d
       -0.008877223 -0.0068212165 0.007035681 0.0378142
000020 ec 65 a5 bc 0f 6c 69 3c 2e ab d3 bc c9 11 1f bc
       -0.020190202 0.014246955 -0.02583846 -0.00970883
000030 5a 82 2e 13 c0 75 ed 3c de 5f 95 bb db 08 c0 3a
       2.2026156e-27 0.028986812 -0.0045585474 0.0014651077
000040 70 3c e0 bb 3c d2 d0 3c 7d 4b 24 ba 9a 76 d4 bc
       -0.006843142 0.025490873 -0.0006267352 -0.02593546
000050 f3 52 08 3c 39 23 1f bc f1 34 1f 3d 22 56 a4 bb
       0.008320558 -0.009712988 0.03886885 -0.0050151506
000060 68 ef b0 bc 4e 70 87 3c 18 8c 40 3c 78 94 ae bc
       -0.021598533 0.016533043 0.011752151 -0.02131103
000070 6d d2 ed 3c fa 1b d5 bb cb f2 82 bc 0c 45 31 bc
       0.029031003 -0.006503579 -0.015984913 -0.010819685
000080 74 31 12 3c 21 ab 86 3c ca be 46 3b d1 6f 2b 3c
       0.008922923 0.016439022 0.0030326121 0.010463671
000090 7d a1 46 bc 95 b7 81 3c 24 ef 1c 3b 75 8d 05 3d
       -0.012123463 0.015834609 0.002394625 0.032605607
0000a0 43 80 3f 3c f4 a7 da 3b 38 1b b6 bb a6 1b 8b 3b
       0.011688295 0.0066728536 -0.005557444 0.0042452393
0000b0 6f 19 40 3c 83 75 2e 3d 11 92 04 3d 85 d0 19 3a
       0.011724814 0.042592537 0.032365862 0.00058675586
0000c0 5b 71 63 bc c7 1b e7 b9 8d f5 d7 3c 6d ec b5 ba
       -0.0138820065 -0.0004408045 0.026362205 -0.0013879664
0000d0 4e b3 90 bc c7 85 ae bc 0f 64 d5 bc ef 2b 01 bd
       -0.017663624 -0.021304024 -0.026048688 -0.03153604
0000e0 ca 76 13 3b 78 7c 7a 3c 80 00 24 3c 28 55 dc ba
       0.0022501224 0.015288465 0.010009885 -0.0016810047
0000f0 a1 c5 5f bc ce 28 1a 3c a9 20 d4 ba 23 82 eb 3b
       -0.013657958 0.009409143 -0.001618405 0.0071871444
000100 ec 7b ec bb 2c d2 e8 3c 1b 56 a6 ba fe 70 56 3a
       -0.007216921 0.02842053 -0.0012690456 0.00081802893
000110 fd fe 2e bc c6 a1 54 bc 0b f8 c7 bc f7 7e 94 3c
       -0.010680911 -0.012978023 -0.024410268 0.018126948
000120 41 0f a1 bb 85 82 e4 3b 16 36 7f 3c d3 c8 b4 bc
       -0.0049151485 0.006973567 0.01557686 -0.022068417
000130 2f 98 00 3a f3 2d 3b bd f2 b4 e4 b7 51 3a 42 bc
       0.00049054896 -0.045698117 -2.7263977e-05 -0.011854724
000140 d2 48 b8 3b dd f3 33 bb 7a d1 1f ba 93 49 2c bc
       0.005623915 -0.0027458586 -0.0006096583 -0.010515588
000150 fc 4b f7 bb c9 c5 84 3b 90 b1 ff 3b 00 89 98 ba
       -0.0075469 0.004051898 0.0078031495 -0.0011637509
000160 c3 3f 6c ba c7 09 f9 bc fb dc 82 bc 7b 62 f5 bc
       -0.0009012187 -0.03040017 -0.015974512 -0.029954186
000170 df 6a 8e 3c 08 58 89 3b bb 14 9c b9 7a 9d 3a bc
       0.017384944 0.0041914023 -0.00029770084 -0.011390084
000180 82 5b 2b 3c 68 51 91 bc 6d 17 90 bc 3c 3b d3 bc
       0.010458829 -0.017739013 -0.017589295 -0.025785081
000190 12 dd 2e bc 13 d7 dc 3c 69 a3 32 bd e6 55 19 b1
       -0.010672824 0.026958024 -0.04361287 -2.2313258e-09
0001a0 d6 1c 3b bc e4 de a9 bb ba b0 e8 3c 37 af 07 bd
       -0.011420449 -0.0051840413 0.028404582 -0.033126082
0001b0 2e bb 15 3c f7 db 54 bc b8 e7 43 bc a0 8a 8c 3c
       0.009138865 -0.012991897 -0.0119571015 0.017155945
0001c0 22 24 90 bc ff e1 00 3c c8 95 47 bc 45 5d 7f 3b
       -0.017595354 0.007866382 -0.012181707 0.0038965505
0001d0 8a ce b7 bc 72 23 c3 ba 9e fd a1 3c 44 d2 1f 3a
       -0.022437353 -0.0014887883 0.019774254 0.00060967007
0001e0 fe 31 6a bb 6a e7 b1 3c b2 da a6 bb be 5f ff bb
       -0.0035735364 0.021716792 -0.0050919885 -0.007793396
0001f0 25 22 fd 3c b9 a8 bb 3b ae 52 49 3c 21 cb 91 bc
       0.03090007 0.0057269004 0.012287779 -0.017797055
000200 0a 15 37 bd 54 c7 0f bb f7 88 5d bb 0f 95 a2 3c
       -0.0446978 -0.0021938877 -0.0033803561 0.019846467
000210 30 dd 3f bc 3c 14 fd b9 fd b6 25 3d aa 47 4e 3c
       -0.01171045 -0.00048270996 0.040457714 0.012590328
000220 bf fe 29 bc 02 00 9a bc c1 1d 51 bc 2c 61 21 3d
       -0.010375678 -0.018798832 -0.012763442 0.03939931
000230 f3 5c b5 bc 8a f9 3a bc e7 89 d6 bc 77 8f 43 3c
       -0.022139048 -0.011412034 -0.026188804 0.01193606
000240 45 50 3e 3d fb ec ca 3b ca ee e2 bc 30 83 be 3c
       0.04646327 0.006192801 -0.027701754 0.023255914
000250 92 c2 95 3b 24 a7 6f bc c8 fc a7 3c bc a2 98 bc
       0.0045703137 -0.014627252 0.020506278 -0.018632285
000260 d7 d3 8b 3b 1d 8f 88 bb 48 21 a9 3b a6 bb bf bc
       0.0042671966 -0.004167451 0.005161438 -0.023404907
000270 1c 64 70 bc b6 41 3f bc de 62 40 bc ce 8b 6a 3c
       -0.014672305 -0.011673382 -0.011742322 0.014315559
000280 88 45 dc bc c7 7b ba bb 23 4a fa 3c 71 1a 40 bc
       -0.026888624 -0.005691025 0.03055293 -0.011725054
000290 46 27 a6 3c c6 a8 9c 3c 67 d4 d6 bb ce fa 86 3c
       0.020282399 0.019123446 -0.006556082 0.016477015
0002a0 f2 34 8d 3b 1e 17 e3 3a ea 1d a9 bb 15 7e b4 bc
       0.00430929 0.0017325615 -0.0051610367 -0.022032777
0002b0 d6 b8 30 3c 02 2e 2e 3c c7 e7 9e bb 98 f1 7f bc
       0.010786256 0.010631086 -0.0048494074 -0.015621565
0002c0 4b 34 b5 bc 89 bf 1f 3c 42 af b2 3c 9d 04 24 bc
       -0.022119662 0.009750255 0.021812085 -0.0100108655
0002d0 4d 12 62 3b 0d ab 26 bc 75 38 aa bc cf 0c 15 bc
       0.0034495771 -0.010172618 -0.020778874 -0.009097292
0002e0 b0 45 e1 3b 1a 20 ae 3c 07 43 13 bd 4e af 6a 3c
       0.0068747625 0.021255542 -0.035952594 0.014324022
0002f0 98 31 11 3b d9 6f 90 3a b4 52 a8 3b cc 7f 6d 3c
       0.0022154804 0.0011019661 0.005136812 0.014495801
000300 6e a7 a1 3b 04 77 a3 3c 18 01 ca 3b 6a a9 ab 3b
       0.0049332893 0.019954212 0.006164681 0.0052387016
