checkpoint/student_1/casia/client/student_4.pt (torch, 253477 bytes, 50 tensors)

torch.sparse_coo f4 [17]
000000 b3 2b 17 be 99 df c1 3d b6 c9 a6 3c a1 29 03 bb
       -0.14762764 0.09466476 0.020359855 -0.0020013826
000010 4d 89 96 3c 70 d8 d9 bd ec 4c 3c be 72 dc c9 bd
       0.018376017 -0.10636985 -0.18388718 -0.098565
000020 44 77 6c 3d 3d f1 dd 3d 01 db 3a bc aa 78 19 be
       0.057730928 0.10837028 -0.011404754 -0.14987436
000030 10 f1 22 3a 26 c2 cd b8 86 88 15 bd 86 d5 ab 3d
       0.00062157307 -9.811325e-05 -0.036507152 0.08390336
000040 c4 92 e6 bc
       -0.028146155

conv1.1.weight f4 [64]
000000 f7 4d 7f 3f fa 2e 7f 3f 00 00 80 3f 00 00 80 3f
       0.9972834 0.99681056 1.0 1.0
000010 00 00 80 3f b7 e0 7b 3f 7a 70 81 3f 00 00 80 3f
       1.0 0.9838976 1.011245 1.0
000020 00 00 80 3f 00 00 80 3f 62 f6 7f 3f 00 00 80 3f
       1.0 1.0 0.99985325 1.0
000030 00 00 80 3f 00 00 80 3f 00 00 80 3f 00 00 80 3f
       1.0 1.0 1.0 1.0
000040 00 00 80 3f 00 00 80 3f 00 00 80 3f 00 00 80 3f
       1.0 1.0 1.0 1.0
000050 00 00 80 3f 00 00 80 3f 00 00 80 3f 00 00 80 3f
       1.0 1.0 1.0 1.0
000060 00 00 80 3f 00 00 80 3f 00 00 80 3f 00 00 80 3f
       1.0 1.0 1.0 1.0
000070 00 00 80 3f 00 00 80 3f 00 00 80 3f 00 00 80 3f
       1.0 1.0 1.0 1.0
000080 00 00 80 3f 00 00 80 3f 00 00 80 3f 00 00 80 3f
       1.0 1.0 1.0 1.0
000090 00 00 80 3f 6b c1 81 3f fc c7 7e 3f 00 00 80 3f
       1.0 1.0137151 0.995239 1.0
0000a0 57 3a 7f 3f 51 45 80 3f 00 00 80 3f 00 00 80 3f
       0.99698395 1.0021154 1.0 1.0
0000b0 00 00 80 3f 00 00 80 3f 00 00 80 3f 00 00 80 3f
       1.0 1.0 1.0 1.0
0000c0 00 00 80 3f a3 64 7f 3f 86 b0 7c 3f 0d e5 7d 3f
       1.0 0.99762934 0.98706853 0.9917763
0000d0 00 00 80 3f 00 00 80 3f 00 00 80 3f 00 00 80 3f
       1.0 1.0 1.0 1.0
0000e0 00 00 80 3f 00 00 80 3f 00 00 80 3f e8 2c 7e 3f
       1.0 1.0 1.0 0.9928727
0000f0 00 00 80 3f 00 00 80 3f 00 00 80 3f 00 00 80 3f
       1.0 1.0 1.0 1.0

conv1.1.bias f4 [64]
000000 27 6d b3 3b c6 39 83 3d 00 00 00 00 00 00 00 00
       0.0054756585 0.06407504 0.0 0.0
000010 00 00 00 00 2b e9 70 3c 33 9f 20 bb 00 00 00 00
       0.0 0.014704029 -0.0024508953 0.0
000020 00 00 00 00 00 00 00 00 e1 cc 72 bb 00 00 00 00
       0.0 0.0 -0.0037048387 0.0
000030 00 00 00 00 00 00 00 00 00 00 00 00 00 00 00 00
       0.0 0.0 0.0 0.0
000040 00 00 00 00 00 00 00 00 00 00 00 00 00 00 00 00
       0.0 0.0 0.0 0.0
000050 00 00 00 00 00 00 00 00 00 00 00 00 00 00 00 00
       0.0 0.0 0.0 0.0
000060 00 00 00 00 00 00 00 00 00 00 00 00 00 00 00 00
       0.0 0.0 0.0 0.0
000070 00 00 00 00 00 00 00 00 00 00 00 00 00 00 00 00
       0.0 0.0 0.0 0.0
000080 00 00 00 00 00 00 00 00 00 00 00 00 00 00 00 00
       0.0 0.0 0.0 0.0
000090 00 00 00 00 9b a6 8d 3c 21 cb 28 3d 00 00 00 00
       0.0 0.017291358 0.041209344 0.0
0000a0 5e 11 68 3d 95 c4 2f ba 00 00 00 00 00 00 00 00
       0.056657188 -0.0006705013 0.0 0.0
0000b0 00 00 00 00 00 00 00 00 00 00 00 00 00 00 00 00
       0.0 0.0 0.0 0.0
0000c0 00 00 00 00 7a f1 b0 3c 52 51 70 3d 96 69 90 3d
       0.0 0.02159952 0.058671303 0.07051389
0000d0 00 00 00 00 00 00 00 00 00 00 00 00 00 00 00 00
       0.0 0.0 0.0 0.0
0000e0 00 00 00 00 00 00 00 00 00 00 00 00 89 54 de 3c
       0.0 0.0 0.0 0.027139919
0000f0 00 00 00 00 00 00 00 00 00 00 00 00 00 00 00 00
       0.0 0.0 0.0 0.0

conv1.1.running_mean f4 [64]
000000 6a 03 f2 b8 04 00 00 00 00 00 00 00 00 00 00 00
       -0.00011540095 6e-45 0.0 0.0
000010 00 00 00 00 19 1f 11 bc aa 1c 2e bb 00 00 00 00
       0.0 -0.008857512 -0.0026567378 0.0
000020 00 00 00 00 00 00 00 00 04 00 00 80 00 00 00 00
       0.0 0.0 -6e-45 0.0
000030 00 00 00 00 00 00 00 00 00 00 00 00 00 00 00 00
       0.0 0.0 0.0 0.0
000040 00 00 00 00 00 00 00 00 00 00 00 00 00 00 00 00
       0.0 0.0 0.0 0.0
000050 00 00 00 00 00 00 00 00 00 00 00 00 00 00 00 00
       0.0 0.0 0.0 0.0
000060 00 00 00 00 00 00 00 00 00 00 00 00 00 00 00 00
       0.0 0.0 0.0 0.0
000070 00 00 00 00 00 00 00 00 00 00 00 00 00 00 00 00
       0.0 0.0 0.0 0.0
000080 00 00 00 00 00 00 00 00 00 00 00 00 00 00 00 00
       0.0 0.0 0.0 0.0
000090 00 00 00 00 50 26 0e 3d d7 d1 98 3c 00 00 00 00
       0.0 0.034704506 0.018654747 0.0
0000a0 36 4e 9b 3a 04 00 00 00 00 00 00 00 00 00 00 00
       0.001184887 6e-45 0.0 0.0
0000b0 00 00 00 00 00 00 00 00 00 00 00 00 00 00 00 00
       0.0 0.0 0.0 0.0
0000c0 00 00 00 00 d2 01 95 bc b7 f0 2f 3d 37 12 2c 3c
       0.0 -0.018189345 0.042954173 0.01050239
0000d0 00 00 00 00 00 00 00 00 00 00 00 00 00 00 00 00
       0.0 0.0 0.0 0.0
0000e0 00 00 00 00 00 00 00 00 00 00 00 00 40 e5 2d bc
       0.0 0.0 0.0 -0.0106137395
0000f0 00 00 00 00 00 00 00 00 00 00 00 00 00 00 00 00
       0.0 0.0 0.0 0.0

conv1.1.running_var f4 [64]
000000 40 e3 6f 3a 04 00 00 00 04 00 00 00 04 00 00 00
       0.00091509894 6e-45 6e-45 6e-45
000010 04 00 00 00 5d a6 ab 39 b5 b2 24 3b 04 00 00 00
       6e-45 0.00032739612 0.0025130932 6e-45
000020 04 00 00 00 04 00 00 00 04 00 00 00 04 00 00 00
       6e-45 6e-45 6e-45 6e-45
000030 04 00 00 00 04 00 00 00 04 00 00 00 04 00 00 00
       6e-45 6e-45 6e-45 6e-45
000040 04 00 00 00 04 00 00 00 04 00 00 00 04 00 00 00
       6e-45 6e-45 6e-45 6e-45
000050 04 00 00 00 04 00 00 00 04 00 00 00 04 00 00 00
       6e-45 6e-45 6e-45 6e-45
000060 04 00 00 00 04 00 00 00 04 00 00 00 04 00 00 00
       6e-45 6e-45 6e-45 6e-45
000070 04 00 00 00 04 00 00 00 04 00 00 00 04 00 00 00
       6e-45 6e-45 6e-45 6e-45
000080 04 00 00 00 04 00 00 00 04 00 00 00 04 00 00 00
       6e-45 6e-45 6e-45 6e-45
000090 04 00 00 00 46 cb 05 3c f5 b5 16 3b 04 00 00 00
       6e-45 0.00816614 0.0022996638 6e-45
0000a0 9d 91 43 3a 04 00 00 00 04 00 00 00 04 00 00 00
       0.0007460358 6e-45 6e-45 6e-45
0000b0 04 00 00 00 04 00 00 00 04 00 00 00 04 00 00 00
       6e-45 6e-45 6e-45 6e-45
0000c0 04 00 00 00 d8 60 14 3b fc c0 b8 3b 72 c4 a9 39
       6e-45 0.0022640731 0.00563824 0.00032380555
0000d0 04 00 00 00 04 00 00 00 04 00 00 00 04 00 00 00
       6e-45 6e-45 6e-45 6e-45
0000e0 04 00 00 00 04 00 00 00 04 00 00 00 37 4c 4c 3a
       6e-45 6e-45 6e-45 0.00077933393
0000f0 04 00 00 00 04 00 00 00 04 00 00 00 04 00 00 00
       6e-45 6e-45 6e-45 6e-45

Block1.0.weight f4 [737]
000000 d6 12 57 bc 78 dd 1e 3d 68 6c 99 3c 9b 9c a9 bc
       -0.013127049 0.038785428 0.01872845 -0.020704558
000010 4a 51 1f bd 2c 11 1b bd 0e 9b e5 bc 8b c6 ed bc
       -0.038895883 -0.037858173 -0.028028037 -0.029025337
000020 58 a2 06 bd 57 62 27 bd 37 01 05 bd d6 84 65 3c
       -0.032869667 -0.04086527 -0.03247186 0.014008721
000030 9b 1a bb 3c 98 ec 0f bd ed 0c 75 bb 61 6c 6d 3b
       0.022839835 -0.035137743 -0.0037391738 0.003622793
000040 80 a4 86 bc be 00 09 3d e6 f8 0e 3d db 08 c2 3c
       -0.016435862 0.033447973 0.034905337 0.023685863
000050 d8 15 a8 bc c6 bd 38 bc e8 5b 23 bd c6 57 2a 3c
       -0.020518228 -0.011275714 -0.03988257 0.010396903
000060 8e a5 8d 3c b0 16 96 bc 2e de 82 3c 2f 2b 22 3d
       0.017290857 -0.018321365 0.015975084 0.039591964
000070 a0 a7 21 bc be 8c d7 3c ce ae 9d 3c 1a 7e 22 3d
       -0.009866625 0.026312228 0.019248392 0.03967104
000080 62 36 04 bd 06 d3 a9 3c c6 3b 9d bc 26 69 be bc
       -0.032278426 0.020730507 -0.019193541 -0.023243498
000090 c3 84 b2 bc e0 14 11 3c c6 31 2a bc 13 bd 03 bd
       -0.021791821 0.008855075 -0.0103878435 -0.032162737
0000a0 30 7c b9 3c 2a 1a 1b bd f4 80 16 3c d6 4b fd 3c
       0.022642225 -0.03786675 0.009186018 0.03091995
0000b0 2b 7d 1a bd 53 0c d0 3c 11 a3 ec 3c c4 46 32 3b
       -0.037717026 0.025396502 0.02888635 0.0027202824
0000c0 5b 94 cc 3c 16 c8 29 bd d6 5c 2f 3c 0b 55 16 bd
       0.024973085 -0.041450582 0.010703286 -0.036702197
0000d0 58 28 a9 3c 83 88 89 3c 09 24 09 bc 5c ce 19 bd
       0.02064912 0.016788727 -0.008370408 -0.037550315
0000e0 26 e9 d5 3c 43 15 94 bc f6 47 6b bc c8 b2 a4 bb
       0.02611215 -0.018076545 -0.014360419 -0.005026195
0000f0 40 6d c2 bc 4b e2 bc 3c 10 e1 cc 3c b4 b9 0b bb
       -0.023733735 0.023057124 0.025009662 -0.0021320404
000100 3a 70 98 ba ff 69 36 37 43 54 df 39 36 33 39 3a
       -0.0011630126 1.08727245e-05 0.00042596654 0.0007064821
000110 2e 8a 65 b9 ec 51 3f 39 a6 ab 3a 39 3c 12 f2 3c
       -0.00021890618 0.00018245698 0.00017802286 0.02954971
000120 95 cd 6f 3a 1b 73 6a bb e0 1d e1 3c f5 86 11 3b
       0.00091477606 -0.0035774175 0.027480066 0.0022205685
000130 e7 02 ff bb 6a 39 00 bb 4e f2 69 3c 51 53 b0 3b
       -0.0077823284 -0.0019565471 0.014278961 0.005381026
000140 35 db 48 3c b8 74 b7 3a d0 8d f6 3c de 5c af bc
       0.012259294 0.0013996577 0.030096918 -0.021406587
000150 a0 69 32 3c b0 e5 25 3c 2b 6a 9c bc f0 d3 a8 bc
       0.010889441 0.010125563 -0.019093594 -0.020608872
000160 c8 31 00 bd 87 58 02 3d 98 5f bb bc 26 1b 1d 3c
       -0.031297475 0.031822708 -0.022872731 0.009588992
000170 5e 39 c5 bc 68 bf 1e 3d 96 e6 e1 bc 5a bc 26 3d
       -0.024075206 0.038756758 -0.027575772 0.04070697
000180 f0 e7 8f 3b 8b a9 e5 3c fb f3 5e bc 7d 17 12 3c
       0.004391663 0.028034946 -0.013607974 0.008916733
000190 a2 16 09 bd 2b ea 32 bc b3 c5 e4 bc f4 78 0a 3d
       -0.03346885 -0.010920088 -0.027926302 0.033806756
0001a0 8b 95 83 3c 47 28 29 3d 78 94 98 3c d6 25 11 3d
       0.016062519 0.041298177 0.018625483 0.035436474
0001b0 27 d8 bb 3c 24 f3 83 bc 07 d0 10 3d db d5 eb 3c
       0.022930218 -0.01610715 0.03535464 0.028788498
0001c0 4b 86 06 3d 76 2b 2a 3c 5a 7b 2a 3d f6 b5 a4 bb
       0.032842916 0.010386338 0.041621543 -0.0050265742
0001d0 36 c5 03 3c 56 36 c4 bc 40 c1 91 3c 0c df a2 3c
       0.008042624 -0.02395169 0.017792344 0.019881748
0001e0 ad 5a 6b 3b 73 05 29 bd ab e9 18 bc c8 d0 d9 bc
       0.0035912201 -0.041264962 -0.009333055 -0.026588812
0001f0 de c8 11 3d f1 5a e0 bc 36 95 10 3d f0 8f b3 bc
       0.035591953 -0.027387114 0.03529855 -0.02191922
000200 50 f7 49 3c 50 8d 41 3c fe 04 8d bc 30 97 06 3c
       0.01232703 0.011813477 -0.017214295 0.008214757
000210 9b 1d 02 bd c3 33 ca 3c 1b 91 3f bc 35 5d 2e bd
       -0.031766515 0.024682885 -0.011692311 -0.042569358
000220 94 e0 24 bd 11 4d ab 3c 6e fe c2 bc 10 fe 2f 3c
       -0.040253237 0.020910772 -0.023802962 0.010741726
000230 38 3d db bc 5f fb 24 3d fe 40 d3 3c c6 65 01 bc
       -0.02676259 0.04027879 0.025787827 -0.0078978
000240 c5 ae f1 39 79 b4 50 38 22 25 9d 3c ef 62 0f b9
       0.00046097315 4.9759143e-05 0.019182745 -0.00013674398
000250 4a 46 c6 3b bf 3e 2a 3a 4e 62 be bc e6 5a 10 bd
       0.0060508596 0.0006494335 -0.023240235 -0.035242938
000260 73 5c 8d bc 76 3a cd bc 4e 0a 8b 3c 2a 98 20 ba
       -0.017255997 -0.02505229 0.016972687 -0.000612619
000270 68 5a ad 3c 94 4b 26 bd b0 bb cf bc 36 a5 06 3d
       0.021161273 -0.04059942 -0.025358051 0.0328724
000280 fb 1a 22 3c a3 c8 94 bc 2a f0 0d 3d 11 98 96 3b
       0.009894128 -0.018162077 0.034652866 0.0045957644
000290 cf c8 8a ba db a3 df bc 28 76 9b bc 82 33 c5 bc
       -0.001058841 -0.027299812 -0.01897724 -0.024072412
0002a0 f8 0e e3 3b e2 81 10 3d 2c a7 13 3d 87 41 83 3a
       0.0069292746 0.035280116 0.0360481 0.0010014036
0002b0 ce 36 c3 39 65 35 49 3d 10 98 a3 3b 2f 7a 57 3c
       0.0003723413 0.049123187 0.0049924925 0.013151689
0002c0 b3 f3 84 3c bb 21 06 3c a8 03 08 3d aa d1 11 3d
       0.016229486 0.008186753 0.033206612 0.03560034
0002d0 70 88 7d bb de 7f c4 bb 4a 16 9f bb d3 25 8f bc
       -0.003868606 -0.0059966883 -0.004854952 -0.01747409
0002e0 ce 0f ff bc 29 9f ea bc c6 5f e2 3c 86 d8 d7 bc
       -0.031135466 -0.028640347 0.027633559 -0.026348364
0002f0 73 d8 db 3b 4b 29 ca 3c d0 de 3a 3c 53 b3 1c bd
       0.0067091524 0.024677893 0.011405662 -0.038256954
000300 03 f6 12 3d 4e c9 d7 bc 03 0b f8 3c 20 58 0a bd
       0.035879146 -0.026341107 0.030278688 -0.03377545
000310 db ba 08 3c a0 35 0b 3d b3 a0 b1 3c 0e e1 0f bd
       0.008345331 0.033986688 0.021683073 -0.03512674
000320 d0 91 89 bc 33 bd 21 bd 5e b5 b0 3c 49 a4 ce bb
       -0.016793162 -0.039487075 0.021570858 -0.0063062054
000330 ac 65 04 3d d3 e3 f6 3c d0 ee 49 3c d0 68 74 3c
       0.032323524 0.030137932 0.012325004 0.014917567
000340 13 5b c2 3c 58 db bc 3c 9c 4f 14 3d 66 5b 27 bd
       0.023725068 0.02305381 0.036208734 -0.04085865
000350 fe 8e f2 bc 03 9a 9f 3c 4e f8 bd bc ef 15 f8 3a
       -0.0296092 0.019482618 -0.02318969 0.0018927435
000360 c0 bc 3f bc a3 0f 25 3d f0 aa 0c bd 48 67 86 3c
       -0.011702716 0.040298115 -0.034342706 0.01640667
000370 42 e5 28 3d 5b 23 40 bc 1e c5 9e bc 90 a3 d2 bc
       0.041234262 -0.011727179 -0.019381102 -0.025712758
000380 4e 0a 2a 3d 16 41 e3 bc 12 00 1f 3d 0c f1 16 bd
       0.041513734 -0.027740996 0.038818426 -0.036850974
000390 38 71 c0 3c 72 78 0a bd 20 d0 79 3c e7 fe 20 3d
       0.023491487 -0.03380627 0.015247375 0.039305594
0003a0 4b bf 54 bc 4b 68 f2 bc e4 8d e7 3a a5 b6 11 bd
       -0.012985061 -0.029590746 0.0017666188 -0.035574574
0003b0 8a 0c b7 3b 6b bf 25 bc 78 37 24 3d d0 ad 3d bc
       0.0055862116 -0.010116438 0.04009196 -0.011577085
0003c0 55 a8 83 bb 9c 66 1e bb 0a d8 de 3b 50 d4 8a 3c
       -0.0040178695 -0.0024170047 0.006800656 0.016946942
0003d0 9e 60 cf 3c 76 15 af bc 5a 3a 20 bd 98 04 12 bd
       0.025314625 -0.021372538 -0.03911815 -0.035648912
0003e0 f0 22 de 3c b0 58 c8 bc db c8 15 bc ee c1 06 3d
       0.027116269 -0.024456352 -0.009142126 0.03289979
0003f0 fe 19 81 bc 0b 40 bb 3c 75 a4 28 bd 2c 17 1d bd
       -0.015759464 0.022857687 -0.041172463 -0.038352177

Block1.1.weight f4 [128]
000000 00 00 80 3f 00 00 80 3f 2e 21 80 3f 00 00 80 3f
       1.0 1.0 1.0010126 1.0
000010 00 00 80 3f 00 00 80 3f 00 00 80 3f 00 00 80 3f
       1.0 1.0 1.0 1.0
000020 c7 e4 7b 3f 00 00 80 3f 1c 87 7f 3f 00 00 80 3f
       0.9839596 1.0 0.99815536 1.0
000030 8d 1c 7f 3f bd 76 7d 3f 5d 09 7f 3f 59 40 80 3f
       0.9965294 0.99009305 0.9962366 1.0019637
000040 35 63 81 3f 87 08 80 3f 63 ad 7d 3f 88 4e 7f 3f
       1.01084 1.0002602 0.9909269 0.99729204
000050 89 0e 83 3f 00 00 80 3f 00 00 80 3f 22 f2 7f 3f
       1.0238811 1.0 1.0 0.9997884
000060 25 5b 80 3f 00 00 80 3f 00 00 80 3f 4a ff 7f 3f
       1.0027815 1.0 1.0 0.99998915
000070 14 ff 7f 3f 19 ef 7a 3f e3 63 7f 3f 2a e4 7d 3f
       0.99998593 0.98021084 0.9976179 0.99176276
000080 53 3c 7e 3f e4 c7 81 3f 00 00 80 3f 35 31 7f 3f
       0.993108 1.0139127 1.0 0.9968446
000090 00 00 80 3f 00 00 80 3f ec 11 80 3f 0a 08 7c 3f
       1.0 1.0 1.0005469 0.98449767
0000a0 00 00 80 3f 39 99 80 3f 65 42 80 3f ed 4c 80 3f
       1.0 1.004676 1.0020262 1.0023476
0000b0 4b 8b 80 3f 91 09 80 3f 00 00 80 3f 7a 82 7f 3f
       1.0042509 1.000292 1.0 0.99808466
0000c0 00 00 80 3f 32 8e 7f 3f af 18 80 3f 13 17 81 3f
       1.0 0.9982635 1.0007533 1.0085167
0000d0 09 6c 80 3f 08 74 7d 3f 00 00 80 3f 79 e0 7e 3f
       1.003297 0.99005175 1.0 0.9956127
0000e0 90 34 7c 3f b2 9e 81 3f 9e 97 7f 3f 4a 60 80 3f
       0.98517704 1.0126555 0.99840724 1.0029385
0000f0 b9 9d 7f 3f c0 70 80 3f 66 66 7b 3f 00 00 80 3f
       0.9985004 1.0034409 0.9820312 1.0
000100 00 00 80 3f 00 00 80 3f db e1 80 3f e9 cc 81 3f
       1.0 1.0 1.0068926 1.0140659
000110 f2 24 7f 3f ab 05 7f 3f 00 00 80 3f 00 00 80 3f
       0.9966575 0.99618024 1.0 1.0
000120 20 f4 7c 3f 16 99 7f 3f 19 37 80 3f d9 f5 80 3f
       0.98810005 0.99842966 1.0016814 1.0075027
000130 55 2b 80 3f e4 cc 80 3f 36 8e 7f 3f 50 44 80 3f
       1.0013224 1.0062528 0.9982637 1.0020847
000140 00 00 80 3f 00 00 80 3f c4 3c 80 3f 00 00 80 3f
       1.0 1.0 1.0018544 1.0
000150 5c 1a 7f 3f 00 00 80 3f a4 c7 80 3f 00 00 80 3f
       0.99649596 1.0 1.0060925 1.0
000160 2e 71 81 3f c6 dc 7e 3f 35 fa 7e 3f 6d 4e 81 3f
       1.0112665 0.99555624 0.99600536 1.0102059
000170 ff 73 7f 3f cf 8b 80 3f 90 ea 7a 3f b2 f3 7f 3f
       0.9978637 1.0042666 0.98014164 0.99981225
000180 00 00 80 3f 81 87 80 3f 00 00 80 3f 00 00 80 3f
       1.0 1.0041353 1.0 1.0
000190 2c 91 81 3f 00 00 80 3f 64 95 7c 3f e7 05 80 3f
       1.0122428 1.0 0.9866545 1.0001801
0001a0 11 38 80 3f 00 00 80 3f 73 c6 7f 3f 2c 3f 7d 3f
       1.001711 1.0 0.99912184 0.9892452
0001b0 53 83 7f 3f 40 3e 80 3f 00 00 80 3f 6a a5 81 3f
       0.9980976 1.0018997 1.0 1.0128605
0001c0 65 f3 80 3f 2d 84 81 3f 21 d7 7e 3f 2c 31 80 3f
       1.0074278 1.0118462 0.9954701 1.0015006
0001d0 10 4b 80 3f 00 00 80 3f b1 81 7f 3f 91 0c 7c 3f
       1.0022907 1.0 0.9980727 0.98456675
0001e0 df ec 81 3f 00 00 80 3f 21 df 7f 3f 00 00 80 3f
       1.0150412 1.0 0.9994984 1.0
0001f0 00 00 80 3f 8d 14 80 3f 1a c8 80 3f 37 ce 7e 3f
       1.0 1.0006272 1.0061066 0.9953341

Block1.1.bias f4 [128]
000000 00 00 00 00 00 00 00 00 b2 80 f5 3c 00 00 00 00
       0.0 0.0 0.029968593 0.0
000010 00 00 00 00 00 00 00 00 00 00 00 00 00 00 00 00
       0.0 0.0 0.0 0.0
000020 f0 4d 7c bb 00 00 00 00 60 72 96 ba 00 00 00 00
       -0.0038498603 0.0 -0.0011478178 0.0
000030 09 3a 0f 3d f0 49 86 bc e1 97 79 3d 81 47 45 ba
       0.034967456 -0.016392678 0.06093586 -0.00075256085
000040 88 a7 2d 3d 1e 08 45 bc 93 88 82 bc 04 05 2e 3d
       0.0423961 -0.012025861 -0.015934264 0.042485252
000050 02 ce 28 3d 00 00 00 00 00 00 00 00 fe 3c 78 3c
       0.04121209 0.0 0.0 0.01515126
000060 bd 4d e1 3b 00 00 00 00 00 00 00 00 1f 46 d0 3c
       0.006875722 0.0 0.0 0.025424061
000070 7e f0 49 3d 0a 35 3d 3c 54 12 2a bb 96 66 ea 3c
       0.049301617 0.01154829 -0.0025950866 0.02861337
000080 7c ba 92 3c 3e f1 b2 3c 00 00 00 00 f2 16 79 3c
       0.017911188 0.021843549 0.0 0.0152032245
000090 00 00 00 00 00 00 00 00 95 f5 1d bc c1 00 9b 3c
       0.0 0.0 -0.009641071 0.018921258
0000a0 00 00 00 00 a4 2f 26 b9 a3 c7 24 bb 7a d7 5c ba
       0.0 -0.00015848741 -0.0025143407 -0.00084244425
0000b0 37 81 97 3c da 88 90 3d 00 00 00 00 ca b9 3a 3d
       0.018494232 0.07057352 0.0 0.04558734
0000c0 00 00 00 00 5f 3d 5b ba be 78 77 b9 51 dd 40 3c
       0.0 -0.0008363332 -0.00023600736 0.011771516
0000d0 41 90 8d 3c 72 5c 0a bc 00 00 00 00 40 85 11 3d
       0.0172807 -0.008444892 0.0 0.035527468
0000e0 5d c0 ef 3b 94 a1 fb 3a 0d 49 98 bb 77 7b 0a bc
       0.0073166327 0.0019197934 -0.00464738 -0.008452288
0000f0 a9 5d c9 b9 43 85 c9 bb 4f 7b 23 bc 00 00 00 00
       -0.0003840749 -0.0061499192 -0.0099781295 0.0
000100 00 00 00 00 00 00 00 00 be 17 95 3a c3 92 40 bc
       0.0 0.0 0.0011374874 -0.011753741
000110 59 8f 4d bb f9 83 48 bc 00 00 00 00 00 00 00 00
       -0.003136596 -0.012238496 0.0 0.0
000120 16 f4 d0 bb 86 f3 08 ba 9c 93 79 3c 11 18 2d 3c
       -0.0063767536 -0.0005224276 0.015232947 0.01056482
000130 93 55 25 3c 1a 5c c9 3c 30 34 0a bc 4c 28 f9 3c
       0.010091203 0.02458005 -0.008435294 0.030414723
000140 00 00 00 00 00 00 00 00 75 d5 93 3c 00 00 00 00
       0.0 0.0 0.01804612 0.0
000150 9f fd dc 3b 00 00 00 00 31 46 60 3c 00 00 00 00
       0.006744101 0.0 0.01368861 0.0
000160 3f 77 d4 3c a5 79 e9 bb 0d cd 25 3a 64 85 b2 3b
       0.025935767 -0.007125097 0.00063248054 0.0054480303
000170 2d 87 75 bb b1 c2 01 3c aa ae 06 bc af 46 6a b9
       -0.0037464604 0.007919953 -0.008220354 -0.0002234231
000180 00 00 00 00 33 c9 a4 3c 00 00 00 00 00 00 00 00
       0.0 0.02011547 0.0 0.0
000190 d0 f9 64 3d 00 00 00 00 a1 2b d2 3c 49 71 00 3d
       0.055902302 0.0 0.02565557 0.031358037
0001a0 3a a0 6e ba 00 00 00 00 19 16 ea 3b 8d a6 dd bb
       -0.0009102855 0.0 0.0071437475 -0.006764239
0001b0 e2 f8 87 bb 6c fd 49 3c 00 00 00 00 3e f3 37 bd
       -0.004149542 0.012328487 0.0 -0.04490971
0001c0 1a bb fe 3c 29 98 04 3d d8 9c c0 3c 48 9d 7c 3c
       0.031095076 0.032371674 0.023512289 0.015418358
0001d0 00 35 d1 ba 00 00 00 00 11 c5 7a 3c d6 2a 40 bc
       -0.001596123 0.0 0.015305773 -0.011728963
0001e0 d4 27 0b 3d 00 00 00 00 a9 83 1e bb 00 00 00 00
       0.03397353 0.0 -0.0024187362 0.0
0001f0 00 00 00 00 96 7d 8f bc 62 c8 a2 3c 1c 84 be bc
       0.0 -0.017515939 0.01987094 -0.023256354

Block1.1.running_mean f4 [128]
000000 00 00 00 00 00 00 00 00 df 28 16 3c 00 00 00 00
       0.0 0.0 0.009165018 0.0
000010 00 00 00 00 00 00 00 00 00 00 00 00 00 00 00 00
       0.0 0.0 0.0 0.0
000020 16 27 75 3b 00 00 00 00 7c 97 4f 3c 00 00 00 00
       0.003740733 0.0 0.012670394 0.0
000030 69 2d 5a bb 16 c0 10 3c d6 61 13 3c 04 00 00 80
       -0.0033291227 0.008834859 0.008995494 -6e-45
000040 f0 7b a9 3b 1a 2e 61 ba 81 65 14 3a 0a f2 3a 3b
       0.005172245 -0.00085899385 0.0005660877 0.0028525614
000050 a6 8b 84 3c 00 00 00 00 00 00 00 00 a6 87 24 3c
       0.01617987 0.0 0.0 0.010042107
000060 77 0f c5 ae 00 00 00 00 00 00 00 00 9b 8d 8c bc
       -8.96127e-11 0.0 0.0 -0.017157366
000070 ec b3 0a 3c 28 0c 38 3c 04 00 00 00 7e 8e 18 3c
       0.008465748 0.011233367 6e-45 0.009311317
000080 4d f9 f4 bb ce 0d a9 3c 00 00 00 00 f3 3a 7c 3a
       -0.007476008 0.020636465 0.0 0.0009621821
000090 00 00 00 00 00 00 00 00 70 89 16 3c 91 85 7a 3c
       0.0 0.0 0.009188041 0.015290634
0000a0 00 00 00 00 04 00 00 80 04 00 00 00 04 00 00 80
       0.0 -6e-45 6e-45 -6e-45
0000b0 76 93 36 bc fc 93 ed ba 00 00 00 00 07 cf d3 bc
       -0.011143556 -0.0018125768 0.0 -0.025855554
0000c0 00 00 00 00 04 00 00 00 04 00 00 00 af dc 25 bc
       0.0 6e-45 6e-45 -0.010123416
0000d0 96 11 dc bb 8a 9b e0 39 00 00 00 00 1f 06 00 80
       -0.0067159636 0.00042840495 0.0 -2.196e-42
0000e0 e0 11 78 bc 91 82 b2 bb 04 00 00 80 ea 3c 26 3c
       -0.0151409805 -0.0054476936 -6e-45 0.010146359
0000f0 d4 9f 86 9d 33 af 8b bc c5 1f 8f 3b 00 00 00 00
       -3.5634763e-21 -0.017051315 0.004367801 0.0
000100 00 00 00 00 00 00 00 00 4c 9c 55 3c 7c 91 b5 bc
       0.0 0.0 0.013037752 -0.022164099
000110 04 00 00 00 bf e1 7c 3c 00 00 00 00 00 00 00 00
       6e-45 0.015434681 0.0 0.0
000120 a3 20 9b 3b 04 00 00 80 e4 05 94 ba d9 50 d5 ba
       0.004734115 -6e-45 -0.001129326 -0.0016274705
000130 36 74 9b bc 58 a3 1f bc 04 00 00 80 32 dd 88 3c
       -0.018976312 -0.009743534 -6e-45 0.016707037
000140 00 00 00 00 00 00 00 00 34 f6 62 bb 00 00 00 00
       0.0 0.0 -0.0034631612 0.0
000150 b6 79 bc bb 00 00 00 00 a1 a0 bb bc 00 00 00 00
       -0.0057518138 0.0 -0.022903742 0.0
000160 bb 3b a9 ba 25 ee d5 bb 9f a2 6c 3c 75 89 e5 3b
       -0.0012911478 -0.006528633 0.014443069 0.0070049115
000170 dc 4d 23 bc b8 08 0b 3d 23 82 14 3c 04 00 00 00
       -0.009967294 0.03394386 0.00906423 6e-45
000180 00 00 00 00 ec 59 51 bc 00 00 00 00 00 00 00 00
       0.0 -0.012777787 0.0 0.0
000190 47 6c 8f bc 00 00 00 00 1f c9 f6 bb 5b 83 34 bc
       -0.017507685 0.0 -0.0075312997 -0.011017646
0001a0 04 00 00 80 00 00 00 00 08 aa 84 bb 29 04 30 3a
       -6e-45 0.0 -0.0040485896 0.0006714487
0001b0 04 00 00 00 5a 31 78 3c 00 00 00 00 4d 88 4e 3c
       6e-45 0.015148485 0.0 0.012605739
0001c0 bd 9f b6 3b 7e d0 c5 3c 5c b0 36 3c 8a c7 cc 3a
       0.0055732415 0.024147268 0.011150446 0.0015623432
0001d0 cf 04 a1 bc 00 00 00 00 04 00 00 00 41 9a 22 3c
       -0.019655613 0.0 6e-45 0.009924472
0001e0 b7 82 ad 3c 00 00 00 00 04 00 00 80 00 00 00 00
       0.021180494 0.0 -6e-45 0.0
0001f0 00 00 00 00 56 6c de 3b f0 44 a9 bc fa 8a 1d 3c
       0.0 0.006787817 -0.020662755 0.009615654

Block1.1.running_var f4 [128]
000000 04 00 00 00 04 00 00 00 7f 58 ae 39 04 00 00 00
       6e-45 6e-45 0.000332538 6e-45
000010 04 00 00 00 04 00 00 00 04 00 00 00 04 00 00 00
       6e-45 6e-45 6e-45 6e-45
000020 9b 0e 1b 38 04 00 00 00 ad 31 de 39 04 00 00 00
       3.6968482e-05 6e-45 0.0004238015 6e-45
000030 c7 2d c1 37 23 8f 91 39 12 36 98 39 04 00 00 00
       2.302871e-05 0.000277632 0.00029031985 6e-45
000040 35 5a 84 39 d1 6a 48 32 21 66 2d 31 40 5b 5c 38
       0.0002524421 1.1665819e-08 2.5232867e-09 5.253707e-05
000050 34 c0 79 39 04 00 00 00 04 00 00 00 a9 88 42 39
       0.00023818092 6e-45 6e-45 0.00018552192
000060 69 12 67 27 04 00 00 00 04 00 00 00 c1 93 4e 3a
       3.206767e-15 6e-45 6e-45 0.00078802934
000070 08 19 20 39 c8 2b 72 39 04 00 00 00 2d e1 8d 39
       0.00015268114 0.00023095228 6e-45 0.00027061385
000080 9e 31 e3 38 dc 3d 9f 3a 04 00 00 00 b9 8b 44 37
       0.000108334454 0.0012149173 6e-45 1.1715042e-05
000090 04 00 00 00 04 00 00 00 af dd cc 38 a7 ef 8d 39
       6e-45 6e-45 9.76877e-05 0.0002707217
0000a0 04 00 00 00 04 00 00 00 04 00 00 00 04 00 00 00
       6e-45 6e-45 6e-45 6e-45
0000b0 bc 79 a4 39 70 9c a8 37 04 00 00 00 dc 08 7e 39
       0.00031371217 2.0100008e-05 6e-45 0.00024226628
0000c0 04 00 00 00 04 00 00 00 04 00 00 00 60 c7 2f 39
       6e-45 6e-45 6e-45 0.00016763574
0000d0 53 6c 3f 35 23 9e c6 30 04 00 00 00 04 00 00 00
       7.131068e-07 1.4451341e-09 6e-45 6e-45
0000e0 97 d7 e2 39 a9 c3 d7 38 04 00 00 00 75 73 4b 39
       0.00043266706 0.000102884434 6e-45 0.000194026
0000f0 8d 07 61 17 17 23 5d 3a f6 e9 75 38 04 00 00 00
       7.271095e-25 0.000843571 5.8630445e-05 6e-45
000100 04 00 00 00 04 00 00 00 53 a0 09 3b 98 5d 18 3a
       6e-45 6e-45 0.0021000102 0.00058122864
000110 04 00 00 00 c1 30 9e 39 04 00 00 00 04 00 00 00
       6e-45 0.00030172433 6e-45 6e-45
000120 d9 da 11 38 04 00 00 00 f0 fc 12 1d 3b df 33 33
       3.477451e-05 6e-45 1.9453705e-21 4.1879712e-08
000130 98 66 32 3a 18 29 82 39 04 00 00 00 9b fb 8e 39
       0.0006805449 0.0002482615 6e-45 0.0002727181
000140 04 00 00 00 04 00 00 00 0e af 0a 38 04 00 00 00
       6e-45 6e-45 3.3064796e-05 6e-45
000150 d4 17 bb 38 04 00 00 00 c8 11 2f 3a 04 00 00 00
       8.921293e-05 6e-45 0.000667837 6e-45
000160 07 14 90 38 97 7a 88 38 13 78 db 39 48 d2 87 38
       6.8701855e-05 6.5078195e-05 0.00041860397 6.4764696e-05
000170 92 e7 90 39 68 ef e4 3a 00 75 03 39 04 00 00 00
       0.00027638354 0.0017466368 0.0001253672 6e-45
000180 04 00 00 00 a7 79 88 3a 04 00 00 00 04 00 00 00
       6e-45 0.0010412232 6e-45 6e-45
000190 e4 f5 16 3a 04 00 00 00 b3 23 fe 38 0c 9d 0c 3a
       0.00057586865 6e-45 0.00012118313 0.0005363978
0001a0 04 00 00 00 04 00 00 00 6f 1d 9f 37 ff a4 f2 39
       6e-45 6e-45 1.8967983e-05 0.0004628077
0001b0 04 00 00 00 98 c5 e2 39 04 00 00 00 c2 f0 3f 39
       6e-45 0.00043253298 6e-45 0.00018304869
0001c0 9c 86 e3 38 0c 5c e5 39 7b 93 08 39 7a bf 25 33
       0.000108492764 0.00043746864 0.00013024911 3.8591203e-08
0001d0 98 14 1c 3a 04 00 00 00 04 00 00 00 2d 90 f1 38
       0.00059539964 6e-45 6e-45 0.0001151863
0001e0 c3 34 2d 3a 04 00 00 00 04 00 00 00 04 00 00 00
       0.00066072884 6e-45 6e-45 6e-45
0001f0 04 00 00 00 e0 f1 66 38 12 e0 fd 39 12 6d 61 39
       6e-45 5.5061537e-05 0.00048422866 0.00021498304

Block1.3.weight f4 [2259]
000000 84 b1 20 bd 0c 19 46 bb 80 a7 e7 3b 8b d4 e3 bc
       -0.039231792 -0.0030227331 0.007069528 -0.02781131
000010 84 b8 ef 3b 88 eb da bc a5 35 5c 3c a6 d0 df 3c
       0.007315697 -0.026723638 0.013440524 0.027321171
000020 8c 2f 46 bc ee f2 f2 3c 7b 6d d3 bc 92 1c 80 bb
       -0.012096297 0.029656854 -0.02580904 -0.003909656
000030 01 0d 22 3c b7 e9 05 3c 2b fc ea bc d6 72 21 bc
       0.009890796 0.008173398 -0.028684696 -0.009854039
000040 72 29 04 bb e6 36 b3 bc f1 20 3e bb 30 f2 5c bc
       -0.0020166305 -0.021876764 -0.0029011334 -0.013485476
000050 17 d6 ae bc 01 5b 91 bc d9 2e 66 bc 33 2e a8 bc
       -0.02134232 -0.01774359 -0.014049255 -0.020529842
000060 1f 23 b9 bb 4c 36 20 bc 96 e2 28 3c 9c 2c e2 3c
       -0.0056499387 -0.00977857 0.010307929 0.027609162
000070 82 36 d1 3c 57 bc f4 bc 9b 05 8f bc 5e 34 cc bc
       0.025538687 -0.029874964 -0.017458728 -0.024927314
000080 98 50 ea bc 41 bc db 3c fb 5d 44 3c 53 f3 0b bd
       -0.028602883 0.026823165 0.011985297 -0.0341676
000090 65 7f 76 bc 6d f0 ae 3c aa 00 af 3c f6 8a d0 3c
       -0.015045022 0.021354878 0.021362621 0.025456887
0000a0 60 dd 15 bc 98 de ad 3c aa 79 95 3b ac 80 d5 bb
       -0.009147018 0.021224305 0.0045616226 -0.006515583
0000b0 2d c8 1c bc 49 54 9a bc 97 38 95 bb fe 8f f4 bc
       -0.00956921 -0.018839018 -0.004553865 -0.029853817
0000c0 87 33 85 bc 8f 05 b6 3b 99 f0 ee bb 22 fc 63 3c
       -0.016259922 0.005554862 -0.007291865 0.013915094
0000d0 61 12 e9 bc 0d 3f 99 3c 3d 1b b6 bb 88 da ca 3c
       -0.028451147 0.018706823 -0.0055574463 0.024762407
0000e0 55 52 b8 bc d4 5f 62 3c 32 e8 d0 3b 90 d8 ee 3c
       -0.022500196 0.0138167925 0.006375336 0.029156
0000f0 2f 85 e3 bb dd 9e b8 bc 18 1a dc bc d9 7a b6 bc
       -0.006943367 -0.02253669 -0.026867911 -0.022275375
000100 34 09 1d bc fc 71 ed 3c 2b 71 b6 3c 31 26 8e bc
       -0.009584714 0.028985016 0.02227076 -0.017352195
000110 4a 66 a8 bc 05 c3 c3 3c 27 29 a7 3c 51 40 b3 3c
       -0.020556588 0.023896703 0.020405365 0.021881254
000120 96 5b 6c bc d4 b0 46 bc 47 c4 c5 3c dd fb 8b 3b
       -0.014426133 -0.01212712 0.024141444 0.004271968
000130 e4 42 9a 3a b9 45 f7 3a 8b 2e 77 3c 0e 9e d1 3b
       0.0011769203 0.0018865383 0.01508678 0.0063970154
000140 39 89 e5 bc 79 2a 8a 3b d1 df 6b bb b8 cb 11 3b
       -0.028019534 0.004216489 -0.003599156 0.002224667
000150 6c 93 5c 3c 8b 15 bb 3c 83 39 30 3c 77 c9 25 3c
       0.0134628825 0.02283742 0.010755899 0.010118834
000160 c6 0c de 3c 35 36 c8 3c 4d 83 4a 3c ba d8 86 bc
       0.0271057 0.02443991 0.012360406 -0.016460765
000170 db dd 27 3c 28 fc e4 bc 7e a7 df 3c 1b da 17 bc
       0.010245766 -0.027952269 0.027301546 -0.009268309
000180 06 42 28 bd 57 47 79 bc 12 50 b3 3c a8 cb e3 bb
       -0.04107859 -0.015214763 0.021888766 -0.006951768
000190 27 11 e0 3c 9d 12 8c bc 4e f5 94 3c 62 8f 06 3d
       0.027351929 -0.01709872 0.018183377 0.032851584
0001a0 25 bc 92 bc 06 fb c8 3b e1 56 8e 3c ee 11 81 3c
       -0.01791198 0.00613344 0.017375411 0.01575562
0001b0 40 f7 bf bc a7 cb 38 3c be c1 9c bc f2 5e 60 bc
       -0.023433328 0.011279023 -0.019135352 -0.013694512
0001c0 9a 10 b2 3b 0c 8c 85 bc ce af 93 3c 49 a5 50 bc
       0.005434108 -0.016302131 0.018028166 -0.01273472
0001d0 9d b9 4f ba eb a9 e5 bc 5d b7 a4 3b b1 6d 44 3c
       -0.0007924082 -0.028035125 0.0050267414 0.011989043
0001e0 5b 3e bc bc a5 4e 29 3d 11 7a d1 3c 84 c1 dd ba
       -0.022978952 0.041334767 0.025570901 -0.0016918634
0001f0 0a 59 75 ba e1 25 a3 3b 83 e1 ac bc 81 71 ad bb
       -0.0009359276 0.0049788808 -0.021103626 -0.0052930717
000200 83 9c 0e ba db 96 f0 bb f8 12 a5 3c c5 54 ef bb
       -0.0005440192 -0.007342202 0.020150647 -0.0073038065
000210 4b cd 72 3c e6 62 95 bb 5e 10 66 3c 4c a0 54 bc
       0.0148194535 -0.0045589088 0.014041988 -0.012977671
000220 49 3c bd bc 3a 78 21 3c 08 64 9a bc 79 20 2d 3c
       -0.023100035 0.009855324 -0.018846527 0.010566824
000230 22 17 34 3c c0 92 6a bb 31 4e 8d bc af 42 4d 3c
       0.010991843 -0.0035793036 -0.017249199 0.012528106
000240 43 3f fe ba 57 1e c5 3c 4c e9 a8 3c 31 7e 8e bb
       -0.0019397516 0.024062319 0.020619057 -0.0043485393
000250 98 78 08 bc 39 c7 c8 bb 2c 24 af 3b 58 0c e9 3c
       -0.008329533 -0.006127265 0.005344888 0.028448269
000260 b4 ef 5f 3c aa fb ab bc 49 d8 a5 3b 61 65 b9 3c
       0.0136679895 -0.020994026 0.0050611836 0.022631349
000270 90 e8 02 bc 7d 7f f5 3b d2 a7 4a 3c 41 70 b0 3b
       -0.0079900175 0.0074920044 0.012369113 0.0053844755
000280 63 71 f9 3b ee 98 c6 bb 7d b9 a1 bc 7b 1e 8f bb
       0.0076123937 -0.006060711 -0.019741768 -0.004367647
000290 69 01 bf 3c 5c c1 21 3c fc a2 60 bc a9 4a 12 3c
       0.023316102 0.009872761 -0.0137107335 0.008928933
0002a0 11 64 d5 bc b2 c7 15 3c 80 3c 24 bc 9c 6d d1 bc
       -0.026048692 0.009141849 -0.01002419 -0.025564961
0002b0 66 56 32 bc 24 f0 d0 3c a2 b2 88 3b 61 db 7f bb
       -0.010884857 0.025505133 0.0041716853 -0.0039040672
0002c0 a2 60 ed bb 35 61 33 bc a7 5b 0d bc de 37 8e 3c
       -0.0072441855 -0.010948469 -0.008627809 0.017360624
0002d0 52 96 ac 3c ec 20 2d bc e6 16 8c 3c 55 88 54 3c
       0.021067772 -0.010566931 0.017100763 0.012971957
0002e0 b1 f4 cf bb f1 56 47 3c d3 76 04 3c 97 3c d0 bc
       -0.006346308 0.012166725 0.0080849705 -0.025419516
0002f0 ac 9b bf bc 23 9b 9d 3c d7 25 d5 3c 89 6f d8 3c
       -0.02338966 0.019239014 0.02601902 0.026420372
000300 0e 9b 96 3c f0 ab b8 3c 67 c1 0f bc 8e a7 92 bc
       0.018384483 0.022542924 -0.008774138 -0.017902162
000310 11 86 3d bc 34 34 f3 bc cc c4 2b 3c c5 bc bc bc
       -0.011567608 -0.029687978 0.010483932 -0.023039231
000320 6c 6b f1 3c 3b 85 96 3c 49 90 5f 3b 18 9a f8 3b
       0.029470168 0.018374076 0.00341131 0.007586729
000330 50 9c 08 bd 78 8f ba 3c 1f 1d c2 3c b8 81 df 3c
       -0.033352196 0.02277349 0.023695527 0.027283534
000340 3f cf b7 3c 30 05 bf 3b f7 61 08 bd 2d 07 75 bb
       0.02243769 0.005829476 -0.03329655 -0.003738831
000350 ea 05 05 3d 08 af da bb 30 86 d4 3c 2c 4e d7 bc
       0.032476343 -0.0066736974 0.025942892 -0.026282392
000360 33 f6 98 3b d3 49 32 3b 01 0b a9 3b 5e e6 05 3d
       0.004668021 0.0027204647 0.0051587825 0.0326904
000370 2b 4f 8b bc 29 79 a1 bc 59 c6 df 3c 18 86 d4 3c
       -0.017005524 -0.019711094 0.02731626 0.025942847
000380 00 82 c7 bc 7f 9d cd bc f5 60 a1 bc 4b 8e f3 bc
       -0.024353981 -0.025099514 -0.019699553 -0.029730937
000390 e2 58 b6 bc 64 fa b8 3c 8c ef 32 bc 38 bd 9d 3b
       -0.02225918 0.022580333 -0.01092137 0.0048138164
0003a0 be e7 06 3c f0 e8 a6 3c f4 b3 96 3c 7d 32 4c 3c
       0.008233963 0.020374745 0.018396355 0.012463209
0003b0 d1 60 ff 3b 13 1a 85 3c 32 09 a5 bc 12 21 04 bc
       0.007793524 0.016247785 -0.020145986 -0.008064525
0003c0 ee e2 55 39 cb 39 d2 b8 40 c6 e6 bc a2 d4 bb bc
       0.00020397801 -0.00010024345 -0.028170705 -0.02292854
0003d0 21 9a 45 bc 3d e4 b3 bc e1 19 01 bd 2b 1e f9 bc
       -0.012060673 -0.021959418 -0.03151882 -0.030409893
0003e0 08 c0 92 bc a0 90 5e 3c 85 9d 8f bc 78 99 97 3c
       -0.017913833 0.013584286 -0.017531166 0.018505797
0003f0 71 e3 0b 3c b3 c0 b6 3c 56 f4 b6 3c 55 09 45 3c
       0.008538113 0.022308683 0.022333305 0.012026151

Block1.4.weight f4 [196]
000000 96 2b 7d 3f 12 6a 7c 3f 2c a5 7c 3f 43 58 81 3f
       0.9889463 0.9859935 0.9868953 1.010506
000010 b9 4f 85 3f 7d 55 7f 3f 79 f9 80 3f 8f 20 7f 3f
       1.0414954 0.9973982 1.0076133 0.99659055
000020 db 86 7c 3f 3e ad 7d 3f 1c a2 81 3f 4c 26 81 3f
       0.98643273 0.9909247 1.0127597 1.0089812
000030 b8 94 7f 3f 54 3e 7d 3f af 3c 84 3f f6 6f 80 3f
       0.998363 0.9892323 1.0331019 1.0034168
000040 7b 59 7c 3f 18 ac 7e 3f ec 2d 84 3f f3 67 81 3f
       0.98574036 0.99481344 1.0326514 1.0109848
000050 96 31 80 3f 2d 2a 80 3f 65 36 7d 3f 45 59 81 3f
       1.0015132 1.0012871 0.98911124 1.0105368
000060 19 57 7e 3f 18 97 7f 3f 3f 46 7e 3f 28 a2 81 3f
       0.9935165 0.99839926 0.9932594 1.0127611
000070 69 92 7d 3f 03 1e 82 3f d1 59 81 3f 01 71 81 3f
       0.9905153 1.0165409 1.0105535 1.0112611
000080 7e 4f 80 3f 5e f0 7d 3f 40 5f 80 3f 38 e4 81 3f
       1.0024259 0.99194896 1.0029068 1.0147772
000090 02 eb 81 3f 63 02 7c 3f 04 66 7c 3f 29 d7 83 3f
       1.0149844 0.9844114 0.98593163 1.0300037
0000a0 e2 62 83 3f ad 9e 7d 3f f2 86 7d 3f f9 1b 82 3f
       1.0264552 0.99070245 0.99034035 1.0164787
0000b0 1d bc 7e 3f 6c 85 80 3f ed 1f 80 3f 42 ae 7e 3f
       0.9950579 1.0040717 1.0009743 0.99484646
0000c0 ae e3 7d 3f 4f ec 7b 3f 03 5b 7f 3f 75 5c 80 3f
       0.99175537 0.98407453 0.9974825 1.0028216
0000d0 32 ab 7d 3f b4 69 80 3f 66 62 82 3f e9 a6 82 3f
       0.9908935 1.0032258 1.0186279 1.0207187
0000e0 1e ae 80 3f c3 dd 7e 3f 33 f3 82 3f e7 c0 7e 3f
       1.0053136 0.9955713 1.0230469 0.99513096
0000f0 3f 6e 80 3f 4e 89 80 3f 80 11 7f 3f 80 4b 7d 3f
       1.0033644 1.0041902 0.9963608 0.9894333
000100 62 0b 7e 3f b2 27 7f 3f f9 30 82 3f 3d 5c 7e 3f
       0.9923612 0.99669945 1.0171195 0.99359494
000110 6e f4 80 3f ef 21 7f 3f 07 d0 80 3f 71 58 7e 3f
       1.0074594 0.99661154 1.0063485 0.993537
000120 bd 04 85 3f 90 ea 80 3f 59 6d 80 3f bc b0 7e 3f
       1.0392071 1.0071583 1.003337 0.99488425
000130 b7 13 80 3f 8a 8e 80 3f 8f 57 7e 3f b1 1e 7e 3f
       1.0006016 1.00435 0.99352354 0.9926558
000140 d8 2b 82 3f 6f df 79 3f 5e b4 7e 3f 04 6a 7d 3f
       1.016963 0.9760656 0.9949397 0.9898989
000150 eb ee 7e 3f fb a4 82 3f db 7e 7d 3f 6b 35 7d 3f
       0.9958331 1.0206598 0.9902169 0.98909634
000160 40 cf 7a 3f 5f 98 81 3f 2f a9 7e 3f b1 96 7c 3f
       0.9797249 1.0124625 0.99476904 0.98667437
000170 ce 97 7f 3f d0 67 81 3f 22 44 80 3f 17 7b 7b 3f
       0.9984101 1.0109806 1.0020792 0.98234695
000180 cd 05 7f 3f 39 f9 7c 3f 47 f1 7b 3f 1b 43 82 3f
       0.99618226 0.98817784 0.98415035 1.0176729
000190 48 94 81 3f 38 c2 7d 3f 78 8b 81 3f 9f 04 7e 3f
       1.0123377 0.9912448 1.0120687 0.992258
0001a0 3c df 80 3f 87 a6 81 3f aa 63 81 3f f2 83 7f 3f
       1.0068126 1.0128945 1.010854 0.9981071
0001b0 bf 2f 81 3f 43 d6 7e 3f 5a f5 7d 3f 8b e9 7c 3f
       1.0092696 0.9954569 0.992025 0.9879386
0001c0 d1 a3 87 3f 01 72 7d 3f 1b d5 7e 3f e6 b0 7f 3f
       1.0596868 0.9900208 0.99543923 0.998793
0001d0 7a 66 81 3f cd e7 7f 3f 72 57 7b 3f 32 97 81 3f
       1.0109398 0.99963075 0.98180306 1.0124266
0001e0 bf b2 7f 3f 07 0f 7f 3f 4a 6d 82 3f a6 3c 81 3f
       0.9988212 0.99632305 1.0189602 1.0096633
0001f0 aa 7e 82 3f 62 d7 7a 3f 78 97 7f 3f 50 b6 7e 3f
       1.0194905 0.979849 0.998405 0.99496937
000200 df d7 84 3f ee 4d 80 3f 22 7e 7d 3f 64 bc 80 3f
       1.0378379 1.0023782 0.9902059 1.0057492
000210 41 aa 7f 3f 73 69 82 3f c4 36 7b 3f 15 fd 81 3f
       0.9986916 1.018843 0.9813044 1.015536
000220 0c 95 7c 3f 17 36 81 3f 7c 34 7d 3f 86 39 80 3f
       0.9866493 1.0094632 0.9890821 1.0017555
000230 21 81 7e 3f ca 9f 80 3f 04 c3 80 3f 93 d4 80 3f
       0.99415785 1.0048764 1.0059514 1.0064873
000240 d6 26 7e 3f a5 84 7c 3f a8 90 7d 3f d3 fc 82 3f
       0.9927801 0.986399 0.9904885 1.0233406
000250 a1 3e 80 3f 1b 2c 7a 3f 8d 03 80 3f 76 0e 81 3f
       1.0019113 0.9772355 1.0001084 1.0082538
000260 8e e2 80 3f 5b 5d 81 3f fb 29 7f 3f d0 41 80 3f
       1.0069139 1.0106615 0.9967343 1.0020084
000270 d2 19 81 3f f2 3e 7f 3f a9 fa 81 3f b8 a2 7d 3f
       1.0086005 0.9970542 1.015462 0.99076414
000280 32 e2 80 3f f2 27 80 3f 92 1b 7c 3f d1 31 81 3f
       1.0069029 1.001219 0.9847957 1.0093328
000290 4a df 7c 3f 0a d0 7c 3f a8 69 7a 3f cc 2e 7d 3f
       0.9877821 0.9875494 0.9781747 0.9889953
0002a0 d2 d5 80 3f 0d 95 7e 3f ae bb 7f 3f 9f 6a 82 3f
       1.0065253 0.99446183 0.9989575 1.0188788
0002b0 de 87 7f 3f e7 13 83 3f e3 3c 7f 3f 5a 11 81 3f
       0.9981669 1.0240449 0.9970228 1.008342
0002c0 1f 97 82 3f 58 a7 7c 3f bc e3 7e 3f 3f 08 80 3f
       1.0202368 0.98692846 0.99566245 1.0002517
0002d0 26 4f 81 3f c4 51 82 3f c1 7e 7d 3f 83 ad 80 3f
       1.0102279 1.0181203 0.99021536 1.0052952
0002e0 4b 0e 80 3f 94 b8 80 3f 20 59 80 3f 91 f1 81 3f
       1.0004362 1.0056329 1.0027199 1.0151845
0002f0 c7 7f 7e 3f 5f 3c 7d 3f 90 6e 80 3f 7c 95 7c 3f
       0.9941372 0.98920244 1.0033741 0.98665595
000300 ba 20 81 3f 51 8c 7f 3f a3 c7 82 3f 9d e5 7c 3f
       1.0088112 0.9982348 1.0217174 0.9878786

Block1.4.bias f4 [196]
000000 f3 7f 1b bc 40 0a 88 bb 0a 43 6e 3c da 5d 6f 3c
       -0.009490955 -0.0041516125 0.014542351 0.014609778
000010 dd 5e cf 3d 05 2e 2b 3d f3 6d a0 3c c9 17 44 3c
       0.101255156 0.041791935 0.019583678 0.011968561
000020 9e 4d f1 bb 5c d2 70 bb 52 7d 4d bc 82 80 3e bb
       -0.007363989 -0.0036746478 -0.012542086 -0.0029068296
000030 4b 8e 94 b8 38 e5 8e 3c ed da e9 3c 10 4e 16 3d
       -7.083694e-05 0.017443284 0.028546775 0.03669554
000040 30 cd c5 bb 40 e7 bb bc ad e2 14 3c 47 02 ba 3c
       -0.006036423 -0.022937417 0.009087247 0.022706164
000050 12 3b 26 3c ab 9d 39 3c c4 84 5a bc 32 48 62 3c
       0.010145919 0.011329095 -0.013337318 0.013811158
000060 6a 97 ce 3b 02 81 04 3c 5f e8 25 bd 7c 68 25 3c
       0.006304671 0.0080873985 -0.04050481 0.010095712
000070 9d ca 33 3c 26 80 19 3d 4d 7d 5e 3d a6 f9 28 3d
       0.0109736 0.037475727 0.054318715 0.04125371
000080 45 de 17 3d ab 51 28 bc 3e f0 e6 3c a8 cc f2 bc
       0.037077207 -0.010273377 0.028190728 -0.029638603
000090 4c 60 1b 3c fb b4 58 bc da 55 dd bc 6d 81 05 3d
       0.009483408 -0.013226743 -0.027018476 0.032594133
0000a0 01 5d 6f bc 6f 6f 9d bc 3e 67 bb bc 1b bf 93 3b
       -0.014609576 -0.019218175 -0.022876378 0.0045088655
0000b0 d6 b7 66 3c e8 fd ae bb 31 75 24 3b f2 4a 2e 3b
       0.014081916 -0.0053403266 0.0025094266 0.0026594964
0000c0 f8 de cd 3c ac 31 da 3b 7a f2 4b bd c2 9a a0 bc
       0.025130734 0.0066587534 -0.04979179 -0.019605044
0000d0 1a 64 2b bc 0e f8 c2 ba 0d b2 a0 3c ff 75 8c 3c
       -0.010460878 -0.0014874951 0.019616151 0.017146109
0000e0 c7 a8 02 3a f4 08 2b 3d dc 42 5b 3d 2f 40 15 bc
       0.0004984256 0.041756585 0.05353056 -0.009109541
0000f0 aa b1 c8 3c a5 d7 f1 bc 79 a5 8d 3c 57 6d 91 bc
       0.02449878 -0.029521773 0.017290818 -0.017752333
000100 53 df fa 3b 8a 8a 07 bc 96 18 6a 3b e1 a0 8b bc
       0.007656017 -0.008272776 0.003572022 -0.017044486
000110 bf 4e 8e 3b ea f5 9d ba 58 51 ab 3c f0 db 38 ba
       0.0043428834 -0.0012051438 0.020912811 -0.0007051816
000120 f6 96 14 3d 03 a2 a2 bc 3e da 2f 3c e1 a2 02 3d
       0.03627678 -0.019852644 0.010733185 0.031893615
000130 e4 6f 8c 3b bd 69 36 3d 87 4f d8 bc 76 cf 1f bc
       0.0042857993 0.044534434 -0.02640511 -0.009754052
000140 d2 17 0f bd 51 d8 33 bc db eb 46 3a 57 d9 b1 bb
       -0.034934826 -0.010976867 0.0007588246 -0.0054275203
000150 f1 e5 d2 bc 41 dd 1d 3d 7a 95 fa bc 98 43 20 bc
       -0.02574441 0.038541082 -0.030588854 -0.009781741
000160 63 4f fb bc 7b 8e 6a 3c 90 69 b3 bc 4f 81 90 3c
       -0.030677503 0.014316197 -0.021900922 0.017639784
000170 82 06 51 bc f6 79 30 3d 94 d2 60 3c c3 55 81 bc
       -0.012757899 0.04308506 0.013722081 -0.015787965
000180 6b 85 af bb 05 6a a6 bb a6 26 70 3c a2 73 d6 bc
       -0.005356481 -0.0050785565 0.014657652 -0.026178185
000190 82 9d ce 3c 08 33 f7 bc 13 87 72 bc cc a2 88 bc
       0.02522159 -0.0301757 -0.014802712 -0.01667919
0001a0 74 6d a8 3c b8 b7 c9 3b b0 e1 6f bc f6 7a db 3c
       0.020560004 0.006155934 -0.01464121 0.02679203
0001b0 63 37 f6 bc e3 2d 1b 3d eb c0 68 3c 33 74 76 3c
       -0.030055707 0.037885558 0.0142061515 0.0150423525
0001c0 29 11 1c 3d 3c 71 90 bc 63 a5 30 bb 66 1c 63 bb
       0.038102303 -0.01763212 -0.0026954047 -0.0034654378
0001d0 bc 89 62 bd 65 e5 0b 3b 93 1b 4e bc 97 ad 18 3c
       -0.055307135 0.0021346447 -0.012579816 0.009318731
0001e0 b3 77 5d bb f9 2f 95 3b 84 04 af 3c 0a 28 ec 3b
       -0.003379327 0.004552838 0.021364458 0.0072069215
0001f0 10 56 f4 3c c3 95 70 3c 83 26 23 bc d8 e6 08 bb
       0.029826194 0.0146841435 -0.009957912 -0.0020889547
000200 db ba 33 3d 31 f7 3b 3b 08 ed 97 bc 80 78 13 3b
       0.04387937 0.0028681273 -0.018545642 0.0022502244
000210 a5 9d 1e 3d 86 f0 a0 3d 9b 1f a7 bc 95 6a 27 3d
       0.03872456 0.07858376 -0.020400813 0.04087313
000220 f0 a8 05 bc 0c 9c aa 3b 81 26 17 3d 88 37 31 3a
       -0.008157954 0.0052065905 0.036901955 0.0006760289
000230 14 3c dc bb 0c bd 25 3d c2 86 96 3b 35 bc 9c 3c
       -0.006721029 0.040463492 0.004593701 0.019132713
000240 d3 d0 5f bc 3e df df b9 19 ee c9 ba 4e b7 0b bd
       -0.013660627 -0.00042700203 -0.0015406042 -0.03411036
000250 0d fb 5b 3c 94 9e 97 3c c2 c3 a6 3c ba 8e 01 3d
       0.013426554 0.018508233 0.020357016 0.031630255
000260 d7 ea f4 bc 32 38 5e 3d 1a f9 3d bc e3 bf 03 3d
       -0.029897137 0.05425281 -0.011595035 0.03216542
000270 1a e1 2f 3c 63 ac 7e 3c 2a c4 ea 3c 6d cf 0a 3d
       0.010734821 0.01554403 0.028657991 0.033889223
000280 b4 24 ea 3c da 1a 13 3c ac 8b 0f 3c a2 3d ce bb
       0.028581955 0.00897857 0.008761328 -0.0062939683
000290 ff ff 9e 3c 1b d4 3a bc 08 ac 8f bb 35 cf 94 bb
       0.019409178 -0.011403109 -0.0043845214 -0.0045413026
0002a0 5b b1 3a 3d f7 50 a8 ba 14 8e 66 3b ec 02 39 bc
       0.045579296 -0.0012841512 0.00351799 -0.011292201
0002b0 17 3a af 3c 34 c8 79 3d 91 36 27 bc 83 b3 3b 3b
       0.021390004 0.060981944 -0.010205881 0.0028640933
0002c0 92 e4 e7 38 09 75 85 bc 2f 5d 57 3c 24 b5 94 bc
       0.00011057513 -0.016291158 0.013144775 -0.01815278
0002d0 16 d4 22 3d fb 54 8c bc 4b a6 bb 3b e1 0b 5c 3c
       0.039753042 -0.017130366 0.005726611 0.0134305665
0002e0 96 c3 89 bc f6 a7 2c bc d8 b0 99 3c b2 37 1c bd
       -0.016816895 -0.010538092 0.018761083 -0.038139053
0002f0 b9 1a a2 bc 75 59 49 bb 10 ac e3 3b 56 bb 9b 3b
       -0.019788133 -0.0030723487 0.0069480017 0.004752557
000300 b3 67 fb 3c c6 d4 fe 3b ac 6d bb bb 58 99 26 3c
       0.030689096 0.0077768294 -0.005719861 0.010168396

Block1.4.running_mean f4 [196]
000000 74 95 99 bc 87 bb a9 bc a1 32 96 bc 00 6c f3 3b
       -0.018748023 -0.020719303 -0.018334689 0.007428646
000010 d7 0c bf bc 24 e5 59 bc df 67 f5 3a 61 ab 3e 3d
       -0.023321552 -0.01329926 0.0018722973 0.04655016
000020 31 07 75 bc f4 1e 66 3c 78 26 57 bb 5f 13 1a bc
       -0.014955328 0.014045466 -0.0032829326 -0.0094040325
000030 04 00 00 80 59 ba 87 3c 94 e1 d2 3b 2d ee 1a 3c
       -6e-45 0.01656835 0.0064355824 0.0094562
000040 ff 0e c0 bb 3d fd 01 3d f5 90 26 bb 55 32 23 3c
       -0.0058611627 0.031735647 -0.002541599 0.009960731
000050 48 de c7 3b 14 c8 8f bc 01 b2 13 38 0b c6 8d bc
       0.006099496 -0.01755146 3.521331e-05 -0.017306348
000060 bf e3 10 bc d4 8b bb 3c fc 73 81 3c e7 70 ba 3c
       -0.008843361 0.022893824 0.015802376 0.022758914
000070 18 14 a4 3c b5 f6 0c bd 3c 73 a3 bc 88 8d 09 3c
       0.020029113 -0.034414966 -0.019952409 0.00839556
000080 15 a2 82 3b 26 0b d6 3c 0a 8d 82 ba 74 40 05 3c
       0.003986607 0.026128363 -0.0009960246 0.008133043
000090 6b 1a 62 bb b1 e9 bd 3c 5f 0d f4 bb 52 95 e9 3c
       -0.003450061 0.023182722 -0.007447883 0.028513584
0000a0 0f 87 49 3c 17 0a 9d 3c af cf b4 3b fc 09 87 bc
       0.012300267 0.01916985 0.005517922 -0.016484253
0000b0 62 dd e5 38 fd bd 83 bc a4 b1 5c 3c c2 6c 75 3b
       0.00010960807 -0.016081804 0.013470087 0.0037448858
0000c0 d8 ab 6c bc 7f 49 86 39 4c 4e 11 3c 47 4f 07 ba
       -0.014445268 0.0002561323 0.008868765 -0.00051616546
0000d0 2d a5 bf ba 60 de 87 bc 59 3a 9e bc 88 8f 97 bc
       -0.001462137 -0.016585529 -0.019314932 -0.018501058
0000e0 da 6c bc 3b 00 10 94 3b 23 34 37 3a 8d 5a 76 3b
       0.005750281 0.004518509 0.0006988665 0.0037590594
0000f0 2f 38 0e bd 49 15 31 bb 90 65 08 bc 12 89 a4 3c
       -0.03472155 -0.0027020744 -0.008324996 0.020084891
000100 fc 28 8d bc 7d 6f 91 3c 69 c8 12 3c 4a af 5f bb
       -0.017231457 0.017753357 0.008958914 -0.003413158
000110 47 fb 15 bc 9d 59 04 bb a7 e9 c4 bc 93 a4 4e bc
       -0.0091541475 -0.0020195015 -0.024037195 -0.01261248
000120 32 97 64 bc a4 f9 aa 3a 2b 81 84 3c f7 23 6d bc
       -0.013952063 0.0013044369 0.016174873 -0.014473907
000130 f8 af 9d 3b c9 51 20 bd ae 6d 91 3c 43 ca 24 bc
       0.004812237 -0.039140496 0.017752495 -0.010057989
000140 4f cc 30 bb 5f 4b ab bb 39 4c e6 3b 28 b7 0a bc
       -0.0026977246 -0.005227491 0.0070281294 -0.008466519
000150 6f ec 0e 3c 3c c8 43 3c 22 dc 8c 3c a2 95 9f 38
       0.008723362 0.011949595 0.017194811 7.609582e-05
000160 41 ee 0e 39 2a 44 0f bd 75 d6 88 3c 3b 53 d2 bc
       0.00013630932 -0.034977116 0.016703824 -0.025674453
000170 31 ab 79 3c 3e 72 f7 3b 8a 21 1b 3a 68 d6 2b bc
       0.015238569 0.0075514605 0.00059177785 -0.01048813
000180 41 9e c2 3b a0 bd 63 bc dc 76 af bb 82 51 3c bc
       0.0059392755 -0.013900191 -0.0053547453 -0.011494042
000190 b2 e5 29 bc 47 cf b9 3c 38 19 22 bd a9 4e 32 b8
       -0.010369705 0.022681845 -0.03957483 -4.2511765e-05
0001a0 80 7e 30 bc d7 a4 48 bc 4d 82 5a 3c f1 ee 13 bd
       -0.010772347 -0.012246332 0.01333673 -0.036116544
0001b0 99 ad 97 3c 0c 76 5c bc 20 f9 33 ba 19 00 8c 3c
       0.018515395 -0.013455879 -0.00068654306 0.01708989
0001c0 c0 05 17 3a c4 f7 29 bc da 18 04 bc d2 84 07 3a
       0.00057610497 -0.010374013 -0.008062566 0.0005169633
0001d0 d5 71 49 bc 04 e1 3b bc b5 52 5f 3c eb 94 53 3c
       -0.012295206 -0.011467222 0.013630559 0.012913923
0001e0 d7 80 8b 3c 18 43 b5 bb ad 1d d0 bb 10 10 96 3b
       0.017029209 -0.00553168 -0.006351194 0.0045795515
0001f0 0b 0f c3 3c ba 31 c1 3a 17 bd 1f 3c 30 15 36 3c
       0.023810884 0.0014739551 0.009749672 0.01111345
000200 7a a8 48 bd 02 40 ca bc e9 64 1e 3c 8e 04 48 3c
       -0.048988797 -0.024688724 0.009667614 0.012208117
000210 2d 9e eb bc 77 1a 2f bb 49 fd 18 3d 04 ac 30 bb
       -0.028761948 -0.0026718655 0.037350927 -0.0026957998
000220 ba a5 2c bc 39 c3 68 bc 2c 65 ca 3b 73 57 49 39
       -0.010537559 -0.014206701 0.0061766114 0.00019201431
000230 2d b7 b1 bc 9e 88 99 bc 36 06 a5 bc 28 c2 4b 3c
       -0.02169379 -0.018741902 -0.020144563 0.012436427
000240 b8 bf 27 3d f4 b8 d6 bc 54 cf 03 bd 91 08 90 3c
       0.04095432 -0.02621124 -0.032180145 0.01758221
000250 da 16 4f 3b e4 e1 55 bc d1 b2 80 3c 7c 85 a9 bb
       0.0031599314 -0.013054345 0.015710266 -0.0051733833
000260 92 3b f8 3b 9f f5 12 bc b8 d6 83 3c 77 35 2e bc
       0.0075754607 -0.008969693 0.016093597 -0.010632864
000270 b8 71 be bc ac ab 89 bc 14 3d 9a bc b6 1a 88 3c
       -0.023247585 -0.016805492 -0.018827952 0.0166143
000280 dd 91 25 bd a8 41 b6 bb ac bc 9a 3c 5f 2d 0d bc
       -0.04042231 -0.005562026 0.018888794 -0.008616774
000290 58 dc c8 38 cd 03 9d 3c ce a3 c0 b8 6c 68 26 bc
       9.5777854e-05 0.019166851 -9.1857844e-05 -0.010156732
0002a0 8d 8a 8d 3c 52 d2 c7 bb 14 65 65 ba cf b5 8b bc
       0.01727798 -0.00609807 -0.00087507186 -0.017054467
0002b0 91 07 fa 3b b3 17 83 3b cf d8 aa 3b d4 34 dc bb
       0.0076302965 0.004000628 0.005213834 -0.006720165
0002c0 e4 b4 e0 bc 8d 7e 83 3b c7 50 48 3c 20 4d 8c bc
       -0.027430005 0.0040128888 0.01222629 -0.01712662
0002d0 11 0b e0 ba 6b d6 dd 3b 25 86 09 bc 03 2a f5 bc
       -0.0017093142 0.0067699454 -0.008393799 -0.02992726
0002e0 04 e6 89 3c b8 9a b2 3c a6 70 16 bd 01 77 89 3c
       0.016833313 0.021802291 -0.036728524 0.016780378
0002f0 04 00 00 80 cb 7d 15 3b 15 b0 d8 ba e6 f2 8c 3c
       -6e-45 0.0022810574 -0.0016531969 0.017205667
000300 b6 da f4 39 f9 5a b6 ba c1 82 40 3b 2d 94 fe bb
       0.0004670226 -0.001391261 0.002937481 -0.007769129
