checkpoint/student_1/casia/client/student_5.pt (torch, 253477 bytes, 50 tensors)

torch.sparse_coo f4 [17]
0	0xbe03eb8f	-0.12882827
1	0x3de508cd	0.11183319
2	0x3d8f05d6	0.06983535
3	0xbc5370ed	-0.012905342
4	0xbd354851	-0.04425842
5	0x3caa32b8	0.020776138
6	0xbe4c436a	-0.19947591
7	0xbde20a6f	-0.11037146
8	0xba912a73	-0.0011075273
9	0x3d468c6d	0.048473764
10	0x3e0cebe6	0.13761863
11	0x3d1da944	0.038491502
12	0xbdde8c40	-0.10866594
13	0xbcd48fbe	-0.025947448
14	0xbb945ceb	-0.0045276782
15	0xba77f2ea	-0.0009458499
16	0x3df05279	0.117344804

conv1.1.weight f4 [64]
0	0x3f7ab6e9	0.9793535
1	0x3f80612e	1.0029657
2	0x3f800000	1.0
3	0x3f800000	1.0
4	0x3f800000	1.0
5	0x3f7c4ba5	0.98552924
6	0x3f829edb	1.0204729
7	0x3f800000	1.0
8	0x3f800000	1.0
9	0x3f800000	1.0
10	0x3f7ff8b5	0.9998887
11	0x3f800000	1.0
12	0x3f800000	1.0
13	0x3f800000	1.0
14	0x3f800000	1.0
15	0x3f800000	1.0
16	0x3f800000	1.0
17	0x3f800000	1.0
18	0x3f800000	1.0
19	0x3f800000	1.0
20	0x3f800000	1.0
21	0x3f800000	1.0
22	0x3f800000	1.0
23	0x3f800000	1.0
24	0x3f800000	1.0
25	0x3f800000	1.0
26	0x3f800000	1.0
27	0x3f800000	1.0
28	0x3f800000	1.0
29	0x3f800000	1.0
30	0x3f800000	1.0
31	0x3f800000	1.0
32	0x3f800000	1.0
33	0x3f800000	1.0
34	0x3f800000	1.0
35	0x3f800000	1.0
36	0x3f800000	1.0
37	0x3f8238fa	1.0173638
38	0x3f813f36	1.0097415
39	0x3f800000	1.0
40	0x3f7d65ca	0.9898344
41	0x3f806db0	1.0033474
42	0x3f800000	1.0
43	0x3f800000	1.0
44	0x3f800000	1.0
45	0x3f800000	1.0
46	0x3f800000	1.0
47	0x3f800000	1.0
48	0x3f800000	1.0
49	0x3f7dcfe1	0.99145323
50	0x3f7b014c	0.98048854
51	0x3f7cc06f	0.9873113
52	0x3f800000	1.0
53	0x3f800000	1.0
54	0x3f800000	1.0
55	0x3f800000	1.0
56	0x3f800000	1.0
57	0x3f800000	1.0
58	0x3f800000	1.0
59	0x3f7e2fdf	0.99291795
60	0x3f800000	1.0
61	0x3f800000	1.0
62	0x3f800000	1.0
63	0x3f800000	1.0

conv1.1.bias f4 [64]
0	0x3d43e714	0.047827795
1	0xb9c3818c	-0.00037289818
2	0x00000000	0.0
3	0x00000000	0.0
4	0x00000000	0.0
5	0x3c82b28d	0.01595428
6	0x3d7df424	0.06200041
7	0x00000000	0.0
8	0x00000000	0.0
9	0x00000000	0.0
10	0xba9d97fa	-0.0012023442
11	0x00000000	0.0
12	0x00000000	0.0
13	0x00000000	0.0
14	0x00000000	0.0
15	0x00000000	0.0
16	0x00000000	0.0
17	0x00000000	0.0
18	0x00000000	0.0
19	0x00000000	0.0
20	0x00000000	0.0
21	0x00000000	0.0
22	0x00000000	0.0
23	0x00000000	0.0
24	0x00000000	0.0
25	0x00000000	0.0
26	0x00000000	0.0
27	0x00000000	0.0
28	0x00000000	0.0
29	0x00000000	0.0
30	0x00000000	0.0
31	0x00000000	0.0
32	0x00000000	0.0
33	0x00000000	0.0
34	0x00000000	0.0
35	0x00000000	0.0
36	0x00000000	0.0
37	0x3aefdd16	0.0018300142
38	0x3c182242	0.009285511
39	0x00000000	0.0
40	0x3da6cd8f	0.08144676
41	0xba63fddc	-0.0008697191
42	0x00000000	0.0
43	0x00000000	0.0
44	0x00000000	0.0
45	0x00000000	0.0
46	0x00000000	0.0
47	0x00000000	0.0
48	0x00000000	0.0
49	0x3cad2be6	0.021139096
50	0x3dbb19ba	0.09135766
51	0xbbc4e1e0	-0.0060083717
52	0x00000000	0.0
53	0x00000000	0.0
54	0x00000000	0.0
55	0x00000000	0.0
56	0x00000000	0.0
57	0x00000000	0.0
58	0x00000000	0.0
59	0x3d09f57b	0.033681374
60	0x00000000	0.0
61	0x00000000	0.0
62	0x00000000	0.0
63	0x00000000	0.0

conv1.1.running_mean f4 [64]
0	0x3b6a7334	0.0035774233
1	0x00000004	6e-45
2	0x00000000	0.0
3	0x00000000	0.0
4	0x00000000	0.0
5	0xbcb33836	-0.02187739
6	0x3b28d4c9	0.0025761595
7	0x00000000	0.0
8	0x00000000	0.0
9	0x00000000	0.0
10	0x00000004	6e-45
11	0x00000000	0.0
12	0x00000000	0.0
13	0x00000000	0.0
14	0x00000000	0.0
15	0x00000000	0.0
16	0x00000000	0.0
17	0x00000000	0.0
18	0x00000000	0.0
19	0x00000000	0.0
20	0x00000000	0.0
21	0x00000000	0.0
22	0x00000000	0.0
23	0x00000000	0.0
24	0x00000000	0.0
25	0x00000000	0.0
26	0x00000000	0.0
27	0x00000000	0.0
28	0x00000000	0.0
29	0x00000000	0.0
30	0x00000000	0.0
31	0x00000000	0.0
32	0x00000000	0.0
33	0x00000000	0.0
34	0x00000000	0.0
35	0x00000000	0.0
36	0x00000000	0.0
37	0x3d80c132	0.06286849
38	0x3d0b1872	0.03395886
39	0x00000000	0.0
40	0xbbf55639	-0.007487085
41	0x00000004	6e-45
42	0x00000000	0.0
43	0x00000000	0.0
44	0x00000000	0.0
45	0x00000000	0.0
46	0x00000000	0.0
47	0x00000000	0.0
48	0x00000000	0.0
49	0xbd2e8df3	-0.042615842
50	0x3cf4285f	0.029804407
51	0x3c0c5684	0.008565549
52	0x00000000	0.0
53	0x00000000	0.0
54	0x00000000	0.0
55	0x00000000	0.0
56	0x00000000	0.0
57	0x00000000	0.0
58	0x00000000	0.0
59	0xbd14a72a	-0.036292233
60	0x00000000	0.0
61	0x00000000	0.0
62	0x00000000	0.0
63	0x00000000	0.0

conv1.1.running_var f4 [64]
0	0x3a08cdbe	0.0005218646
1	0x00000004	6e-45
2	0x00000004	6e-45
3	0x00000004	6e-45
4	0x00000004	6e-45
5	0x3a978e0f	0.0011562723
6	0x3a09fd67	0.0005263895
7	0x00000004	6e-45
8	0x00000004	6e-45
9	0x00000004	6e-45
10	0x00000004	6e-45
11	0x00000004	6e-45
12	0x00000004	6e-45
13	0x00000004	6e-45
14	0x00000004	6e-45
15	0x00000004	6e-45
16	0x00000004	6e-45
17	0x00000004	6e-45
18	0x00000004	6e-45
19	0x00000004	6e-45
20	0x00000004	6e-45
21	0x00000004	6e-45
22	0x00000004	6e-45
23	0x00000004	6e-45
24	0x00000004	6e-45
25	0x00000004	6e-45
26	0x00000004	6e-45
27	0x00000004	6e-45
28	0x00000004	6e-45
29	0x00000004	6e-45
30	0x00000004	6e-45
31	0x00000004	6e-45
32	0x00000004	6e-45
33	0x00000004	6e-45
34	0x00000004	6e-45
35	0x00000004	6e-45
36	0x00000004	6e-45
37	0x3c1bfb6f	0.009520396
38	0x3b3c6a1f	0.0028749777
39	0x00000004	6e-45
40	0x3a3a4a2a	0.0007106388
41	0x00000004	6e-45
42	0x00000004	6e-45
43	0x00000004	6e-45
44	0x00000004	6e-45
45	0x00000004	6e-45
46	0x00000004	6e-45
47	0x00000004	6e-45
48	0x00000004	6e-45
49	0x3b93f337	0.0045150775
50	0x3a671419	0.00088149455
51	0x390470ef	0.00012630572
52	0x00000004	6e-45
53	0x00000004	6e-45
54	0x00000004	6e-45
55	0x00000004	6e-45
56	0x00000004	6e-45
57	0x00000004	6e-45
58	0x00000004	6e-45
59	0x3b4495ec	0.0029996587
60	0x00000004	6e-45
61	0x00000004	6e-45
62	0x00000004	6e-45
63	0x00000004	6e-45

Block1.0.weight f4 [737]
0	0xbc5712d6	-0.013127049
1	0x3d1edd78	0.038785428
2	0x3c996c68	0.01872845
3	0xbca99c9b	-0.020704558
4	0xbd1f514a	-0.038895883
5	0xbd1b112c	-0.037858173
6	0xbce59b0e	-0.028028037
7	0xbcedc68b	-0.029025337
8	0xbd06a258	-0.032869667
9	0xbd276257	-0.04086527
10	0xbd050137	-0.03247186
11	0x3c6584d6	0.014008721
12	0x3cbb1a9b	0.022839835
13	0xbd0fec98	-0.035137743
14	0xbc86a480	-0.016435862
15	0x3d0900be	0.033447973
16	0x3d0ef8e6	0.034905337
17	0xbb49848a	-0.0030749165
18	0xb95778c3	-0.00020548985
19	0xb87965d4	-5.946106e-05
20	0xb9dca7bb	-0.0004208664
21	0xb829465b	-4.0358264e-05
22	0x3925578b	0.00015768239
23	0xba194e4a	-0.0005848153
24	0xb978923a	-0.00023705597
25	0x3c83a845	0.016071448
26	0xbca815d8	-0.020518228
27	0xbc38bdc6	-0.011275714
28	0xbd235be8	-0.03988257
29	0x3c2a57c6	0.010396903
30	0x3c8da58e	0.017290857
31	0xbc9616b0	-0.018321365
32	0x3c82de2e	0.015975084
33	0x3d222b2f	0.039591964
34	0xbc21a7a0	-0.009866625
35	0x3cd78cbe	0.026312228
36	0x3c9daece	0.019248392
37	0x3d227e1a	0.03967104
38	0xbd043662	-0.032278426
39	0x3ca9d306	0.020730507
40	0xbc9d3bc6	-0.019193541
41	0xbcbe6926	-0.023243498
42	0xbcb284c3	-0.021791821
43	0x3c1114e0	0.008855075
44	0xbc2a31c6	-0.0103878435
45	0xbd03bd13	-0.032162737
46	0x3cb97c30	0.022642225
47	0xbd1b1a2a	-0.03786675
48	0x3c08bac6	0.0083453115
49	0x3cfd4bd6	0.03091995
50	0x391b3c16	0.00014804336
51	0x3881621f	6.169476e-05
52	0x3a16cacf	0.0005752267
53	0xbd1a7d2b	-0.037717026
54	0x3cd00c53	0.025396502
55	0x3bd2f28e	0.006437606
56	0x3cebdaa1	0.028790774
57	0x3ccc945b	0.024973085
58	0xbd29c816	-0.041450582
59	0x3c2f5cd6	0.010703286
60	0xbd16550b	-0.036702197
61	0x3ca92858	0.02064912
62	0x3c898883	0.016788727
63	0xbc9f800e	-0.01947024
64	0xbd19ce5c	-0.037550315
65	0x3cd5e926	0.02611215
66	0xbc941543	-0.018076545
67	0xbc6b47f6	-0.014360419
68	0x3be8ab67	0.007100511
69	0xbcc26d40	-0.023733735
70	0x3cbce24b	0.023057124
71	0x3ccce110	0.025009662
72	0x3cb9e853	0.022693789
73	0xbbe84d43	-0.0070892884
74	0x3b01cce3	0.001980596
75	0x3ce11de0	0.027480066
76	0x3d0c629a	0.03427372
77	0x3cf68dd0	0.030096918
78	0x39cb9438	0.0003882961
79	0x390289ed	0.00012449147
80	0xb95ab0f4	-0.0002085602
81	0xbcaf5cde	-0.021406587
82	0x3c3269a0	0.010889441
83	0x3c25e5b0	0.010125563
84	0x3915fc67	0.00014303775
85	0xbc99a9f4	-0.018757798
86	0xbca8d3f0	-0.020608872
87	0x3945c251	0.00018859773
88	0xb9bb0f01	-0.00035678598
89	0x3896d58d	7.192334e-05
90	0xbc2cab69	-0.010538914
91	0xbc93a2c6	-0.018021952
92	0x3d025887	0.031822708
93	0xbcbb5f98	-0.022872731
94	0x3c1d1b26	0.009588992
95	0xbcc5395e	-0.024075206
96	0x3d2681d3	0.040651154
97	0xbce1e696	-0.027575772
98	0x3d26bc5a	0.04070697
99	0x3b8c19ee	0.004275552
100	0xbb9d1b4b	-0.0047945133
101	0x3ce5a98b	0.028034946
102	0xbc99d3f1	-0.01877782
103	0x3c3f39af	0.011671468
104	0xbd0916a2	-0.03346885
105	0xbc32ea2b	-0.010920088
106	0xbce4c5b3	-0.027926302
107	0x3d0a78f4	0.033806756
108	0x3c83958b	0.016062519
109	0x3d292847	0.041298177
110	0x3c989478	0.018625483
111	0x3d1125d6	0.035436474
112	0x3cc7160f	0.02430251
113	0xbc690f7e	-0.014224885
114	0x3d10d007	0.03535464
115	0x3cebd5db	0.028788498
116	0xbb845f42	-0.004039676
117	0x3d263645	0.0405791
118	0x39740256	0.00023270524
119	0xba449eac	-0.00075004506
120	0x3d2a7b5a	0.041621543
121	0xb96ced65	-0.0002259515
122	0x3c03c536	0.008042624
123	0xbcc43656	-0.02395169
124	0x3c91c140	0.017792344
125	0x3c8a30bc	0.016868941
126	0xbd290573	-0.041264962
127	0xbc18e9ab	-0.009333055
128	0xbcd9d0c8	-0.026588812
129	0x3d11c8de	0.035591953
130	0xbcd89040	-0.026435971
131	0x3d109536	0.03529855
132	0xbcb38ff0	-0.02191922
133	0x3c49f750	0.01232703
134	0x3c418d50	0.011813477
135	0xbc8d04fe	-0.017214295
136	0x3c069730	0.008214757
137	0xbd021d9b	-0.031766515
138	0x3cca33c3	0.024682885
139	0xbc3f911b	-0.011692311
140	0xbd56dcf7	-0.052456822
141	0xbd24e094	-0.040253237
142	0x3a333ca2	0.0006837343
143	0x3ce27a28	0.02764614
144	0xbcc2fe6e	-0.023802962
145	0x3c2ffe10	0.010741726
146	0xbcdb3d38	-0.02676259
147	0x3d24fb5f	0.04027879
148	0x3cf2a7d4	0.029621042
149	0xb9e4666f	-0.00043563868
150	0x383fb913	4.5710312e-05
151	0x38bf4ee9	9.122288e-05
152	0x3cc111bb	0.023568025
153	0x3a8cfa1b	0.001075569
154	0x3bc916cf	0.006136752
155	0xbcbe624e	-0.023240235
156	0xbd105ae6	-0.035242938
157	0xbc8d5c73	-0.017255997
158	0xbccd3a76	-0.02505229
159	0x3c8b0a4e	0.016972687
160	0x3ccefd07	0.025267137
161	0xbd264b94	-0.04059942
162	0xbccfbbb0	-0.025358051
163	0x3d06a536	0.0328724
164	0x3c221afb	0.009894128
165	0xbc94c8a3	-0.018162077
166	0x3d0df02a	0.034652866
167	0xbcdfa3db	-0.027299812
168	0xbc9b7628	-0.01897724
169	0xbb5a72c7	-0.0033332573
170	0xbcab9220	-0.020943701
171	0x3b4588c4	0.0030141333
172	0x3d1081e2	0.035280116
173	0x3d13a72c	0.0360481
174	0xbc263cca	-0.010146329
175	0xbb41dc7f	-0.0029580889
176	0x3b788941	0.0037923607
177	0x3d20144f	0.039081868
178	0x3c8f152a	0.017466146
179	0x3a1c1916	0.0005954666
180	0x3c84f3b3	0.016229486
181	0x3c0621bb	0.008186753
182	0x3b7130d0	0.0036802776
183	0x3d0803a8	0.033206612
184	0x3d11d1aa	0.03560034
185	0xbb95f6c5	-0.0045765364
186	0xbbd7c942	-0.006585271
187	0xbc8f25d3	-0.01747409
188	0xbcff0fce	-0.031135466
189	0xbce54c1d	-0.027990395
190	0x3ce25fc6	0.027633559
191	0xbcd7d886	-0.026348364
192	0x3cca294b	0.024677893
193	0x3c3aded0	0.011405662
194	0xbd1cb353	-0.038256954
195	0x3d12f603	0.035879146
196	0xbcd7c94e	-0.026341107
197	0x3cf80b03	0.030278688
198	0xbd0a5820	-0.03377545
199	0x3c08badb	0.008345331
200	0x3d0b35a0	0.033986688
201	0x3cb1a0b3	0.021683073
202	0xbd0fe10e	-0.03512674
203	0xbc8991d0	-0.016793162
204	0xbd21bd33	-0.039487075
205	0x3c8d9cda	0.017286707
206	0x3d09e4d0	0.03366548
207	0x3cf6e3d3	0.030137932
208	0x3c49eed0	0.012325004
209	0x3c7468d0	0.014917567
210	0x3cc25b13	0.023725068
211	0x3cbcdb58	0.02305381
212	0xb77af1bc	-1.4957444e-05
213	0x3d07fad3	0.03319819
214	0x3c264359	0.010147893
215	0x3b93faaf	0.004515968
216	0xbd2ed8bd	-0.042687166
217	0xbb669166	-0.003518188
218	0x396d2be4	0.00022618432
219	0x38e26af1	0.00010796439
220	0x391660ca	0.00014341171
221	0xbcf28efe	-0.0296092
222	0x3c9f9a03	0.019482618
223	0xbcbdf84e	-0.02318969
224	0xbc3fbcc0	-0.011702716
225	0x3d250fa3	0.040298115
226	0xbd0caaf0	-0.034342706
227	0x3c866748	0.01640667
228	0x3d28e542	0.041234262
229	0xbc40235b	-0.011727179
230	0xbc9ec51e	-0.019381102
231	0xbc194e00	-0.009356976
232	0xbcd2a390	-0.025712758
233	0x3d2a0a4e	0.041513734
234	0xbce34116	-0.027740996
235	0x3d1f0012	0.038818426
236	0xbd16f10c	-0.036850974
237	0x3cc07138	0.023491487
238	0xbd0a7872	-0.03380627
239	0xb98f553b	-0.00027338587
240	0xb8ec1abd	-0.00011258337
241	0x3c79d020	0.015247375
242	0x3d20fee7	0.039305594
243	0xbc568881	-0.0130940685
244	0xbcf2684b	-0.029590746
245	0xbc115409	-0.008870133
246	0xbc912fe3	-0.01772303
247	0xbaf6c76c	-0.0018827743
248	0xbc25bf6b	-0.010116438
249	0x3d243778	0.04009196
250	0xbc3dadd0	-0.011577085
251	0xbc5ae2f2	-0.013359772
252	0x3ccf609e	0.025314625
253	0xbd2b1028	-0.041763455
254	0xbb4b44b5	-0.0031016294
255	0xbd203a5a	-0.03911815

Block1.1.weight f4 [128]
0	0x3f800000	1.0
1	0x3f800000	1.0
2	0x3f7c0b81	0.98455054
3	0x3f800000	1.0
4	0x3f800000	1.0
5	0x3f800000	1.0
6	0x3f800000	1.0
7	0x3f800000	1.0
8	0x3f7a5a12	0.97793686
9	0x3f800000	1.0
10	0x3f7dbbf9	0.9911495
11	0x3f800000	1.0
12	0x3f81d7c5	1.0143973
13	0x3f7e01da	0.99221575
14	0x3f7f1093	0.99634665
15	0x3f8017eb	1.0007299
16	0x3f7f237c	0.9966352
17	0x3f8062b2	1.003012
18	0x3f7ef7eb	0.9959704
19	0x3f7cd7fd	0.9876707
20	0x3f81dff1	1.0146466
21	0x3f800000	1.0
22	0x3f800000	1.0
23	0x3f7deb9c	0.99187636
24	0x3f7e4d93	0.9933712
25	0x3f800000	1.0
26	0x3f800000	1.0
27	0x3f808439	1.0040351
28	0x3f8316de	1.0241354
29	0x3f7ef9bb	0.9959981
30	0x3f7e9c6c	0.9945743
31	0x3f7f4b17	0.99723953
32	0x3f80903a	1.0044014
33	0x3f80f823	1.0075725
34	0x3f800000	1.0
35	0x3f7eeaf3	0.99577254
36	0x3f800000	1.0
37	0x3f800000	1.0
38	0x3f7ebd84	0.9950793
39	0x3f7d8fe9	0.99047714
40	0x3f800000	1.0
41	0x3f805787	1.0026711
42	0x3f80546e	1.0025766
43	0x3f800945	1.0002829
44	0x3f80f051	1.0073339
45	0x3f807619	1.003604
46	0x3f800000	1.0
47	0x3f7ee40c	0.9956672
48	0x3f800000	1.0
49	0x3f7f7d14	0.9980023
50	0x3f8030dc	1.0014911
51	0x3f7fb14a	0.99879897
52	0x3f7f837f	0.9981002
53	0x3f7fa3ce	0.9985932
54	0x3f800000	1.0
55	0x3f7faf33	0.9987671
56	0x3f7e74d2	0.99397004
57	0x3f7df86b	0.9920718
58	0x3f7fc759	0.99913555
59	0x3f803de7	1.0018891
60	0x3f7fbf75	0.99901515
61	0x3f8082d0	1.0039921
62	0x3f795334	0.9739258
63	0x3f800000	1.0
64	0x3f800000	1.0
65	0x3f800000	1.0
66	0x3f8139af	1.0095729
67	0x3f80568a	1.002641
68	0x3f7f8bae	0.9982251
69	0x3f7ac453	0.97955817
70	0x3f800000	1.0
71	0x3f800000	1.0
72	0x3f7f87bd	0.99816495
73	0x3f803404	1.0015874
74	0x3f800a59	1.0003158
75	0x3f8020a9	1.0009967
76	0x3f816953	1.0110267
77	0x3f80377a	1.001693
78	0x3f7ff1a1	0.9997807
79	0x3f8053e7	1.0025605
80	0x3f800000	1.0
81	0x3f800000	1.0
82	0x3f7dfd84	0.9921496
83	0x3f800000	1.0
84	0x3f7df19b	0.99196786
85	0x3f800000	1.0
86	0x3f80658d	1.0030991
87	0x3f800000	1.0
88	0x3f80e367	1.0069398
89	0x3f7fac13	0.9987194
90	0x3f7f2a49	0.996739
91	0x3f7f71dc	0.9978311
92	0x3f81f790	1.0153675
93	0x3f8039a1	1.0017587
94	0x3f7f24be	0.9966544
95	0x3f800166	1.0000427
96	0x3f800000	1.0
97	0x3f7fd3f7	0.9993281
98	0x3f800000	1.0
99	0x3f800000	1.0
100	0x3f8092cc	1.0044799
101	0x3f800000	1.0
102	0x3f81b930	1.013464
103	0x3f7dbc67	0.99115604
104	0x3f7f5bc2	0.99749386
105	0x3f800000	1.0
106	0x3f7ff686	0.9998554
107	0x3f7c5a6d	0.9857548
108	0x3f7f2e71	0.9968024
109	0x3f7ccc23	0.9874899
110	0x3f800000	1.0
111	0x3f7fe57c	0.9995954
112	0x3f7fd0ec	0.99928164
113	0x3f7d740e	0.9900521
114	0x3f82de34	1.0224061
115	0x3f805b49	1.0027858
116	0x3f81053c	1.0079722
117	0x3f800000	1.0
118	0x3f7ed5ea	0.99545157
119	0x3f7ba331	0.98295885
120	0x3f7eb4a6	0.994944
121	0x3f800000	1.0
122	0x3f8178e8	1.0115023
123	0x3f800000	1.0
124	0x3f800000	1.0
125	0x3f7d7754	0.99010205
126	0x3f81445e	1.0098989
127	0x3f80d26c	1.0064216

Block1.1.bias f4 [128]
0	0x00000000	0.0
1	0x00000000	0.0
2	0x3c1c1edd	0.009528843
3	0x00000000	0.0
4	0x00000000	0.0
5	0x00000000	0.0
6	0x00000000	0.0
7	0x00000000	0.0
8	0x3bf6c3c8	0.007530663
9	0x00000000	0.0
10	0x3afbb448	0.0019203508
11	0x00000000	0.0
12	0xb85c92a0	-5.2588643e-05
13	0xbc005ce2	-0.007834645
14	0x3d01033b	0.03149722
15	0x3b7f5502	0.003896058
16	0x3d33ea60	0.04392469
17	0xbb04adee	-0.0020245272
18	0x3ca1777e	0.019710299
19	0x3d0562ed	0.032565046
20	0x3cd6c88d	0.026218677
21	0x00000000	0.0
22	0x00000000	0.0
23	0x3c79bc37	0.015242628
24	0x3d1bb664	0.038015738
25	0x00000000	0.0
26	0x00000000	0.0
27	0x3c1c1166	0.0095256325
28	0x3d7ba2fd	0.061434735
29	0x3c33d784	0.010976676
30	0xbbe6d1a6	-0.007044035
31	0x3d4d2a02	0.05008889
32	0x3cc6acfb	0.024252405
33	0x3c289f2a	0.010291854
34	0x00000000	0.0
35	0xbc029eea	-0.007972458
36	0x00000000	0.0
37	0x00000000	0.0
38	0x3cc7a1d5	0.02436916
39	0xbc7c5d10	-0.015403047
40	0x00000000	0.0
41	0x3ce92c72	0.028463576
42	0xb9bcfbb5	-0.0003604569
43	0x3be74890	0.0070582107
44	0x3d3959c0	0.045251608
45	0x3c75f7b3	0.015012669
46	0x00000000	0.0
47	0xbd0c53ba	-0.034259535
48	0x00000000	0.0
49	0x3db3edcb	0.0878559
50	0xb93399af	-0.00017128022
51	0x3ad6dd0b	0.001639278
52	0x3c83c2e2	0.016084138
53	0xbb95d455	-0.004572431
54	0x00000000	0.0
55	0x3cc8863a	0.024478067
56	0xbb7b2298	-0.003832018
57	0x3b0e027d	0.0021668964
58	0xba9a3018	-0.0011763601
59	0xbbf95004	-0.0076084156
60	0xbb74cadc	-0.003735236
61	0x3c3bed01	0.01147008
62	0xbd537ea8	-0.05163446
63	0x00000000	0.0
64	0x00000000	0.0
65	0x00000000	0.0
66	0x3c86e299	0.016465472
67	0xbb889442	-0.0041680643
68	0xb9f7f2a6	-0.00047292298
69	0xbd0f03de	-0.034915797
70	0x00000000	0.0
71	0x00000000	0.0
72	0xb9e9f5a8	-0.0004462425
73	0x3cb93d76	0.022612315
74	0xbbb7b802	-0.0056066522
75	0x3c812456	0.015764397
76	0x3d48869b	0.048956495
77	0x3c360932	0.011110591
78	0xbaa81cea	-0.0012826
79	0x3d23a8ff	0.03995609
80	0x00000000	0.0
81	0x00000000	0.0
82	0xbc1df907	-0.009641892
83	0x00000000	0.0
84	0x3cadd5d2	0.021220122
85	0x00000000	0.0
86	0x3ce52854	0.027973332
87	0x00000000	0.0
88	0x3c3ffe17	0.011718295
89	0xbd22873e	-0.03967976
90	0x3ca793ae	0.020456161
91	0xbd8588a9	-0.065202065
92	0x3c6b461f	0.01435998
93	0x3d24af4a	0.04020623
94	0xbc5d1fbe	-0.013496337
95	0xbb821a47	-0.0039704177
96	0x00000000	0.0
97	0xbca9325f	-0.020653902
98	0x00000000	0.0
99	0x00000000	0.0
100	0x3d5a306f	0.053268846
101	0x00000000	0.0
102	0x3cb9ef54	0.022697128
103	0xbb9ed680	-0.0048473477
104	0xbb39b571	-0.0028336907
105	0x00000000	0.0
106	0xbb28054d	-0.0025637925
107	0xbba65e9a	-0.0050771954
108	0xbbb518dd	-0.0055266456
109	0xbc07e03c	-0.008293208
110	0x00000000	0.0
111	0x3d5e9461	0.054340724
112	0x3c9397d9	0.018016743
113	0x3c4c4857	0.012468419
114	0x3cb44df0	0.02200982
115	0x3c283332	0.010266112
116	0x3d149929	0.036278877
117	0x00000000	0.0
118	0x3c77d52d	0.015126509
119	0x3d1dd192	0.03852994
120	0x3c16177f	0.009160875
121	0x00000000	0.0
122	0x3d79e2ca	0.0610073
123	0x00000000	0.0
124	0x00000000	0.0
125	0x3b0eb0f2	0.0021772948
126	0x3c22db0a	0.009939918
127	0x3afa74b6	0.0019108269

Block1.1.running_mean f4 [128]
0	0x00000000	0.0
1	0x00000000	0.0
2	0x3b9fdb63	0.004878448
3	0x00000000	0.0
4	0x00000000	0.0
5	0x00000000	0.0
6	0x00000000	0.0
7	0x00000000	0.0
8	0x3b67b9ea	0.0035358616
9	0x00000000	0.0
10	0x3c7b8fae	0.01535408
11	0x00000000	0.0
12	0xbc009ca6	-0.007849848
13	0x3c4a1a5f	0.012335389
14	0x3c4b02f4	0.012390841
15	0xbb8cd8dd	-0.004298313
16	0x3c1d8fdf	0.009616821
17	0x00000004	6e-45
18	0x80000004	-6e-45
19	0x3b912930	0.0044299588
20	0x3c7be2cc	0.015373897
21	0x00000000	0.0
22	0x00000000	0.0
23	0x3c01c7fa	0.007921213
24	0x83f9c7e3	-1.4680796e-36
25	0x00000000	0.0
26	0x00000000	0.0
27	0xbcb5e5e8	-0.022204354
28	0x3c5d6a3b	0.013514097
29	0x3c5ffa77	0.013670555
30	0x80000004	-6e-45
31	0x3c2ccecd	0.010547352
32	0xbc24ab3a	-0.010050589
33	0x3c8a0ac4	0.016850837
34	0x00000000	0.0
35	0x00000004	6e-45
36	0x00000000	0.0
37	0x00000000	0.0
38	0x3bf3e137	0.007442619
39	0x3c99485d	0.018711263
40	0x00000000	0.0
41	0xbb821cde	-0.0039707264
42	0x80000004	-6e-45
43	0xb9216932	-0.00015393345
44	0xbc98c3d6	-0.01864807
45	0xbc9bafa5	-0.019004652
46	0x00000000	0.0
47	0xbcaa5c43	-0.020795947
48	0x00000000	0.0
49	0x376e5aab	1.4207016e-05
50	0x00000004	6e-45
51	0xbc842073	-0.016128754
52	0x399a0e6a	0.00029383908
53	0x00000004	6e-45
54	0x00000000	0.0
55	0xb91c21e2	-0.00014889942
56	0xbc64b04a	-0.013958046
57	0xbbb2feab	-0.0054624877
58	0x80000004	-6e-45
59	0x3c94a35d	0.018144304
60	0x80000004	-6e-45
61	0xbca764cd	-0.020433808
62	0x3b661ec8	0.0035113562
63	0x00000000	0.0
64	0x00000000	0.0
65	0x00000000	0.0
66	0x3c89cff2	0.016822789
67	0xbcc273a0	-0.023736775
68	0x00000004	6e-45
69	0x3ca58758	0.020206138
70	0x00000000	0.0
71	0x00000000	0.0
72	0x3bfca437	0.0077100056
73	0x80000004	-6e-45
74	0x80000004	-6e-45
75	0x80000004	-6e-45
76	0xbcaa44e1	-0.020784797
77	0xbc642459	-0.013924682
78	0x80000004	-6e-45
79	0x3cabe9d8	0.020985529
80	0x00000000	0.0
81	0x00000000	0.0
82	0xbb38e583	-0.0028212972
83	0x00000000	0.0
84	0xbb789f38	-0.0037936699
85	0x00000000	0.0
86	0xbbecc474	-0.0072255675
87	0x00000000	0.0
88	0xbb9f0e96	-0.0048540337
89	0xbc4fe95c	-0.012689915
90	0x3c2f5186	0.010700589
91	0x3c17fbc3	0.009276333
92	0xbc78c9a1	-0.015184791
93	0x3cd599a4	0.026074238
94	0x3c1d2aa6	0.009592688
95	0x80000004	-6e-45
96	0x00000000	0.0
97	0xbc34fea6	-0.011047041
98	0x00000000	0.0
99	0x00000000	0.0
100	0xbcdafdf8	-0.02673243
101	0x00000000	0.0
102	0xbc4d819e	-0.01254311
103	0xbca4cc20	-0.020116866
104	0x00000004	6e-45
105	0x00000000	0.0
106	0x80000004	-6e-45
107	0xbbbf812c	-0.005844256
108	0x00000004	6e-45
109	0x3c331244	0.010929648
110	0x00000000	0.0
111	0x3c3e8c3e	0.011630116
112	0x3ba79183	0.005113782
113	0x3cd3e47e	0.02586579
114	0x3c85a7ee	0.016315427
115	0x38046140	3.1561824e-05
116	0xbc1feb42	-0.00976068
117	0x00000000	0.0
118	0x85c40d5f	-1.8436663e-35
119	0x3c50222d	0.012703461
120	0x3c77c490	0.015122548
121	0x00000000	0.0
122	0x3beed4c9	0.0072885496
123	0x00000000	0.0
124	0x00000000	0.0
125	0x3bb6db53	0.0055803447
126	0xbc762931	-0.015024469
127	0x3c08cac0	0.008349121

Block1.1.running_var f4 [128]
0	0x00000004	6e-45
1	0x00000004	6e-45
2	0x38a79b8d	7.992154e-05
3	0x00000004	6e-45
4	0x00000004	6e-45
5	0x00000004	6e-45
6	0x00000004	6e-45
7	0x00000004	6e-45
8	0x37f83afe	2.9591374e-05
9	0x00000004	6e-45
10	0x39a580d8	0.00031567249
11	0x00000004	6e-45
12	0x38a31081	7.77552e-05
13	0x393d169b	0.00018032866
14	0x3a1733c8	0.0005767909
15	0x3840b039	4.5940487e-05
16	0x397ecbea	0.00024299292
17	0x00000004	6e-45
18	0x00000004	6e-45
19	0x389a3e9d	7.354955e-05
20	0x39aec528	0.0003333476
21	0x00000004	6e-45
22	0x00000004	6e-45
23	0x38df7664	0.000106555206
24	0x0027981d	3.636152e-39
25	0x00000004	6e-45
26	0x00000004	6e-45
27	0x3a992287	0.0011683264
28	0x397eb640	0.00024291221
29	0x3939ae0d	0.00017707814
30	0x00000004	6e-45
31	0x398b006e	0.00026512466
32	0x3932f40c	0.00017066317
33	0x3a9cf96d	0.001197619
34	0x00000004	6e-45
35	0x00000004	6e-45
36	0x00000004	6e-45
37	0x00000004	6e-45
38	0x387d1e7b	6.0348288e-05
39	0x39fe7239	0.00048531758
40	0x00000004	6e-45
41	0x37ae559d	2.0782283e-05
42	0x00000004	6e-45
43	0x32ee9355	2.7773845e-08
44	0x39d04936	0.00039727398
45	0x39f34723	0.00046401573
46	0x00000004	6e-45
47	0x39467ef6	0.00018930048
48	0x00000004	6e-45
49	0x2f9b73c2	2.8276587e-10
50	0x00000004	6e-45
51	0x39bfc5c3	0.00036577703
52	0x33f12475	1.12290685e-07
53	0x00000004	6e-45
54	0x00000004	6e-45
55	0x32ef7d58	2.7880262e-08
56	0x39af5296	0.00033440132
57	0x398a1c6d	0.0002634259
58	0x00000004	6e-45
59	0x3984b054	0.00025308377
60	0x00000004	6e-45
61	0x3a98f41b	0.0011669429
62	0x37fc1d48	3.0054376e-05
63	0x00000004	6e-45
64	0x00000004	6e-45
65	0x00000004	6e-45
66	0x3997d82c	0.00028962025
67	0x3a186fb0	0.00058149826
68	0x00000004	6e-45
69	0x39b7cca0	0.00035056937
70	0x00000004	6e-45
71	0x00000004	6e-45
72	0x38a44dda	7.8346304e-05
73	0x00000004	6e-45
74	0x00000004	6e-45
75	0x00000004	6e-45
76	0x3a471d2e	0.00075955957
77	0x39f84314	0.00047352223
78	0x00000004	6e-45
79	0x395b336c	0.00020904624
80	0x00000004	6e-45
81	0x00000004	6e-45
82	0x37a4614c	1.959563e-05
83	0x00000004	6e-45
84	0x3810b974	3.4504992e-05
85	0x00000004	6e-45
86	0x38b44563	8.595993e-05
87	0x00000004	6e-45
88	0x38eba682	0.00011236688
89	0x39581945	0.00020608779
90	0x39ccdda6	0.00039075053
91	0x38efac58	0.000114285096
92	0x3a142f0a	0.00056527613
93	0x3a43ae12	0.0007464598
94	0x391d5f35	0.00015008154
95	0x00000004	6e-45
96	0x00000004	6e-45
97	0x3a4c88d5	0.0007802372
98	0x00000004	6e-45
99	0x00000004	6e-45
100	0x3a3bae64	0.000715947
101	0x00000004	6e-45
102	0x395e5b7f	0.00021205655
103	0x3a2a5e01	0.0006498993
104	0x00000004	6e-45
105	0x00000004	6e-45
106	0x00000004	6e-45
107	0x39ffe483	0.00048807645
108	0x00000004	6e-45
109	0x39b63633	0.00034754127
110	0x00000004	6e-45
111	0x38ec2fea	0.000112622816
112	0x38cb7884	9.702242e-05
113	0x3a2fafd1	0.0006701919
114	0x3a06f427	0.0005148076
115	0x31296110	2.464791e-09
116	0x390b24f7	0.00013269843
117	0x00000004	6e-45
118	0x000e0022	1.285745e-39
119	0x392eebf3	0.00016681831
120	0x399efaaa	0.00030322868
121	0x00000004	6e-45
122	0x3895eb65	7.148719e-05
123	0x00000004	6e-45
124	0x00000004	6e-45
125	0x389aac49	7.375383e-05
126	0x3996783e	0.00028699817
127	0x3989f29a	0.00026311429

Block1.3.weight f4 [2259]
0	0xbd03281d	-0.032020677
1	0xbcdf87bc	-0.027286403
2	0x3cb15094	0.021644868
3	0xbc81a4a7	-0.015825583
4	0x3c5c35a5	0.013440524
5	0x3ca144f3	0.019686198
6	0x3bfbb0a3	0.007680969
7	0xbcd36d7b	-0.02580904
8	0x3c05e9b7	0.008173398
9	0xbceafc2b	-0.028684696
10	0xbc3c283a	-0.0114842
11	0xbc7c0b7f	-0.0153836
12	0x3c31f0e6	0.010860657
13	0xbc7910df	-0.015201776
14	0xbcaed617	-0.02134232
15	0x3c0639a5	0.008192454
16	0xbcdca13d	-0.026932353
17	0xbcecde85	-0.0289147
18	0xbca82e33	-0.020529842
19	0xbc5486bf	-0.012971579
20	0xbcaa093f	-0.020756362
21	0x3cee5a73	0.029095864
22	0x3cd13682	0.025538687
23	0xbcb42a27	-0.021992756
24	0xbc8f059b	-0.017458728
25	0x3c3891b1	0.011265204
26	0xbccc345e	-0.024927314
27	0x3ad06f3e	0.0015902293
28	0x3abb94b2	0.0014311282
29	0x3a9c4510	0.0011922438
30	0x3c372117	0.011177323
31	0x3ac83998	0.0015275953
32	0x3c651ff7	0.013984672
33	0x3ae74512	0.0017644486
34	0xbc2afc62	-0.010436149
35	0x3c2d438d	0.010575187
36	0x3caf00aa	0.021362621
37	0x3b117227	0.0022193284
38	0x3b0c43ad	0.0021402643
39	0x3ce4ab69	0.027913766
40	0xbb3e78d9	-0.002906373
41	0x3cc96c7d	0.024587864
42	0xbca888da	-0.020573068
43	0xbc15dd60	-0.009147018
44	0x3c018357	0.007904849
45	0x3a71a174	0.0009217479
46	0xba87efaa	-0.0010371108
47	0x3c54dff9	0.012992852
48	0x3cdb6b71	0.02678463
49	0xba0db6a5	-0.00054059393
50	0xbad56a45	-0.0016282281
51	0x3b96122f	0.0045798044
52	0xbbd580ac	-0.006515583
53	0xbc1cc82d	-0.00956921
54	0xbae594e3	-0.0017515685
55	0xbb97f949	-0.0046378714
56	0xbc9287e9	-0.017887073
57	0xbc6d6e30	-0.014491603
58	0xbc98d969	-0.018658357
59	0x3bedbd32	0.00725522
60	0xbbeef099	-0.007291865
61	0xbc98967f	-0.01862645
62	0xbcb63536	-0.02224217
63	0x3ae64739	0.0017568833
64	0x3c993f0d	0.018706823
65	0x3d0a9e44	0.03384234
66	0xbcb85255	-0.022500196
67	0x3bd0e832	0.006375336
68	0x3ceed890	0.029156
69	0xbbf8f3b9	-0.0075974134
70	0xbc8ce47a	-0.01719879
71	0xbb8dabb7	-0.0043234485
72	0xbcb2f611	-0.02184585
73	0xbc546004	-0.012962345
74	0xbc553034	-0.013011981
75	0xbcb67ad9	-0.022275375
76	0xbbe30f6c	-0.0069293287
77	0x3ced71fc	0.028985016
78	0x3cb6712b	0.02227076
79	0xbcddf675	-0.027095059
80	0xbca8664a	-0.020556588
81	0x3cfc10bd	0.0307697
82	0x3b5d85ef	0.0033801754
83	0x3a73dbb4	0.00093024527
84	0x3b0c7bfd	0.0021436207
85	0xb9fb24c2	-0.00047901837
86	0x3aca840c	0.001545073
87	0x3ca72927	0.020405365
88	0x3c84f12b	0.01622828
89	0xbc46b0d4	-0.01212712
90	0x3be67b0f	0.0070337127
91	0x3c0c7066	0.00857172
92	0xb9ef606c	-0.00045657472
93	0xba2249be	-0.0006190798
94	0x3bf86b0d	0.007581121
95	0x3934052d	0.00017168066
96	0x3a0aa5f9	0.0005289014
97	0x3a864971	0.0010245276
98	0xb9b215df	-0.000339671
99	0xbce58939	-0.028019534
100	0x3be6fe54	0.0070493612
101	0x3b165128	0.0022936556
102	0x3c4c7db3	0.012481141
103	0x390476c6	0.00012632748
104	0xba878991	-0.0010340681
105	0x3cbb158b	0.02283742
106	0x3c1fa25d	0.0097433
107	0x3c65b1cc	0.014019441
108	0x3c45dcfd	0.0120766135
109	0x3bdf4826	0.0068140207
110	0x3b32ef66	0.0027303337
111	0x3afb10e9	0.001915482
112	0x3b3ac720	0.0028500035
113	0xbc3cffe8	-0.011535622
114	0xbb153366	-0.0022766232
115	0xba487251	-0.0007646429
116	0xb831f0c6	-4.2424326e-05
117	0x3cee46a5	0.02908642
118	0x39fbe4d1	0.00048044932
119	0xb9d1658b	-0.00039939242
120	0x38f89862	0.00011853945
121	0x3ccc9d9b	0.024977496
122	0x3c4a834d	0.012360406
123	0xbc597a91	-0.013273851
124	0xbcf66330	-0.030076593
125	0x3c27dddb	0.010245766
126	0xbcd9acd1	-0.026571663
127	0x3cd6e231	0.026230903
128	0xbc311834	-0.010808993
129	0xbcc77f34	-0.024352647
130	0xbc794757	-0.015214763
131	0x3cde058c	0.027102254
132	0xbbe3cba8	-0.006951768
133	0x3ce01127	0.027351929
134	0xbca36b6e	-0.019948687
135	0x3d0a8a47	0.033823278
136	0xbcd44c13	-0.025915181
137	0x3c890849	0.016727583
138	0x3c1fc49c	0.009751465
139	0x3c10d7cb	0.008840512
140	0xbcbff740	-0.023433328
141	0x3c38cba7	0.011279023
142	0xb9cea108	-0.0003941136
143	0xbce6c260	-0.028168857
144	0x3b7b9f25	0.0038394418
145	0xbbf7dd13	-0.007564196
146	0xbd1a9619	-0.0377408
147	0x3c93afce	0.018028166
148	0xbc50a549	-0.01273472
149	0xbce5a9eb	-0.028035125
150	0xbc13aaa1	-0.009012849
151	0xba3505a4	-0.00069054426
152	0x3a408e3b	0.0007345413
153	0x3be3cbfb	0.0069518066
154	0x3cd125ef	0.025530783
155	0xbca56901	-0.020191671
156	0xbc8fceb9	-0.017554628
157	0xbb48a3fc	-0.003061532
158	0x3b8a4f5d	0.0042208866
159	0x3c479b0c	0.012182962
160	0x3bc6cba6	0.0060667573
161	0xbb45e0fb	-0.0030193913
162	0x3c2a5b49	0.010397741
163	0xbbf096db	-0.007342202
164	0xbba4c552	-0.005028405
165	0x3ce21e12	0.02760223
166	0x3c72cd4b	0.0148194535
167	0xb8ebd251	-0.00011244848
168	0xba0c9a34	-0.0005363554
169	0x3941bda5	0.00018476562
170	0x39cc6f5a	0.00038992875
171	0x3ba7875a	0.0051125707
172	0x3b8ad4dd	0.004236801
173	0xbb697814	-0.003562455
174	0x392c7424	0.00016446464
175	0x3a06f931	0.0005148827
176	0x3c66105e	0.014041988
177	0xb9878c60	-0.00025853794
178	0x3a245d1e	0.0006269979
179	0x393941da	0.00017667506
180	0xbca58a1e	-0.020207461
181	0xb9dcc1a0	-0.00042105932
182	0x38d7e27e	0.00010294186
183	0x39a69173	0.00031770355
184	0xbcbd3c49	-0.023100035
185	0x38ccfb93	9.7743374e-05
186	0xbb8aa9ef	-0.0042316834
187	0xb9d2ead6	-0.00040229288
188	0x39f16a15	0.0004604614
189	0x3a117ae8	0.00055496255
190	0x3ba1548b	0.0049234084
191	0xb969c791	-0.00022294956
192	0x3880206c	6.109555e-05
193	0xb8f72339	-0.000117844385
194	0xb9830a68	-0.0002499402
195	0xba4efb63	-0.0007895736
196	0x3c21783a	0.009855324
197	0xbc9925ca	-0.018694777
198	0x3a09907f	0.0005247667
199	0x3a14dc1f	0.00056785526
200	0x3c058284	0.008148793
201	0xbbc10816	-0.0058908565
202	0xbc636955	-0.013880094
203	0x3ca8e94c	0.020619057
204	0x3d0a4131	0.033753578
205	0x3ca94930	0.020664781
206	0xbcabfbaa	-0.020994026
207	0xbb8fba90	-0.0043862537
208	0x3c87fc10	0.016599685
209	0xbc06eb5c	-0.008234825
210	0xbc8419fd	-0.016125673
211	0xbc8f3f90	-0.017486364
212	0x3be14821	0.0068750535
213	0xbc91ae5f	-0.017783342
214	0x3c98102e	0.018562403
215	0x3ca68cbe	0.020330783
216	0x3c3eb93c	0.011640843
217	0x3c124aa9	0.008928933
218	0xbcd56411	-0.026048692
219	0xbd00fda8	-0.031491905
220	0xbc275140	-0.010212243
221	0x3cd0f024	0.025505133
222	0x3c482785	0.012216453
223	0xbc2d20ec	-0.010566931
224	0x3c66a0ac	0.014076393
225	0x3ca753af	0.020425646
226	0xbc11af38	-0.008891873
227	0xbc61a373	-0.0137718795
228	0x3c5dcbf4	0.013537396
229	0xbcd03c97	-0.025419516
230	0xbca20b62	-0.019780818
231	0x3cd7879e	0.026309785
232	0x3bf1aee7	0.0073755863
233	0x3cf1b5bd	0.029505605
234	0x3cd4cac4	0.025975592
235	0x3c969b0e	0.018384483
236	0x3cb8abf0	0.022542924
237	0xbc0fc167	-0.008774138
238	0xbc92a78e	-0.017902162
239	0xbc254c62	-0.010089012
240	0xbcf1a737	-0.02949868
241	0xbc21efd0	-0.009883836
242	0xbc0767e0	-0.008264512
243	0xbcbcbcc5	-0.023039231
244	0x3d241040	0.04005456
245	0x3c96853b	0.018374076
246	0xbccaf667	-0.024775697
247	0x3c84af7c	0.016196959
248	0xbc9f6d24	-0.019461222
249	0x3ce40e73	0.027838921
250	0xbc7c4582	-0.015397431
251	0x3c946426	0.01811416
252	0x3c6c6054	0.014427263
253	0x3cb7cf3f	0.02243769
254	0x3bfa1aed	0.0076326043
255	0xbc6f06bb	-0.014589007

Block1.4.weight f4 [196]
0	0x3f7cc12d	0.9873226
1	0x3f7d45d1	0.98934656
2	0x3f7f0f5e	0.99632823
3	0x3f81fb9a	1.0154908
4	0x3f859b6f	1.043806
5	0x3f7df3d4	0.9920018
6	0x3f7e90e0	0.9943981
7	0x3f7f6f5f	0.99779314
8	0x3f7d5731	0.9896117
9	0x3f7d838e	0.9902886
10	0x3f811aff	1.0086364
11	0x3f7faa6b	0.9986941
12	0x3f7f5858	0.99744177
13	0x3f7c503b	0.9855992
14	0x3f84a7b3	1.0363678
15	0x3f7ebee8	0.9951005
16	0x3f7e9e14	0.9945996
17	0x3f80603c	1.0029368
18	0x3f846a1d	1.0344883
19	0x3f80c488	1.0059977
20	0x3f84c852	1.0373633
21	0x3f7ea19b	0.9946534
22	0x3f7eaade	0.9947947
23	0x3f8001f6	1.0000598
24	0x3f8030bd	1.0014874
25	0x3f815d98	1.0106688
26	0x3f80562c	1.0026298
27	0x3f81d082	1.0141757
28	0x3f810222	1.0078776
29	0x3f81ed91	1.0150625
30	0x3f81a488	1.0128336
31	0x3f7d935f	0.99052995
32	0x3f7ea353	0.99467963
33	0x3f7cdbf6	0.98773134
34	0x3f81b7d3	1.0134224
35	0x3f7e651d	0.99373037
36	0x3f82e903	1.022736
37	0x3f7fcf5d	0.99925786
38	0x3f7deca6	0.9918922
39	0x3f814214	1.009829
40	0x3f7e9f6d	0.99462014
41	0x3f805183	1.0024875
42	0x3f7e4ac8	0.9933286
43	0x3f812af4	1.0091233
44	0x3f82af14	1.020968
45	0x3f81a263	1.0127681
46	0x3f815934	1.0105348
47	0x3f800ad5	1.0003306
48	0x3f801e13	1.0009178
49	0x3f813e79	1.009719
50	0x3f7d26e3	0.9888746
51	0x3f817f57	1.0116986
52	0x3f7e9236	0.9944185
53	0x3f813cbd	1.0096661
54	0x3f8329d1	1.0247136
55	0x3f82ab7d	1.0208584
56	0x3f7fff7a	0.999992
57	0x3f7c581d	0.9857195
58	0x3f7e4e4a	0.9933821
59	0x3f7e2136	0.99269426
60	0x3f803e53	1.001902
61	0x3f7d9c34	0.9906647
62	0x3f810082	1.007828
63	0x3f80668b	1.0031294
64	0x3f7befe8	0.9841294
65	0x3f817aff	1.011566
66	0x3f835dd4	1.0263009
67	0x3f7cfaae	0.98820007
68	0x3f81ac3f	1.013069
69	0x3f800dca	1.0004208
70	0x3f81d5ca	1.0143368
71	0x3f7d69ea	0.9898974
72	0x3f82ea85	1.022782
73	0x3f805101	1.002472
74	0x3f7d1c68	0.9887147
75	0x3f7e6c9b	0.9938447
76	0x3f7f5c8e	0.997506
77	0x3f82b0db	1.0210222
78	0x3f7fc1eb	0.9990527
79	0x3f7f100c	0.9963386
80	0x3f7fb67b	0.9988782
81	0x3f7c2337	0.98491234
82	0x3f818044	1.0117269
83	0x3f7d5b5b	0.9896752
84	0x3f7e01b8	0.9922137
85	0x3f8085f2	1.0040877
86	0x3f80bf0f	1.0058306
87	0x3f7f93c7	0.99834865
88	0x3f78882c	0.9708278
89	0x3f81a348	1.0127954
90	0x3f7df0f4	0.9919579
91	0x3f81b3c4	1.0132985
92	0x3f7ccf00	0.98753357
93	0x3f8375a6	1.0270278
94	0x3f7ecf9d	0.9953554
95	0x3f7d4fc6	0.9894985
96	0x3f7d50be	0.9895133
97	0x3f804ec7	1.0024041
98	0x3f81e967	1.0149354
99	0x3f84ae2c	1.0365653
100	0x3f7efefa	0.99607813
101	0x3f7f9fd4	0.99853253
102	0x3f80b995	1.0056635
103	0x3f7f68aa	0.9976908
104	0x3f7e5d2a	0.9936091
105	0x3f83d770	1.0300121
106	0x3f80bd70	1.0057812
107	0x3f7dd680	0.99155426
108	0x3f81cb42	1.0140154
109	0x3f7c9881	0.986702
110	0x3f7ffe6c	0.9999759
111	0x3f7e569d	0.9935091
112	0x3f7fe612	0.99960434
113	0x3f818d8d	1.0121323
114	0x3f7f169d	0.9964388
115	0x3f806fc2	1.0034106
116	0x3f812694	1.0089898
117	0x3f7daef7	0.990951
118	0x3f7c4356	0.98540246
119	0x3f802d71	1.0013868
120	0x3f811b82	1.008652
121	0x3f803b7e	1.0018156
122	0x3f801c28	1.0008593
123	0x3f7dff67	0.9921784
124	0x3f81129e	1.0083807
125	0x3f7cd032	0.9875518
126	0x3f7e0032	0.9921905
127	0x3f7ce30a	0.98783934
128	0x3f7f872f	0.9981565
129	0x3f80054a	1.0001614
130	0x3f7b42b1	0.9814864
131	0x3f81332c	1.0093741
132	0x3f813f42	1.009743
133	0x3f7cd1e4	0.9875777
134	0x3f7ca8a0	0.986948
135	0x3f869552	1.0514319
136	0x3f7c9667	0.98666996
137	0x3f8114f6	1.0084522
138	0x3f7e5e5d	0.99362737
139	0x3f807bae	1.0037744
140	0x3f7eb3b8	0.9949298
141	0x3f80c4e0	1.0060081
142	0x3f7ba9b1	0.98305804
143	0x3f80806d	1.0039192
144	0x3f81b662	1.0133784
145	0x3f7e03c7	0.99224514
146	0x3f7e3051	0.99292475
147	0x3f82535b	1.0181688
148	0x3f820fbd	1.0161053
149	0x3f7acf39	0.97972447
150	0x3f80e55a	1.0069993
151	0x3f81eadd	1.01498
152	0x3f82ff65	1.023419
153	0x3f821792	1.0163443
154	0x3f7ac7d1	0.97961146
155	0x3f7fdd2a	0.99946845
156	0x3f82cae2	1.0218165
157	0x3f7daa90	0.9908838
158	0x3f7ebf81	0.9951096
159	0x3f7a720e	0.97830284
160	0x3f815ff8	1.0107412
161	0x3f7dbce4	0.9911635
162	0x3f7ec8d5	0.99525195
163	0x3f7fa051	0.99854
164	0x3f7dc429	0.9912744
165	0x3f81306b	1.0092901
166	0x3f7c996b	0.986716
167	0x3f7d8dd8	0.9904456
168	0x3f7e862e	0.9942349
169	0x3f7dc401	0.99127203
170	0x3f7dea35	0.99185497
171	0x3f833cb8	1.0252905
172	0x3f7d1539	0.9886051
173	0x3f80fd7a	1.0077355
174	0x3f7efe81	0.9960709
175	0x3f7cebf3	0.9879753
176	0x3f80c349	1.0059596
177	0x3f7e853a	0.9942204
178	0x3f805fc7	1.0029229
179	0x3f8096f5	1.0046068
180	0x3f85d73e	1.0456312
181	0x3f823d81	1.017502
182	0x3f809ff4	1.0048814
183	0x3f7dba82	0.99112713
184	0x3f80344f	1.0015963
185	0x3f7f7ff1	0.998046
186	0x3f7e4aec	0.9933307
187	0x3f80b176	1.0054157
188	0x3f7fba25	0.9989341
189	0x3f7cf66c	0.9881351
190	0x3f7c55e7	0.98568577
191	0x3f7d3421	0.9890767
192	0x3f81264b	1.0089811
193	0x3f7f1678	0.9964366
194	0x3f7f4555	0.9971517
195	0x3f7f9e22	0.99850667

Block1.4.bias f4 [196]
0	0xbb57ab41	-0.0032908472
1	0xbcc3e797	-0.023914142
2	0x3d450a43	0.04810549
3	0x39a2a2a2	0.0003102022
4	0x3ca21d49	0.019789355
5	0xbc0d7d16	-0.00863578
6	0xbc9415dd	-0.018076831
7	0x3c3de2ff	0.011589765
8	0xbb3306e8	-0.002731735
9	0x3b6cc806	0.0036129965
10	0xbcc4b91e	-0.024014052
11	0x3c3491d3	0.011021095
12	0xbc05f225	-0.008175408
13	0xbc3e79ae	-0.01162569
14	0x3d3a51a6	0.045488022
15	0x3c537fbf	0.012908875
16	0x3b8dd3f0	0.0043282434
17	0x3ce00e1e	0.027350482
18	0xbc9c7e7b	-0.01910328
19	0xb93e0e20	-0.00018125074
20	0xba997f1a	-0.0011710853
21	0x3ba57c51	0.00505022
22	0xbbed7094	-0.0072460864
23	0x3ca1d1ed	0.01975342
24	0x3ce735d9	0.028223919
25	0x3bb03a05	0.00537801
26	0xbb366db0	-0.0027836375
27	0x3c91ffd7	0.01782219
28	0x3be29c07	0.0069155726
29	0x3c2b2a4c	0.010447096
30	0x3c7cbb54	0.015425522
31	0x3bea1f90	0.007144876
32	0x3b78ef77	0.003798453
33	0x3c50a37d	0.012734291
34	0x3d0f46be	0.034979574
35	0xbd431cb9	-0.047634814
36	0x3ca04d12	0.019568
37	0xbcc226e2	-0.023700181
38	0xbc479f4c	-0.012183975
39	0x3d6266c8	0.0552738
40	0x3a556355	0.0008140107
41	0x3ce08718	0.027408168
42	0xba20eb28	-0.00061385566
43	0x3d0d29c9	0.034463678
44	0x3d190ccb	0.037365716
45	0x3d394432	0.04523105
46	0x3cc8a40e	0.02449229
47	0xbb33d478	-0.0027439874
48	0xbc1a25fc	-0.00940847
49	0x3b474d8a	0.0030411207
50	0xbc8898c3	-0.016674405
51	0x3c419cdd	0.011817184
52	0xbca53e7a	-0.020171393
53	0x3cf2d7f4	0.02964399
54	0x3c89a449	0.01680197
55	0xbb0b8966	-0.0021291613
56	0x3c3a3af3	0.011366594
57	0x3c2b0f5c	0.010440674
58	0xbb8f8871	-0.0043802788
59	0xbc7650bd	-0.015033898
60	0x3bc2a6d3	0.005940297
61	0x3beadf6b	0.007167747
62	0x3bea6e27	0.0071542445
63	0xbb887cdb	-0.0041652746
64	0xbce31807	-0.027721418
65	0x3ce755bc	0.028239124
66	0x3d0f774a	0.035025872
67	0x3d497380	0.049182415
68	0x3c69bebe	0.014266668
69	0xbcdda6f1	-0.027057143
70	0x3c70571a	0.014669204
71	0xbbd5d67d	-0.006525813
72	0x3d0c80dd	0.03430258
73	0x3c949b21	0.018140377
74	0x3d2e59ed	0.04256623
75	0x3d41bc28	0.04729858
76	0x3b938665	0.004502105
77	0x3c91fd46	0.017820965
78	0x3ba0789f	0.0048971917
79	0x3cb8ad92	0.022543702
80	0x3d6c90d1	0.057755295
81	0xbbe0730e	-0.006849653
82	0x3c15817c	0.00912511
83	0xbc6c18cf	-0.014410212
84	0xbbef6d19	-0.0073067066
85	0x3bb57fb8	0.005538907
86	0x3d58ebd8	0.052959293
87	0x3a3c0a96	0.0007173208
88	0x3c80baf6	0.01571415
89	0x3ca61d75	0.020277718
90	0xbc0c6b0a	-0.008570442
91	0x3dbba490	0.09162247
92	0xbc853724	-0.016261645
93	0x3ca9cb5a	0.020726848
94	0x3ce3f35f	0.02782601
95	0x39306df4	0.00016825629
96	0xbc5058fc	-0.012716528
97	0x3c6a1ce5	0.014289116
98	0xbd44c10f	-0.048035678
99	0x3d1196cc	0.0355442
100	0x3a347ffc	0.0006885526
101	0xb9b60256	-0.00034715486
102	0x3d4972f0	0.04918188
103	0x39ba3162	0.00035513478
104	0x3b88bde3	0.004173027
105	0xbc31b059	-0.010845267
106	0xbbcb7eb0	-0.0062101707
107	0xbbb9b62c	-0.0056674685
108	0xbcc66e54	-0.02422253
109	0xbc91a3c6	-0.017778289
110	0x3c3dee92	0.011592524
111	0xbcd4637e	-0.025926348
112	0x3c12442c	0.008927386
113	0x3c67f973	0.014158594
114	0x3c4bccf3	0.012439
115	0x3bac0b6b	0.0052503846
116	0x3cbac068	0.022796825
117	0xbcfb2f42	-0.030662183
118	0x3c84a72e	0.016192999
119	0x3d4fec51	0.05076248
120	0xb7a00f84	-1.9080711e-05
121	0x3bb6269c	0.005558802
122	0x3bf2e0bd	0.007412045
123	0xbb170c46	-0.0023048087
124	0x3c370f28	0.011173047
125	0xbcac71f6	-0.021050435
126	0xbc8ad73b	-0.016948333
127	0xbc1e25f4	-0.009652603
128	0x3cfd246e	0.03090116
129	0xbbe8db81	-0.007106245
130	0xbc3b62e8	-0.011437155
131	0xbd499790	-0.049216807
132	0x3cd472b1	0.025933595
133	0x3d0439e7	0.032281782
134	0x3d25716a	0.040391363
135	0x3cf73ec1	0.03018129
136	0x3b882662	0.004154966
137	0x3d4bdaa5	0.049769063
138	0xbcc64b19	-0.024205731
139	0x3cb77fb6	0.022399765
140	0xbad0e2e8	-0.0015936764
141	0x3d209bb4	0.03921099
142	0xbc8f8d79	-0.017523514
143	0x3cd746f8	0.026278958
144	0xbcbf7b89	-0.023374336
145	0xbc46f068	-0.012142278
146	0x3b2795cf	0.002557147
147	0x3c9265b0	0.017870754
148	0xbcd6035f	-0.026124654
149	0xbc85bfc1	-0.016326787
150	0xbcc7624d	-0.024338866
151	0x3d01263f	0.031530615
152	0xbc8a0ed8	-0.016852781
153	0x3c0b5533	0.0085042
154	0xbc9a31df	-0.018822609
155	0xbc921a16	-0.017834704
156	0xbb23d69d	-0.0024999746
157	0xbb9359aa	-0.004496773
158	0x3d112cac	0.035442993
159	0xbca7e79e	-0.020496186
160	0x3cee2879	0.029072033
161	0xbca0fba4	-0.019651242
162	0x3c30d5a2	0.0107931215
163	0xbd3174b7	-0.0433242
164	0xbc528bfb	-0.012850757
165	0x3cdcee49	0.026969092
166	0xbc9a4234	-0.018830396
167	0xbcf785de	-0.0302152
168	0x3cc95a4d	0.024579192
169	0xbccadad9	-0.024762558
170	0x3c8911a4	0.016732045
171	0xbcde0c03	-0.027105337
172	0xbb903074	-0.0044003073
173	0x3cdfa379	0.02729963
174	0xbacd4ae2	-0.0015662576
175	0x3c78dc3d	0.015189228
176	0x3ca5fd1d	0.020262295
177	0x3d0c6251	0.03427345
178	0xbc930b33	-0.017949676
179	0x3c71fb23	0.014769348
180	0x3c94dac7	0.018170727
181	0x3ab3202c	0.0013666204
182	0x3b970b55	0.004609505
183	0xbc6e71cc	-0.0145534985
184	0xbc979ced	-0.018507445
185	0xba5c9f43	-0.0008416066
186	0xbbe6784e	-0.0070333844
187	0xbbca5ccc	-0.006175613
188	0xbcc8f7f4	-0.024532296
189	0xbd116897	-0.035500135
190	0xbc7377c1	-0.0148600945
191	0x39dc842b	0.00042060143
192	0x3c88f170	0.016716689
193	0xbabe1591	-0.0014502277
194	0x3d56e7fa	0.052467324
195	0x3ce87113	0.02837423

Block1.4.running_mean f4 [196]
0	0x3b2fb292	0.0026809317
1	0xbcbefd3a	-0.023314107
2	0xbca204d2	-0.01977769
3	0x3d01f1ab	0.031724613
4	0xbcad98f1	-0.021191092
5	0xbc864f85	-0.01639534
6	0x3b6b5477	0.00359085
7	0x3d3c79e9	0.0460147
8	0xbc993d4a	-0.018705983
9	0x3b754fb0	0.003743153
10	0xbcd83e73	-0.026396966
11	0xbbbcee5a	-0.0057657184
12	0x3b8a7f4d	0.004226601
13	0x3c9be388	0.019029394
14	0xbb644679	-0.0034832044
15	0x3a214a27	0.0006152712
16	0xbc4df309	-0.012570151
17	0x3cc27907	0.023739351
18	0x3b8866bb	0.004162637
19	0xbc66d154	-0.014087994
20	0xbc269e17	-0.0101695275
21	0xbca7324d	-0.020409727
22	0x3caf92a3	0.021432227
23	0xbd238df7	-0.03993031
24	0xbbc0c4a4	-0.0058828164
25	0x3ca55454	0.020181812
26	0x3be99fdc	0.0071296524
27	0xbc9f1c4f	-0.019422678
28	0x3ce7f1e1	0.028313579
29	0x3cc96cc0	0.024587989
30	0xbc82ad0c	-0.015951656
31	0xbc175010	-0.009235397
32	0xbb95cf76	-0.0045718504
33	0x3ca41c7b	0.020033112
34	0xbce956a1	-0.02848369
35	0xbaaded3f	-0.0013269557
36	0xbd111b9d	-0.035426725
37	0x3c341857	0.010992131
38	0xbc25009e	-0.010070948
39	0x3cfb644e	0.030687477
40	0xbc96cc18	-0.018407866
41	0x3c59391c	0.013258245
42	0xbc80c553	-0.015719092
43	0xb9d65e7e	-0.00040887663
44	0xbba14be9	-0.0049223793
45	0x3c5f6cc0	0.013636768
46	0x3c52e532	0.012872027
47	0xbb9d6004	-0.0048027057
48	0xbc667d01	-0.014067889
49	0x3c20e211	0.009819523
50	0x3bdc40ba	0.006721583
51	0x3c54e5c5	0.012994234
52	0xbc8dbb1e	-0.017301138
53	0xbd153650	-0.03642875
54	0xbcefbcd1	-0.02926484
55	0x3abda032	0.0014467298
56	0x3b6e1908	0.0036330838
57	0x3ca741ce	0.02041712
58	0x3c28e346	0.010308092
59	0xba5d3310	-0.000843809
60	0xbc881312	-0.016610656
61	0xbbec9020	-0.0072193295
62	0x3ab3eaa0	0.001372654
63	0x3c7bed36	0.01537638
64	0x3b98de79	0.0046651927
65	0x3ca839b1	0.020535322
66	0xbc588c0f	-0.013216986
67	0x395932d9	0.00020713675
68	0xbb389356	-0.002816399
69	0xbaf98bad	-0.0019038819
70	0xbc768a07	-0.015047557
71	0xba3a6040	-0.0007109679
72	0xbc38dbca	-0.011282871
73	0x394739b3	0.00018999614
74	0x3b0ce075	0.0021496092
75	0xbce55a4a	-0.027997155
76	0x3c241d13	0.010016697
77	0xbcbee30a	-0.02330162
78	0x3af1b6ef	0.0018441359
79	0xbc430600	-0.011903286
80	0xbba49b00	-0.0050233603
81	0x3b650756	0.0034947
82	0x3c5f86bd	0.013642964
83	0xbb8f031d	-0.004364385
84	0xbc1f25d3	-0.009713608
85	0x3c5912ee	0.013249142
86	0x3b52a937	0.0032144317
87	0xba7728e7	-0.0009428397
88	0xbc3b7d43	-0.011443439
89	0xbcafa7fd	-0.021442408
90	0x3ba3743a	0.0049882205
91	0xbb5d5b57	-0.0033776367
92	0x3c000dfa	0.007815832
93	0x3c6654cf	0.014058306
94	0xbbc3f6c4	-0.0059803445
95	0xbc9112db	-0.017709186
96	0x3c2000a8	0.009765781
97	0xbcbf66ec	-0.023364507
98	0xbc28c722	-0.010301383
99	0xbc740f62	-0.014896246
100	0xbc1914b2	-0.009343313
101	0x3c988294	0.018616952
102	0xbc7ce534	-0.015435506
103	0xb9becbdb	-0.00036391508
104	0xbbf66df4	-0.0075204317
105	0x39a4f5ec	0.00031463744
106	0x3cfc6cbf	0.030813573
107	0xbcb86a7f	-0.022511719
108	0x3cbd864c	0.023135327
109	0x3b859b5f	0.0040773596
110	0xbb486d36	-0.0030582673
111	0x3c7f5920	0.015585214
112	0x3c3c7424	0.011502299
113	0x3ccb73d2	0.0248355
114	0xbcdacac5	-0.026708016
115	0xbb5ed4bf	-0.0034001318
116	0xbca08f1a	-0.019599486
117	0xbbb88407	-0.0056309733
118	0x3cc6d9fc	0.024273865
119	0xbb82427b	-0.0039752102
120	0xbb6676db	-0.0035166058
121	0xbcb92a0c	-0.022603057
122	0x3bc81827	0.006106395
123	0xbbc5ff8e	-0.0060424274
124	0x3d131158	0.035905212
125	0x384283e4	4.6376037e-05
126	0x3c1ccd1c	0.009570386
127	0xba9d0bba	-0.0011981644
128	0xbd33c94b	-0.04389314
129	0xbc988078	-0.018615946
130	0xbbe3176c	-0.0069302823
131	0x3ab802b6	0.0014038894
132	0xbc74dea7	-0.014945663
133	0xbc9c4981	-0.019078018
134	0x3d436692	0.04770524
135	0x3bbba5e5	0.0057265633
136	0xbc547fba	-0.0129699055
137	0xbc0dbd1f	-0.008651047
138	0xbc0041df	-0.007828205
139	0x3c93fbbb	0.01806437
140	0xbcf0e2cd	-0.029405022
141	0xbb97882c	-0.0046243872
142	0xbc9e3262	-0.019311134
143	0x3c8b06ac	0.016970955
144	0x3d3a6b83	0.045512687
145	0x3c26f512	0.010190265
146	0xbccc2e17	-0.024924321
147	0x3c49ca21	0.012316258
148	0x3ac25f5e	0.0014829447
149	0xbbd3f761	-0.006468699
150	0x3c8d231e	0.01722866
151	0xbad1965f	-0.0015990249
152	0x3c4299bc	0.011877473
153	0x395b55f5	0.00020917489
154	0x3b111324	0.0022136653
155	0xbcf3ce05	-0.029761324
156	0xbd2864d3	-0.04111178
157	0xbc7d1bcb	-0.015448521
158	0xbcacd300	-0.021096706
159	0x3bb2d0c0	0.005457014
160	0xbcd71d40	-0.026259065
161	0xbb2b0e88	-0.002610119
162	0x3d064d77	0.03278872
163	0x3d29ff85	0.041503448
164	0x3c9b69be	0.01897132
165	0x3c998515	0.018740216
166	0xbb8f0c61	-0.0043654894
167	0x3ce544f1	0.027986975
168	0xbb687f0c	-0.0035476116
169	0x3be2720f	0.0069105695
170	0xbcde4751	-0.027133616
171	0xbba6304b	-0.005071675
172	0xbb1ec07a	-0.0024223612
173	0x3c6bb134	0.01438551
174	0xbc107bbd	-0.008818564
175	0xbc6f0a81	-0.014589907
176	0xbd7aa366	-0.061190985
177	0x3c8b1cc5	0.016981492
178	0x3c886691	0.01665047
179	0xbc9d19f8	-0.019177422
180	0xbb86c8e7	-0.004113305
181	0xbc1db4c0	-0.009625614
182	0xbc5af88d	-0.013364923
183	0xbce2e24a	-0.027695794
184	0x3cc6a7c0	0.024249911
185	0x3c52b110	0.012859598
186	0xbce1c3b0	-0.027559131
187	0x3c88fa5c	0.016720943
188	0x3bc1cf1f	0.0059145833
189	0x3c500abb	0.012697871
190	0x3b13708c	0.0022497503
191	0x3c4a07a2	0.012330921
192	0x3bd936a8	0.00662883
193	0x3bb55404	0.005533697
194	0x3b4a1eae	0.003084104
195	0x3bc626e8	0.0060471185
