checkpoint/student_1/casia/client/student_1.pt (torch, 253477 bytes, 50 tensors)

torch.sparse_coo f4 [17]
000000 db 51 12 be ae 38 cb 3d ab 80 93 bc c9 d6 87 3d
       -0.14289038 0.0992292 -0.01800569 0.06632764
000010 9e c9 e0 bd 3e e0 c7 3b a6 f3 49 be 9a 5e 1d 3b
       -0.109759554 0.00609973 -0.19721851 0.0024012686
000020 46 ba ca bd 65 13 4e 3d 20 ca f6 3d 16 ed c5 ba
       -0.0989881 0.050311465 0.12050271 -0.0015100564
000030 95 aa 0f be f8 d9 d1 39 85 68 14 bd b5 a5 1c 3d
       -0.14029916 0.00040025986 -0.03623249 0.038243968
000040 b0 71 d5 3c
       0.026055187

conv1.1.weight f4 [64]
000000 86 0e 80 3f 25 d4 7e 3f 00 00 80 3f 00 00 80 3f
       1.0004432 0.99542457 1.0 1.0
000010 00 00 80 3f 69 33 7d 3f c5 94 81 3f 00 00 80 3f
       1.0 0.9890657 1.0123526 1.0
000020 00 00 80 3f 00 00 80 3f de 07 80 3f 00 00 80 3f
       1.0 1.0 1.0002401 1.0
000030 00 00 80 3f 00 00 80 3f 00 00 80 3f 00 00 80 3f
       1.0 1.0 1.0 1.0
000040 00 00 80 3f 00 00 80 3f 00 00 80 3f 00 00 80 3f
       1.0 1.0 1.0 1.0
000050 00 00 80 3f 00 00 80 3f 00 00 80 3f 00 00 80 3f
       1.0 1.0 1.0 1.0
000060 00 00 80 3f 00 00 80 3f 00 00 80 3f 00 00 80 3f
       1.0 1.0 1.0 1.0
000070 00 00 80 3f 00 00 80 3f 00 00 80 3f 00 00 80 3f
       1.0 1.0 1.0 1.0
000080 00 00 80 3f 00 00 80 3f 00 00 80 3f 00 00 80 3f
       1.0 1.0 1.0 1.0
000090 00 00 80 3f d8 1d 81 3f ea db 7e 3f 00 00 80 3f
       1.0 1.0087233 0.9955431 1.0
0000a0 85 58 7d 3f c8 95 80 3f 00 00 80 3f 00 00 80 3f
       0.98963195 1.004571 1.0 1.0
0000b0 00 00 80 3f 00 00 80 3f 00 00 80 3f 00 00 80 3f
       1.0 1.0 1.0 1.0
0000c0 00 00 80 3f 64 ea 7b 3f 3b 63 7e 3f a7 c0 7d 3f
       1.0 0.98404527 0.99370164 0.9912209
0000d0 00 00 80 3f 00 00 80 3f 00 00 80 3f 00 00 80 3f
       1.0 1.0 1.0 1.0
0000e0 00 00 80 3f 00 00 80 3f 00 00 80 3f b0 a9 7d 3f
       1.0 1.0 1.0 0.9908705
0000f0 00 00 80 3f 00 00 80 3f 00 00 80 3f 00 00 80 3f
       1.0 1.0 1.0 1.0

conv1.1.bias f4 [64]
000000 0d 1e 07 3d 24 71 f0 3c 00 00 00 00 00 00 00 00
       0.032987643 0.029350825 0.0 0.0
000010 00 00 00 00 b9 4b 90 3c 73 a4 eb 3c 00 00 00 00
       0.0 0.017614232 0.028764939 0.0
000020 00 00 00 00 00 00 00 00 5a 0b 3f ba 00 00 00 00
       0.0 0.0 -0.00072877633 0.0
000030 00 00 00 00 00 00 00 00 00 00 00 00 00 00 00 00
       0.0 0.0 0.0 0.0
000040 00 00 00 00 00 00 00 00 00 00 00 00 00 00 00 00
       0.0 0.0 0.0 0.0
000050 00 00 00 00 00 00 00 00 00 00 00 00 00 00 00 00
       0.0 0.0 0.0 0.0
000060 00 00 00 00 00 00 00 00 00 00 00 00 00 00 00 00
       0.0 0.0 0.0 0.0
000070 00 00 00 00 00 00 00 00 00 00 00 00 00 00 00 00
       0.0 0.0 0.0 0.0
000080 00 00 00 00 00 00 00 00 00 00 00 00 00 00 00 00
       0.0 0.0 0.0 0.0
000090 00 00 00 00 59 70 67 3d 9f c0 a3 3b 00 00 00 00
       0.0 0.056503627 0.0049973275 0.0
0000a0 20 ab a1 3d fd ac 25 ba 00 00 00 00 00 00 00 00
       0.07893968 -0.0006320028 0.0 0.0
0000b0 00 00 00 00 00 00 00 00 00 00 00 00 00 00 00 00
       0.0 0.0 0.0 0.0
0000c0 00 00 00 00 bd b7 de 3c 62 83 4b 3d dd b4 02 bb
       0.0 0.027187223 0.049685843 -0.0019944229
0000d0 00 00 00 00 00 00 00 00 00 00 00 00 00 00 00 00
       0.0 0.0 0.0 0.0
0000e0 00 00 00 00 00 00 00 00 00 00 00 00 db cd 13 3d
       0.0 0.0 0.0 0.03608499
0000f0 00 00 00 00 00 00 00 00 00 00 00 00 00 00 00 00
       0.0 0.0 0.0 0.0

conv1.1.running_mean f4 [64]
000000 a6 fa 7c 3b 04 00 00 00 00 00 00 00 00 00 00 00
       0.0038601547 6e-45 0.0 0.0
000010 00 00 00 00 10 10 23 bc 48 a7 b0 3b 00 00 00 00
       0.0 -0.00995256 0.005391035 0.0
000020 00 00 00 00 00 00 00 00 04 00 00 00 00 00 00 00
       0.0 0.0 6e-45 0.0
000030 00 00 00 00 00 00 00 00 00 00 00 00 00 00 00 00
       0.0 0.0 0.0 0.0
000040 00 00 00 00 00 00 00 00 00 00 00 00 00 00 00 00
       0.0 0.0 0.0 0.0
000050 00 00 00 00 00 00 00 00 00 00 00 00 00 00 00 00
       0.0 0.0 0.0 0.0
000060 00 00 00 00 00 00 00 00 00 00 00 00 00 00 00 00
       0.0 0.0 0.0 0.0
000070 00 00 00 00 00 00 00 00 00 00 00 00 00 00 00 00
       0.0 0.0 0.0 0.0
000080 00 00 00 00 00 00 00 00 00 00 00 00 00 00 00 00
       0.0 0.0 0.0 0.0
000090 00 00 00 00 5d 33 22 3d c1 ac a6 3c 00 00 00 00
       0.0 0.039599765 0.020346047 0.0
0000a0 a3 da 31 bb 04 00 00 00 00 00 00 00 00 00 00 00
       -0.0027138374 6e-45 0.0 0.0
0000b0 00 00 00 00 00 00 00 00 00 00 00 00 00 00 00 00
       0.0 0.0 0.0 0.0
0000c0 00 00 00 00 b8 e2 c8 bc c7 fa 0f 3d 9b 23 15 3c
       0.0 -0.02452217 0.03515127 0.009102727
0000d0 00 00 00 00 00 00 00 00 00 00 00 00 00 00 00 00
       0.0 0.0 0.0 0.0
0000e0 00 00 00 00 00 00 00 00 00 00 00 00 e4 6f 6a bc
       0.0 0.0 0.0 -0.014308903
0000f0 00 00 00 00 00 00 00 00 00 00 00 00 00 00 00 00
       0.0 0.0 0.0 0.0

conv1.1.running_var f4 [64]
000000 04 f7 38 3a 04 00 00 00 04 00 00 00 04 00 00 00
       0.0007055851 6e-45 6e-45 6e-45
000010 04 00 00 00 cb bf 29 3a 5f 6e 28 3b 04 00 00 00
       6e-45 0.0006475418 0.0025700552 6e-45
000020 04 00 00 00 04 00 00 00 04 00 00 00 04 00 00 00
       6e-45 6e-45 6e-45 6e-45
000030 04 00 00 00 04 00 00 00 04 00 00 00 04 00 00 00
       6e-45 6e-45 6e-45 6e-45
000040 04 00 00 00 04 00 00 00 04 00 00 00 04 00 00 00
       6e-45 6e-45 6e-45 6e-45
000050 04 00 00 00 04 00 00 00 04 00 00 00 04 00 00 00
       6e-45 6e-45 6e-45 6e-45
000060 04 00 00 00 04 00 00 00 04 00 00 00 04 00 00 00
       6e-45 6e-45 6e-45 6e-45
000070 04 00 00 00 04 00 00 00 04 00 00 00 04 00 00 00
       6e-45 6e-45 6e-45 6e-45
000080 04 00 00 00 04 00 00 00 04 00 00 00 04 00 00 00
       6e-45 6e-45 6e-45 6e-45
000090 04 00 00 00 54 ee 29 3c db 3d 2b 3b 04 00 00 00
       6e-45 0.010371763 0.0026129398 6e-45
0000a0 64 16 1e 3a 04 00 00 00 04 00 00 00 04 00 00 00
       0.0006030558 6e-45 6e-45 6e-45
0000b0 04 00 00 00 04 00 00 00 04 00 00 00 04 00 00 00
       6e-45 6e-45 6e-45 6e-45
0000c0 04 00 00 00 4b 98 80 3b 3c e3 b7 3b 31 f3 bc 39
       6e-45 0.0039244047 0.0056118052 0.00036039346
0000d0 04 00 00 00 04 00 00 00 04 00 00 00 04 00 00 00
       6e-45 6e-45 6e-45 6e-45
0000e0 04 00 00 00 04 00 00 00 04 00 00 00 c3 11 95 3a
       6e-45 6e-45 6e-45 0.0011373091
0000f0 04 00 00 00 04 00 00 00 04 00 00 00 04 00 00 00
       6e-45 6e-45 6e-45 6e-45

Block1.0.weight f4 [737]
000000 d6 12 57 bc 78 dd 1e 3d 68 6c 99 3c 9b 9c a9 bc
       -0.013127049 0.038785428 0.01872845 -0.020704558
000010 4a 51 1f bd 2c 11 1b bd 0e 9b e5 bc 8b c6 ed bc
       -0.038895883 -0.037858173 -0.028028037 -0.029025337
000020 58 a2 06 bd 57 62 27 bd 37 01 05 bd d6 84 65 3c
       -0.032869667 -0.04086527 -0.03247186 0.014008721
000030 9b 1a bb 3c 98 ec 0f bd 6e c5 10 ba 9f 35 61 39
       0.022839835 -0.035137743 -0.00055225834 0.00021477648
000040 15 cd c8 b8 43 67 25 b9 b8 f8 cb b8 c1 7b 93 3b
       -9.574943e-05 -0.00015774094 -9.726122e-05 0.0045008366
000050 80 a4 86 bc be 00 09 3d e6 f8 0e 3d 8b 86 af b9
       -0.016435862 0.033447973 0.034905337 -0.00033478843
000060 33 af 4b b9 fc 82 7d bc a5 3e 5a b9 57 8b b7 3c
       -0.00019424855 -0.015473124 -0.00020813437 0.02240531
000070 f4 5e 0b 3a 78 e6 f4 b9 b7 72 37 3a d8 15 a8 bc
       0.00053165783 -0.0004671102 0.000699799 -0.020518228
000080 c6 bd 38 bc e8 5b 23 bd c6 57 2a 3c 8e a5 8d 3c
       -0.011275714 -0.03988257 0.010396903 0.017290857
000090 b0 16 96 bc 2e de 82 3c 2f 2b 22 3d a0 a7 21 bc
       -0.018321365 0.015975084 0.039591964 -0.009866625
0000a0 be 8c d7 3c ce ae 9d 3c 1a 7e 22 3d 62 36 04 bd
       0.026312228 0.019248392 0.03967104 -0.032278426
0000b0 06 d3 a9 3c c6 3b 9d bc 26 69 be bc c3 84 b2 bc
       0.020730507 -0.019193541 -0.023243498 -0.021791821
0000c0 e0 14 11 3c c6 31 2a bc 13 bd 03 bd 30 7c b9 3c
       0.008855075 -0.0103878435 -0.032162737 0.022642225
0000d0 2a 1a 1b bd 44 22 6c 3c d6 4b fd 3c 2b 7d 1a bd
       -0.03786675 0.014412466 0.03091995 -0.037717026
0000e0 53 0c d0 3c 88 fa c1 3c a6 5f ea 3b 1a 4b 4e 3a
       0.025396502 0.023679033 0.0071525155 0.00078694674
0000f0 02 ca b4 bb 5b 94 cc 3c 16 c8 29 bd d6 5c 2f 3c
       -0.0055172453 0.024973085 -0.041450582 0.010703286
000100 0b 55 16 bd 58 28 a9 3c 83 88 89 3c 8c b2 99 bc
       -0.036702197 0.02064912 0.016788727 -0.018761896
000110 5c ce 19 bd 26 e9 d5 3c 43 15 94 bc f6 47 6b bc
       -0.037550315 0.02611215 -0.018076545 -0.014360419
000120 97 8b e6 3c 40 6d c2 bc 4b e2 bc 3c 10 e1 cc 3c
       0.028142733 -0.023733735 0.023057124 0.025009662
000130 e6 e2 5e ba 48 2a ca 37 e0 1d e1 3c cb 01 8b bc
       -0.00085024384 2.4099965e-05 0.027480066 -0.016968628
000140 e9 38 fd 3c 35 14 bf 3b d0 8d f6 3c de 5c af bc
       0.030910926 0.0058312663 0.030096918 -0.021406587
000150 a0 69 32 3c b0 e5 25 3c 80 42 9f bc f0 d3 a8 bc
       0.010889441 0.010125563 -0.01944089 -0.020608872
000160 23 41 03 bd 87 58 02 3d 98 5f bb bc 26 1b 1d 3c
       -0.03204454 0.031822708 -0.022872731 0.009588992
000170 5e 39 c5 bc 81 55 09 3d 96 e6 e1 bc 5a bc 26 3d
       -0.024075206 0.03352881 -0.027575772 0.04070697
000180 95 d4 32 3c 8b a9 e5 3c 12 ae 85 bc 2b ef dd bb
       0.010914941 0.028034946 -0.016318355 -0.006772896
000190 40 c9 37 3c a2 16 09 bd 2b ea 32 bc b3 c5 e4 bc
       0.011217415 -0.03346885 -0.010920088 -0.027926302
0001a0 f4 78 0a 3d 8b 95 83 3c 47 28 29 3d 78 94 98 3c
       0.033806756 0.016062519 0.041298177 0.018625483
0001b0 d6 25 11 3d c9 91 9e 3c 31 03 9b bc 07 d0 10 3d
       0.035436474 0.019356625 -0.01892242 0.03535464
0001c0 db d5 eb 3c 66 8a 31 3d 5a 7b 2a 3d 36 c5 03 3c
       0.028788498 0.043344878 0.041621543 0.008042624
0001d0 56 36 c4 bc f8 c3 d9 39 40 c1 91 3c 4d 94 6c 3c
       -0.02395169 0.00041535473 0.017792344 0.014439655
0001e0 0c 04 b7 ba 73 05 29 bd ab e9 18 bc c8 d0 d9 bc
       -0.0013962998 -0.041264962 -0.009333055 -0.026588812
0001f0 de c8 11 3d 2f d0 d8 bc 36 95 10 3d f0 8f b3 bc
       0.035591953 -0.026466457 0.03529855 -0.02191922
000200 50 f7 49 3c 50 8d 41 3c fe 04 8d bc 30 97 06 3c
       0.01232703 0.011813477 -0.017214295 0.008214757
000210 b8 91 14 3b 9b 1d 02 bd c3 33 ca 3c 1b 91 3f bc
       0.0022669863 -0.031766515 0.024682885 -0.011692311
000220 e5 3d 21 bd 84 8f af 3b 94 e0 24 bd ef 79 c3 3c
       -0.039365668 0.0053576846 -0.040253237 0.023861853
000230 de 02 46 bb 6e fe c2 bc 10 fe 2f 3c 38 3d db bc
       -0.0030214111 -0.023802962 0.010741726 -0.02676259
000240 5f fb 24 3d c2 67 e0 3c 3e 64 fc ba c6 65 01 bc
       0.04027879 0.027393226 -0.0019255949 -0.0078978
000250 e5 54 ed 3c 5f e9 2a 3c ba be 54 bb fe a8 60 3b
       0.028971145 0.010431617 -0.0032462315 0.0034280415
000260 4e 62 be bc e6 5a 10 bd 73 5c 8d bc 76 3a cd bc
       -0.023240235 -0.035242938 -0.017255997 -0.02505229
000270 56 59 ff 3b 4e 0a 8b 3c cb 3a 46 3c 94 4b 26 bd
       0.007792632 0.016972687 0.012098978 -0.04059942
000280 b0 bb cf bc 36 a5 06 3d fb 1a 22 3c a3 c8 94 bc
       -0.025358051 0.0328724 0.009894128 -0.018162077
000290 2a f0 0d 3d db a3 df bc 28 76 9b bc eb f6 d2 bc
       0.034652866 -0.027299812 -0.01897724 -0.025752505
0002a0 df 04 fa 3a e2 81 10 3d 2c a7 13 3d 56 39 c4 3c
       0.0019074938 0.035280116 0.0360481 0.023953121
0002b0 b7 44 1a 3d f8 ea cb 3a b3 f3 84 3c bb 21 06 3c
       0.037663188 0.0015557697 0.016229486 0.008186753
0002c0 a8 03 08 3d aa d1 11 3d 63 05 c5 3b 4a e1 97 3b
       0.033206612 0.03560034 0.006012605 0.004635011
0002d0 d3 25 8f bc ce 0f ff bc cf 14 02 bd c6 5f e2 3c
       -0.01747409 -0.031135466 -0.031758126 0.027633559
0002e0 86 d8 d7 bc 39 bd 0b 3c 4b 29 ca 3c d0 de 3a 3c
       -0.026348364 0.008529001 0.024677893 0.011405662
0002f0 53 b3 1c bd 03 f6 12 3d 4e c9 d7 bc 03 0b f8 3c
       -0.038256954 0.035879146 -0.026341107 0.030278688
000300 20 58 0a bd db ba 08 3c a0 35 0b 3d b3 a0 b1 3c
       -0.03377545 0.008345331 0.033986688 0.021683073
000310 0e e1 0f bd d0 91 89 bc 33 bd 21 bd cd 6d 47 3b
       -0.03512674 -0.016793162 -0.039487075 0.0030430437
000320 76 53 a6 3c 93 c3 03 3d d5 41 b9 39 66 b4 26 ba
       0.02030347 0.032168936 0.00035334998 -0.0006359279
000330 26 d5 26 3a 57 26 99 b9 5b 80 42 39 d3 e3 f6 3c
       0.0006364159 -0.00029211 0.00018549098 0.030137932
000340 d0 ee 49 3c d0 68 74 3c 13 5b c2 3c 58 db bc 3c
       0.012325004 0.014917567 0.023725068 0.02305381
000350 d9 4c 26 3d a2 24 18 ba fc ef 8d b7 63 e2 75 b8
       0.04060063 -0.00058037986 -1.6920261e-05 -5.862339e-05
000360 55 71 3a b9 dc 6f 79 38 c1 0b 27 b9 d9 20 33 bd
       -0.00017780562 5.9470403e-05 -0.0001593074 -0.043732498
000370 3c 5a 73 3a 70 b0 88 39 2a d5 07 3a 4d af f4 39
       0.00092831603 0.00026071398 0.0005181605 0.00046669916
000380 25 dd 6e 39 fe 8e f2 bc 03 9a 9f 3c 4e f8 bd bc
       0.00022779831 -0.0296092 0.019482618 -0.02318969
000390 ca 0a 97 39 3c c0 07 3a 4e 33 16 3a 8e bb a3 39
       0.00028809003 0.00051784865 0.0005729691 0.00031229522
0003a0 c5 60 05 ba f1 02 96 39 92 c1 13 38 c0 bc 3f bc
       -0.0005087967 0.0002861242 3.5227808e-05 -0.011702716
0003b0 a3 0f 25 3d f0 aa 0c bd 48 67 86 3c 42 e5 28 3d
       0.040298115 -0.034342706 0.01640667 0.041234262
0003c0 5b 23 40 bc 1e c5 9e bc 90 a3 d2 bc 4e 0a 2a 3d
       -0.011727179 -0.019381102 -0.025712758 0.041513734
0003d0 16 41 e3 bc 12 00 1f 3d 0c f1 16 bd 38 71 c0 3c
       -0.027740996 0.038818426 -0.036850974 0.023491487
0003e0 72 78 0a bd 20 d0 79 3c e7 fe 20 3d 48 fa 38 bc
       -0.03380627 0.015247375 0.039305594 -0.01129014
0003f0 4b 68 f2 bc 6a 3e 48 bd 6b bf 25 bc 78 37 24 3d
       -0.029590746 -0.048887648 -0.010116438 0.04009196

Block1.1.weight f4 [128]
000000 00 00 80 3f 00 00 80 3f 47 db 81 3f 00 00 80 3f
       1.0 1.0 1.0145043 1.0
000010 00 00 80 3f 00 00 80 3f 00 00 80 3f 00 00 80 3f
       1.0 1.0 1.0 1.0
000020 13 ef 7c 3f 00 00 80 3f 95 3a 7e 3f 00 00 80 3f
       0.988023 1.0 0.9930814 1.0
000030 00 fa 80 3f f1 16 7f 3f 92 b4 7f 3f 09 ea 7f 3f
       1.0076294 0.9964438 0.99884903 0.99966484
000040 39 3b 81 3f c5 b0 7f 3f 99 eb 7e 3f 16 3d 7d 3f
       1.0096198 0.99879104 0.99578243 0.98921335
000050 ef 1c 82 3f 00 00 80 3f 00 00 80 3f 92 3c 7e 3f
       1.016508 1.0 1.0 0.9931117
000060 c0 66 80 3f 00 00 80 3f 00 00 80 3f ff 43 7f 3f
       1.0031357 1.0 1.0 0.9971313
000070 cd c6 80 3f 54 4f 80 3f 8c 4c 7f 3f df 18 7d 3f
       1.0060669 1.0024209 0.99726176 0.98866075
000080 1f 74 7e 3f 8f fc 81 3f 00 00 80 3f 65 f5 7d 3f
       0.99395937 1.01552 1.0 0.9920257
000090 00 00 80 3f 00 00 80 3f 19 74 80 3f e2 51 7e 3f
       1.0 1.0 1.003543 0.99343693
0000a0 00 00 80 3f 7d 3b 80 3f 3c 60 80 3f 70 4a 7f 3f
       1.0 1.0018154 1.0029368 0.9972296
0000b0 ee 7e 80 3f 30 d1 80 3f 00 00 80 3f 95 f5 80 3f
       1.0038736 1.0063839 1.0 1.0074946
0000c0 00 00 80 3f 43 9d 7f 3f ef 7e 7e 3f 88 2a 81 3f
       1.0 0.9984934 0.99412435 1.0091105
0000d0 0f df 7d 3f ff 50 7f 3f 00 00 80 3f 86 91 7f 3f
       0.99168485 0.99732965 1.0 0.99831426
0000e0 c1 17 7f 3f ca 6d 81 3f 65 5c 7f 3f ec 0e 80 3f
       0.9964562 1.011163 0.9975036 1.0004554
0000f0 6e 1c 80 3f c4 08 80 3f b0 ad 7a 3f 00 00 80 3f
       1.0008676 1.0002675 0.97921276 1.0
000100 00 00 80 3f 00 00 80 3f 38 04 81 3f d7 03 80 3f
       1.0 1.0 1.0079412 1.0001172
000110 4b 15 7f 3f aa f9 7b 3f 00 00 80 3f 00 00 80 3f
       0.99641865 0.9842783 1.0 1.0
000120 98 0d 80 3f 39 ae 7e 3f d0 d7 80 3f ec 9f 81 3f
       1.0004148 0.9948459 1.0065861 1.0126929
000130 76 48 7f 3f 45 00 81 3f 19 0a 80 3f 71 49 7f 3f
       0.9971994 1.0078207 1.0003082 0.9972144
000140 00 00 80 3f 00 00 80 3f 16 cd 7f 3f 00 00 80 3f
       1.0 1.0 0.9992231 1.0
000150 ef 22 7e 3f 00 00 80 3f 8f e5 7c 3f 00 00 80 3f
       0.99272054 1.0 0.9878778 1.0
000160 c9 2a 80 3f 58 d5 7c 3f a4 3c 7f 3f 3c e0 80 3f
       1.0013057 0.98763037 0.99701905 1.0068431
000170 92 c1 80 3f ab 18 80 3f a9 a9 7d 3f 1b 82 80 3f
       1.0059073 1.0007528 0.99087006 1.0039705
000180 00 00 80 3f f1 3c 7f 3f 00 00 80 3f 00 00 80 3f
       1.0 0.99702364 1.0 1.0
000190 c4 5e 81 3f 00 00 80 3f 10 3f 81 3f d8 4e 81 3f
       1.0107045 1.0 1.009737 1.0102186
0001a0 58 96 7f 3f 00 00 80 3f d2 8a 7e 3f 1d 43 7c 3f
       0.9983878 1.0 0.99430573 0.98539907
0001b0 44 eb 7f 3f 56 bb 7e 3f 00 00 80 3f 94 61 82 3f
       0.9996836 0.995046 1.0 1.0186028
0001c0 eb 4e 7f 3f 8d 3a 82 3f eb 70 7f 3f 2f 24 80 3f
       0.99729794 1.0174118 0.99781674 1.0011042
0001d0 57 40 7f 3f 00 00 80 3f b6 ea 7d 3f 2b 24 80 3f
       0.9970755 1.0 0.99186265 1.0011038
0001e0 60 55 7e 3f 00 00 80 3f b8 8f 7f 3f 00 00 80 3f
       0.9934902 1.0 0.9982867 1.0
0001f0 00 00 80 3f 28 0c 7f 3f 4b a8 7d 3f 8e bb 7b 3f
       1.0 0.99627924 0.9908492 0.9833306

Block1.1.bias f4 [128]
000000 00 00 00 00 00 00 00 00 42 f5 92 3c 00 00 00 00
       0.0 0.0 0.017939214 0.0
000010 00 00 00 00 00 00 00 00 00 00 00 00 00 00 00 00
       0.0 0.0 0.0 0.0
000020 f7 0b d2 b9 00 00 00 00 a6 80 42 3c 00 00 00 00
       -0.00040063236 0.0 0.0118714925 0.0
000030 ea df 94 3c 45 13 57 bc a8 15 77 3d 2d 37 2f 3b
       0.018173177 -0.013127153 0.060323387 0.0026735768
000040 41 33 37 3d fe a9 eb 3b bf 9e 67 ba f1 97 99 3b
       0.044726614 0.0071918955 -0.00088356057 0.0046873023
000050 39 d1 31 bc 00 00 00 00 00 00 00 00 e7 e5 64 3c
       -0.010853105 0.0 0.0 0.013970829
000060 86 ec a5 3d 00 00 00 00 00 00 00 00 bd 2c ef 3b
       0.08101754 0.0 0.0 0.0072990344
000070 be 7f 1a 3d 89 98 1f 3c d1 8d 80 bb ed c5 37 bb
       0.03771948 0.009740957 -0.003923156 -0.0028041557
000080 e4 e1 3b 3c 27 7b b0 3c 00 00 00 00 72 4f b0 bc
       0.011467431 0.021543099 0.0 -0.021522257
000090 00 00 00 00 00 00 00 00 9d 92 16 3d 6d ed 05 3d
       0.0 0.0 0.036760915 0.03269713
0000a0 00 00 00 00 12 21 55 ba 2b 70 b2 b9 99 35 34 bb
       0.0 -0.0008130233 -0.00034034377 -0.0027497767
0000b0 5d 45 f9 bc 46 68 d6 3c 00 00 00 00 8f 54 06 3d
       -0.030428583 0.026172768 0.0 0.032795485
0000c0 00 00 00 00 eb f7 48 b9 55 ad ae b9 06 ec 9a 3b
       0.0 -0.00019165843 -0.0003331701 0.004727843
0000d0 3b 66 56 ba 00 63 ce ba 00 00 00 00 0a 53 93 ba
       -0.00081786857 -0.0015746057 0.0 -0.0011239958
0000e0 bf e9 28 3b 01 bb 50 bb e1 49 62 bb 62 5d 92 3c
       0.002577409 -0.0031849744 -0.0034528899 0.017866794
0000f0 ef bd 84 b9 8e 77 e5 bb ae 4d 58 3b 00 00 00 00
       -0.00025318514 -0.0070027774 0.0033005285 0.0
000100 00 00 00 00 00 00 00 00 24 da ef 3c dd 59 bc 3b
       0.0 0.0 0.029278822 0.005748017
000110 00 51 0a bb 76 d9 39 3b 00 00 00 00 00 00 00 00
       -0.0021105409 0.0028358377 0.0 0.0
000120 f9 9b 16 bd d1 8e 79 bb e7 9a 14 ba 75 c7 33 3b
       -0.03676984 -0.003807951 -0.0005668834 0.0027432118
000130 17 63 f2 bc 71 63 c3 3c 42 c5 00 bb 3f 1e 87 3c
       -0.029588265 0.023851128 -0.0019648825 0.016493915
000140 00 00 00 00 00 00 00 00 65 e5 8e bb 00 00 00 00
       0.0 0.0 -0.004360842 0.0
000150 5b da 0a bb 00 00 00 00 f3 84 f1 3b 00 00 00 00
       -0.002118728 0.0 0.007370585 0.0
000160 de 5b 2d 3d 47 f2 96 3c a2 d3 10 3d 32 d4 29 bc
       0.04232394 0.018426074 0.03535808 -0.010365533
000170 73 b1 9e ba f2 e9 56 3b 93 f6 06 bd e5 1a 85 b9
       -0.0012107327 0.003279325 -0.032949995 -0.00025387775
000180 00 00 00 00 04 2e 81 bc 00 00 00 00 00 00 00 00
       0.0 -0.015769012 0.0 0.0
000190 0d 16 2e 3d 00 00 00 00 40 9b 65 3d 00 b6 a6 3d
       0.042501498 0.0 0.05605626 0.081401825
0001a0 5e b2 c3 b9 00 00 00 00 b2 9f 8c ba 17 70 f7 3c
       -0.00037326192 0.0 -0.0010728745 0.030204816
0001b0 e6 b0 73 bb f1 02 9a 3c 00 00 00 00 f3 eb a5 3c
       -0.0037184297 0.01880023 0.0 0.02025411
0001c0 a5 41 8a 3c 0a 1f 93 3d 88 a5 44 3d b4 e0 90 3b
       0.016877005 0.071836546 0.048009425 0.004421318
0001d0 9e 20 13 3c 00 00 00 00 85 c9 8a 3d 38 c4 ac bb
       0.0089799445 0.0 0.06776718 -0.0052724145
0001e0 6a 9c 82 3c 00 00 00 00 f2 fa 70 bb 00 00 00 00
       0.015943725 0.0 -0.0036770669 0.0
0001f0 00 00 00 00 e1 49 04 bd f3 0a cc 3c a5 21 08 3c
       0.0 -0.03229702 0.024907565 0.008308803

Block1.1.running_mean f4 [128]
000000 00 00 00 00 00 00 00 00 ed 94 90 3b 00 00 00 00
       0.0 0.0 0.0044122846 0.0
000010 00 00 00 00 00 00 00 00 00 00 00 00 00 00 00 00
       0.0 0.0 0.0 0.0
000020 6d 4d c7 3b 00 00 00 00 89 1b 34 3c 00 00 00 00
       0.006082228 0.0 0.010992893 0.0
000030 8b 7e fd bb df cd 3d 3c 54 9f 04 3c 29 86 04 80
       -0.0077360324 0.011584728 0.008094627 -4.1547e-40
000040 78 d3 cc 3b 14 a4 54 bb b3 6c ab 39 7e 7c 7e 39
       0.006250795 -0.003244643 0.0003269665 0.00024269705
000050 a1 c1 93 3c 00 00 00 00 00 00 00 00 c6 f5 c0 3b
       0.018036665 0.0 0.0 0.0058886735
000060 04 00 00 80 00 00 00 00 00 00 00 00 df fb 59 bc
       -6e-45 0.0 0.0 -0.01330468
000070 bd a0 02 3c 93 f0 8e 3c 04 00 00 00 ae 2b a2 3b
       0.007972893 0.0174487 6e-45 0.0049490547
000080 99 a5 2c bc ec 2e f7 3c 00 00 00 00 c6 e2 2b 3b
       -0.010537528 0.030173741 0.0 0.0026227697
000090 00 00 00 00 00 00 00 00 c1 05 27 3c c8 fd 9a 3c
       0.0 0.0 0.010194243 0.01891984
0000a0 00 00 00 00 04 00 00 00 04 00 00 80 21 a4 02 80
       0.0 6e-45 -6e-45 -2.4255e-40
0000b0 d9 a8 a1 bc db e5 2e bb 00 00 00 00 22 d2 e1 bc
       -0.019733833 -0.0026687298 0.0 -0.02756602
0000c0 00 00 00 00 04 00 00 00 04 00 00 00 1c d3 87 bc
       0.0 6e-45 6e-45 -0.016580157
0000d0 b6 ae 6b ba 93 3a 58 39 00 00 00 00 e1 82 04 00
       -0.00089905725 0.00020621186 0.0 4.14292e-40
0000e0 1a b0 7c bc 33 db 5e bc 04 00 00 80 fe e5 60 3c
       -0.015422845 -0.013602066 -6e-45 0.013726709
0000f0 04 00 00 80 0b 2c 71 bc 0e d8 b8 3b 00 00 00 00
       -6e-45 -0.014719973 0.00564099 0.0
000100 00 00 00 00 00 00 00 00 c6 9e 7f 3c 82 99 b1 bc
       0.0 0.0 0.015601819 -0.021679644
000110 04 00 00 00 12 e7 6b 3c 00 00 00 00 00 00 00 00
       6e-45 0.014398353 0.0 0.0
000120 3c 2c 07 3c 04 00 00 80 59 a0 14 ba 2e e0 82 ba
       0.008250292 -6e-45 -0.00056696456 -0.0009985024
000130 2c 7b a1 bc 79 86 84 bc 04 00 00 00 d3 a5 a4 3c
       -0.019712053 -0.016177403 6e-45 0.020098602
000140 00 00 00 00 00 00 00 00 04 00 00 80 00 00 00 00
       0.0 0.0 -6e-45 0.0
000150 04 00 00 00 00 00 00 00 8c d4 95 bc 00 00 00 00
       6e-45 0.0 -0.018289827 0.0
000160 9a 0a 92 bb ee 83 04 bc d0 5b 8f 3c e0 66 2b 3c
       -0.00445683 -0.008088095 0.017499834 0.010461539
000170 cc 81 18 bc 88 c1 b6 3c 5a 48 23 3c 04 00 00 80
       -0.00930829 0.02230908 0.00996598 -6e-45
000180 00 00 00 00 29 4e b9 bb 00 00 00 00 00 00 00 00
       0.0 -0.0056550694 0.0 0.0
000190 0b cc 68 bc 00 00 00 00 f4 32 2f bb b1 98 59 bc
       -0.014208804 0.0 -0.0026733251 -0.013281033
0001a0 04 00 00 80 00 00 00 00 38 21 2d bb 8c c8 eb bb
       -6e-45 0.0 -0.0026417505 -0.007195538
0001b0 04 00 00 00 96 ca 7b 3c 00 00 00 00 ec 88 01 3c
       6e-45 0.0153681245 0.0 0.00790618
0001c0 04 00 00 00 20 a7 44 3c 27 3f e8 3b d1 37 3a 3a
       6e-45 0.012002736 0.0070876065 0.0007103654
0001d0 15 5e 84 bc 00 00 00 00 14 73 31 3b f4 71 4d 3c
       -0.016158143 0.0 0.0027076649 0.012539376
0001e0 fd 43 5b 3c 00 00 00 00 04 00 00 80 00 00 00 00
       0.013382909 0.0 -6e-45 0.0
0001f0 00 00 00 00 f9 c4 de 3b ed 2e db bb e9 4c 20 3c
       0.0 0.0067983833 -0.0066889436 0.009783962

Block1.1.running_var f4 [128]
000000 04 00 00 00 04 00 00 00 d6 71 76 38 04 00 00 00
       6e-45 6e-45 5.875699e-05 6e-45
000010 04 00 00 00 04 00 00 00 04 00 00 00 04 00 00 00
       6e-45 6e-45 6e-45 6e-45
000020 3e 46 ad 38 04 00 00 00 13 64 8a 39 04 00 00 00
       8.2623665e-05 6e-45 0.00026395972 6e-45
000030 de 3d f9 38 19 67 a1 39 3c 3f 38 39 04 00 00 00
       0.00011884769 0.00030785127 0.00017571164 6e-45
000040 19 fd 8b 39 21 9f 95 37 c4 63 67 30 b0 f1 ee 37
       0.00026700718 1.7836284e-05 8.4179086e-10 2.8484355e-05
000050 b7 68 fb 39 04 00 00 00 04 00 00 00 36 6a 70 38
       0.0004795247 6e-45 6e-45 5.7319376e-05
000060 04 00 00 00 04 00 00 00 04 00 00 00 8a 42 d9 39
       6e-45 6e-45 6e-45 0.0004143904
000070 34 0b 12 39 2b 86 d5 39 04 00 00 00 6c b7 6c 38
       0.00013927819 0.0004072649 6e-45 5.643761e-05
000080 4d e8 4e 39 e0 65 05 3b 04 00 00 00 96 55 9c 37
       0.0001973223 0.0020354912 6e-45 1.8636503e-05
000090 04 00 00 00 04 00 00 00 81 3f 09 39 10 ff c9 39
       6e-45 6e-45 0.00013088995 0.00038527744
0000a0 04 00 00 00 04 00 00 00 04 00 00 00 04 00 00 00
       6e-45 6e-45 6e-45 6e-45
0000b0 1c 08 53 3a 40 42 bb 37 04 00 00 00 2b 8d 7c 39
       0.00080502196 2.2322987e-05 6e-45 0.00024085182
0000c0 04 00 00 00 04 00 00 00 04 00 00 00 25 39 ce 39
       6e-45 6e-45 6e-45 0.00039333958
0000d0 9c 8c 5b 32 2e 13 b8 2f 04 00 00 00 04 00 00 00
       1.2779449e-08 3.3483033e-10 6e-45 6e-45
0000e0 d5 62 de 39 a3 c2 f0 39 04 00 00 00 fa 8a dc 39
       0.00042416775 0.00045921383 6e-45 0.00042065216
0000f0 04 00 00 00 99 b9 02 3a 99 33 2d 38 04 00 00 00
       6e-45 0.00049867627 4.129447e-05 6e-45
000100 04 00 00 00 04 00 00 00 51 f2 cb 39 2f eb 15 3a
       6e-45 6e-45 0.00038899717 0.0005718944
000110 04 00 00 00 95 f0 93 39 04 00 00 00 04 00 00 00
       6e-45 0.00028217272 6e-45 6e-45
000120 73 df c6 38 04 00 00 00 1c fc 63 1c c4 66 87 32
       9.4829964e-05 6e-45 7.5433843e-22 1.57628e-08
000130 76 29 35 3a 9f b2 1e 3a 04 00 00 00 5b 04 8c 39
       0.000691078 0.00060538383 6e-45 0.00026706126
000140 04 00 00 00 04 00 00 00 04 00 00 00 04 00 00 00
       6e-45 6e-45 6e-45 6e-45
000150 04 00 00 00 04 00 00 00 dc 4d db 39 04 00 00 00
       6e-45 6e-45 0.00041828945 6e-45
000160 90 eb b7 38 4a 35 be 38 f5 99 f6 39 8d ff 18 39
       8.769997e-05 9.069832e-05 0.00047035483 0.0001459105
000170 cd 10 58 39 31 76 c1 39 c7 99 1d 39 04 00 00 00
       0.00020605624 0.00036899888 0.00015029973 6e-45
000180 04 00 00 00 9f 03 7c 3a 04 00 00 00 04 00 00 00
       6e-45 0.00096135767 6e-45 6e-45
000190 55 49 d2 39 04 00 00 00 77 05 4e 38 b4 f3 18 3a
       0.00040108958 6e-45 4.9119317e-05 0.00058346544
0001a0 04 00 00 00 04 00 00 00 9f b8 13 37 e8 1c 28 3a
       6e-45 6e-45 8.804868e-06 0.0006412999
0001b0 04 00 00 00 21 6d 0f 3a 04 00 00 00 cf 0e a8 38
       6e-45 0.00054712786 6e-45 8.0136226e-05
0001c0 04 00 00 00 b1 bc 98 39 36 7c be 38 ec 0f 09 32
       6e-45 0.00029132285 9.083042e-05 7.97807e-09
0001d0 b2 cd be 39 04 00 00 00 fe 5f 90 37 8d b0 54 39
       0.0003639288 6e-45 1.7210838e-05 0.00020283666
0001e0 d6 7a 83 39 04 00 00 00 04 00 00 00 04 00 00 00
       0.00025077787 6e-45 6e-45 6e-45
0001f0 04 00 00 00 3e 70 aa 38 fc 38 84 38 52 bd 65 39
       6e-45 8.1271384e-05 6.304865e-05 0.00021909669

Block1.3.weight f4 [2259]
000000 0b 3e a8 bb 9f 64 3a bb 17 a5 92 bc 85 59 0f 3c
       -0.005134349 -0.0028441323 -0.017900987 0.00874937
000010 2d 14 a9 3c 72 21 f3 bc a5 35 5c 3c f5 33 c4 3c
       0.020639503 -0.029679034 0.013440524 0.023950556
000020 4e 81 ec 3c 7b 6d d3 bc b7 e9 05 3c 2b fc ea bc
       0.028870251 -0.02580904 0.008173398 -0.028684696
000030 0c eb 7d bc 5f 3c 84 bc c3 19 35 bc 17 d6 ae bc
       -0.015497934 -0.016142068 -0.011053505 -0.02134232
000040 b5 52 d8 bc 5f 62 a1 bc 33 2e a8 bc 28 7b 7e bc
       -0.026406625 -0.019700227 -0.020529842 -0.015532292
000050 43 ac 57 bc 1f 4e e8 3c 82 36 d1 3c 9c 27 e4 bc
       -0.013163629 0.028357564 0.025538687 -0.027850918
000060 9b 05 8f bc 5e 34 cc bc 9a 87 8c 39 45 cd 16 ba
       -0.017458728 -0.024927314 0.00026803912 -0.00057526334
000070 02 a1 8b 3a ec f0 d8 3c e8 e8 9f 35 d2 a1 46 3c
       0.0010652842 0.026482068 1.1914208e-06 0.012123542
000080 d9 49 03 3a 2c d7 06 3c 7d 30 54 bc 09 98 99 3b
       0.00050082576 0.008230012 -0.012951014 0.0046873135
000090 aa 00 af 3c 64 f6 8a 3c 45 e2 96 3c 24 1d 92 3c
       0.021362621 0.016963191 0.01841844 0.017836161
0000a0 21 b4 a7 bb 2b be 75 bc 08 88 b0 3c 61 01 b5 bc
       -0.0051179086 -0.014998953 0.02154924 -0.022095384
0000b0 60 dd 15 bc 1c 47 0c 3c 2a 62 9a bc 75 65 65 3a
       -0.009147018 0.008561876 -0.018845636 0.0008750775
0000c0 d6 62 b0 3c 0e 14 17 3c 7b fa ea bb ac 80 d5 bb
       0.021531504 0.00922109 -0.007170973 -0.006515583
0000d0 2d c8 1c bc 9a 70 9b 3c 4d f9 37 bc d9 40 ee bb
       -0.00956921 0.018974591 -0.0112288715 -0.007270914
0000e0 5f bd bb bc 69 0a 87 bc 99 f0 ee bb 38 0c ec bc
       -0.022917448 -0.016484456 -0.007291865 -0.02881442
0000f0 0d 3f 99 3c 18 47 a3 3c 55 52 b8 bc 78 02 1b 3c
       0.018706823 0.019931361 -0.022500196 0.009461038
000100 07 b5 17 3c 32 e8 d0 3b 90 d8 ee 3c 80 f3 d5 bc
       0.009259469 0.006375336 0.029156 -0.026117086
000110 61 78 bd bc d9 7a b6 bc c9 02 a5 bc fc 71 ed 3c
       -0.02312869 -0.022275375 -0.02014293 0.028985016
000120 2b 71 b6 3c 66 17 d6 bb 4a 66 a8 bc c5 7c e4 3c
       0.02227076 -0.006533551 -0.020556588 0.027891526
000130 78 8d 6f 3c 2f b0 76 3c 2f ae 55 3c 27 29 a7 3c
       0.014621131 0.015056654 0.013042017 0.020405365
000140 bc fd f1 3c d4 b0 46 bc 89 f1 ac 3c 63 5d e9 3a
       0.029539935 -0.01212712 0.021111267 0.0017804321
000150 53 b8 0b 3a cb 99 c0 3b 96 2e 06 3c c9 48 07 3b
       0.00053298956 0.0058777086 0.008189818 0.0020642749
000160 39 89 e5 bc 88 70 f3 3c 8b 15 bb 3c ca 03 82 3c
       -0.028019534 0.029716745 0.02283742 0.015870947
000170 05 fa e9 3c 4d 83 4a 3c cb b7 2e 3c 8b 50 39 bc
       0.028561601 0.012360406 0.010663937 -0.011310707
000180 db dd 27 3c af ec d9 bc de 24 dc 3c f8 f1 2c bc
       0.010245766 -0.026602117 0.026873048 -0.010555737
000190 3d 62 b7 bc 57 47 79 bc 4f 78 e9 3c 00 4b 41 3c
       -0.02238571 -0.015214763 0.02849975 0.011797667
0001a0 4e b6 2b 3c a8 cb e3 bb 27 11 e0 3c 3c 48 92 bc
       0.010480477 -0.006951768 0.027351929 -0.01785671
0001b0 90 24 98 bc 58 44 f3 3b 52 70 0f 3d c4 d9 c6 bc
       -0.018572122 0.0074239187 0.035019226 -0.02427376
0001c0 85 a3 1b 3c 40 f7 bf bc a7 cb 38 3c 63 2e e5 bc
       0.009499435 -0.023433328 0.011279023 -0.02797622
0001d0 76 0c 12 bd ec 3b 69 3c f9 1a 06 bd 80 ba d8 bb
       -0.035656415 0.014235478 -0.032740567 -0.0066140294
0001e0 ce af 93 3c 49 a5 50 bc eb a9 e5 bc 75 77 19 3c
       0.018028166 -0.01273472 -0.028035125 0.00936686
0001f0 69 c3 c2 bb b1 55 4e 3c b8 94 fc 3c c4 fa 63 bc
       -0.005943705 0.012593673 0.030832633 -0.013914768
000200 9f eb 0f bb 33 4b 59 bb 2e 34 b2 3b 42 56 91 3b
       -0.002196051 -0.0033156394 0.005438349 0.0044353316
000210 db 96 f0 bb eb fb 9e 3c 4b cd 72 3c 63 0f 25 39
       -0.007342202 0.019407233 0.0148194535 0.00015741358
000220 61 fe 2f 3b 29 82 6d 3b 5e 10 66 3c c8 cb 05 bd
       0.0026854503 0.0036240912 0.014041988 -0.032665044
000230 66 6c cf 3b 49 3c bd bc be ff a0 3a 06 4b 7d b9
       0.006330061 -0.023100035 0.0012283248 -0.00024155909
000240 2c 8c 28 3a c7 0e 8a ba 4a 89 08 ba 3b 8c 08 3a
       0.00064295786 -0.0010532968 -0.0005208446 0.0005208884
000250 ae 6e 66 ba 57 55 63 3b 3a 78 21 3c cf 06 9d bc
       -0.0008790296 0.0034688318 0.009855324 -0.019168286
000260 37 58 1b 3c db 1c 73 bc b7 68 40 3c 37 c6 5c 3c
       0.009481481 -0.014838423 0.011743716 0.0134749925
000270 4c e9 a8 3c 7c fc 93 3c 32 f2 df 3c bd ee 86 3c
       0.020619057 0.01806473 0.027337167 0.016471261
000280 aa fb ab bc 1b 30 8e 3a 51 8b 17 3a f2 8c 51 ba
       -0.020994026 0.0010848077 0.00057809526 -0.000799372
000290 82 15 88 b9 9c af 0f 3a ab 28 42 ba ba be 3b 3c
       -0.00025955966 0.0005481185 -0.00074065727 0.011459047
0002a0 ee ab 5a 3c 58 42 82 bb 15 a7 4d bc 96 d0 c7 bc
       0.013346655 -0.003975194 -0.0125520425 -0.024391454
0002b0 5d ce e1 3c a9 c5 07 3d a9 4a 12 3c f3 04 2a 3b
       0.027564222 0.033147488 0.008928933 0.0025942891
0002c0 11 64 d5 bc 27 18 67 bc 9b f3 48 bc 24 f0 d0 3c
       -0.026048692 -0.014104879 -0.012265111 0.025505133
0002d0 7b ea dd 3c ec 20 2d bc a4 fd ac 3c 33 4b d1 bb
       0.027089348 -0.010566931 0.021117039 -0.0063871383
0002e0 1d d1 b1 3b 93 7a be 3b 08 2a e9 bb 83 60 b8 bb
       0.0054265396 0.005812952 -0.007115606 -0.0056267395
0002f0 97 3c d0 bc 6c 2d 9c bc a3 4e ab 3c c3 1d b9 3c
       -0.025419516 -0.019064628 0.02091152 0.0225972
000300 f6 e8 d8 3c 0e 9b 96 3c f0 ab b8 3c 67 c1 0f bc
       0.026478272 0.018384483 0.022542924 -0.008774138
000310 8e a7 92 bc e0 fd 9f bc c7 0f 03 bd c5 bc bc bc
       -0.017902162 -0.019530237 -0.03199747 -0.023039231
000320 da 77 c6 3c 3b 85 96 3c 95 eb 1f bd d8 c0 9e 3c
       0.024227072 0.018374076 -0.039043028 0.019379064
000330 e0 3a 0a bc b1 40 ac 3c dd 9a 35 3d 6f 90 20 3c
       -0.008436888 0.021026941 0.044337142 0.009800061
000340 35 43 ba 3c 3f cf b7 3c 46 8f b0 bc cf 48 59 3a
       0.022737125 0.02243769 -0.021552693 0.00082887424
000350 60 19 ab 39 aa 31 04 3a d3 8d 1a bc de cc fc 3c
       0.00032634567 0.0005042801 -0.009433228 0.030859407
000360 8b 83 f6 bb 30 86 d4 3c 2c 4e d7 bc 4f 25 ce 3b
       -0.0075230054 0.025942892 -0.026282392 0.0062910686
000370 d7 aa 7a 3c 70 9a dd 3c 16 9f 8c bc 80 90 a2 bc
       0.01529952 0.02705118 -0.017165702 -0.019844294
000380 af 07 fd 3c b8 fa a1 3c 00 82 c7 bc c6 e9 fb bb
       0.030887453 0.019772872 -0.024353981 -0.00768778
000390 f5 60 a1 bc 37 41 de bc e2 58 b6 bc ea 18 82 bc
       -0.019699553 -0.027130706 -0.02225918 -0.01588102
0003a0 64 fa b8 3c 1e 89 e2 3b be e7 06 3c f0 e8 a6 3c
       0.022580333 0.0069133183 0.008233963 0.020374745
0003b0 a9 62 15 3c 71 49 a7 3c eb 09 b5 bc 12 21 04 bc
       0.009117761 0.020420762 -0.022099456 -0.008064525
0003c0 15 9a 44 39 70 94 da 3a af e8 ab bc 40 c6 e6 bc
       0.00018749417 0.0016676318 -0.020984976 -0.028170705
0003d0 a2 d4 bb bc 2d 7f 0a 3c f5 20 b9 bc 92 0c cd bc
       -0.02292854 0.008453173 -0.022598723 -0.025030408
0003e0 09 68 73 bc 08 c0 92 bc be 59 90 3c 78 99 97 3c
       -0.014856347 -0.017913833 0.017620917 0.018505797
0003f0 5d 7a cc 3c 56 f4 b6 3c b8 a7 06 3d 2b a5 68 bc
       0.024960691 0.022333305 0.032874793 -0.014199535

Block1.4.weight f4 [196]
000000 5e 25 80 3f 21 de 7d 3f f4 da 7a 3f 93 fa 7f 3f
       1.0011404 0.99167067 0.97990346 0.9999172
000010 27 67 84 3f 45 2b 80 3f 9e 09 83 3f 9c 69 80 3f
       1.034398 1.0013205 1.023731 1.003223
000020 90 b7 7c 3f 6b 5a 7f 3f 2a 33 80 3f d4 a8 81 3f
       0.98717594 0.9974734 1.0015614 1.0129647
000030 d6 f1 7f 3f bf d0 7a 3f 54 30 82 3f 65 81 80 3f
       0.9997839 0.9797477 1.0170999 1.0039488
000040 2a 92 7c 3f 0a 6c 80 3f 51 11 81 3f b5 9f 80 3f
       0.9866053 1.0032971 1.008341 1.0048739
000050 3b 13 80 3f 7d ea 7d 3f f3 b0 79 3f 02 be 7e 3f
       1.0005869 0.99185926 0.9753563 0.9950868
000060 e3 b4 7e 3f cb 8a 7e 3f 36 b1 7c 3f 77 85 80 3f
       0.9949476 0.9943053 0.987079 1.004073
000070 06 0b 7e 3f f5 72 80 3f 1b 73 83 3f 1b d2 7d 3f
       0.9923557 1.0035082 1.0269502 0.9914872
000080 69 aa 7a 3f 57 73 7d 3f 08 1b 80 3f 99 00 7e 3f
       0.97916275 0.9900412 1.0008249 0.9921966
000090 2a 3c 80 3f 25 67 7c 3f 79 f5 7d 3f 2c 88 81 3f
       1.0018361 0.98594886 0.99202687 1.0119681
0000a0 33 ab 7e 3f 29 3b 7e 3f 32 1d 7e 3f 64 95 7f 3f
       0.9947998 0.9930902 0.992633 0.99837327
0000b0 3d 85 82 3f 3d cb 81 3f 97 e7 80 3f f2 6d 80 3f
       1.0196911 1.0140148 1.0070676 1.0033553
0000c0 a5 17 7c 3f 8a 91 7c 3f 02 e1 7f 3f f1 c8 81 3f
       0.9847358 0.98659575 0.9995271 1.0139447
0000d0 9f c7 7f 3f 64 61 83 3f 49 5b 82 3f 7a 89 80 3f
       0.9991397 1.0264096 1.0184108 1.0041955
0000e0 ef a9 80 3f 25 fa 7c 3f 10 33 7f 3f 36 bb 7e 3f
       1.005186 0.9881919 0.9968729 0.9950441
0000f0 8c 9e 7d 3f 41 9d 7d 3f e4 ec 80 3f 35 ca 7d 3f
       0.9907005 0.99068075 1.0072293 0.9913667
000100 d0 1c 7f 3f 53 1d 7f 3f 04 82 83 3f b0 3b 7f 3f
       0.9965334 0.9965412 1.0274053 0.9970045
000110 4c 5f 7e 3f de fb 7e 3f 81 fe 82 3f dd 35 80 3f
       0.9936416 0.9960307 1.0233918 1.0016438
000120 eb 7c 82 3f 94 09 81 3f ee db 80 3f 35 72 7e 3f
       1.0194372 1.0081048 1.0067117 0.99393016
000130 16 83 81 3f 5a c8 7c 3f 87 55 82 3f aa ea 7e 3f
       1.0118129 0.9874321 1.0182351 0.9957682
000140 e6 55 7c 3f dc 53 7e 3f c1 1e 81 3f 99 d2 7c 3f
       0.9856857 0.9934671 1.008751 0.98758847
000150 60 38 80 3f d6 c9 81 3f 7c a7 7d 3f e4 3b 80 3f
       1.0017204 1.013972 0.99083686 1.0018277
000160 e5 4a 7e 3f 71 5a 88 3f 37 51 7d 3f a9 70 7d 3f
       0.9933303 1.06526 0.9895205 0.9900003
000170 0b ce 80 3f e4 a2 81 3f 93 8d 7f 3f e2 44 7e 3f
       1.0062879 1.0127835 0.998254 0.99323857
000180 f4 d3 7d 3f 85 98 7e 3f ae 35 7f 3f 13 28 84 3f
       0.9915154 0.99451476 0.99691284 1.032473
000190 12 f8 7e 3f 30 13 7f 3f 03 41 81 3f 81 f3 7c 3f
       0.99597275 0.9963865 1.0097965 0.9880906
0001a0 26 c1 7c 3f db 99 7e 3f 31 ce 81 3f f1 6c 80 3f
       0.9873222 0.99453515 1.014105 1.0033246
0001b0 d9 3e 80 3f 6c 26 7b 3f 61 eb 7b 3f 1a d3 7d 3f
       1.001918 0.981055 0.98406035 0.9915024
0001c0 e6 47 82 3f aa b9 7f 3f aa f3 7f 3f ea f8 7e 3f
       1.0178192 0.99892676 0.99981177 0.9959856
0001d0 5c 65 82 3f ae 93 80 3f 96 e7 7b 3f ac db 80 3f
       1.0187182 1.0045068 0.9840025 1.0067039
0001e0 72 f7 7d 3f 03 6a 7d 3f cc ae 81 3f df ca 81 3f
       0.99205697 0.98989886 1.0131469 1.0140036
0001f0 63 13 82 3f 7b 46 7c 3f 60 63 80 3f c3 c6 7e 3f
       1.0162166 0.98545045 1.0030327 0.99522036
000200 c0 fe 81 3f 6e 47 81 3f 79 81 7f 3f ee 5e 7f 3f
       1.0155869 1.0099924 0.99806935 0.99754226
000210 4b 25 83 3f 56 cc 80 3f fd ae 7b 3f f3 d8 83 3f
       1.0245756 1.0062358 0.98313886 1.0300583
000220 4e a9 7e 3f a9 a5 7a 3f 5a 1d 7e 3f c5 18 81 3f
       0.9947709 0.9790903 0.99263537 1.0085684
000230 98 01 80 3f e1 82 80 3f 5e b6 7c 3f b8 dd 81 3f
       1.0000486 1.0039941 0.9871577 1.0145788
000240 ad f4 7e 3f 5c 28 7f 3f f5 ab 7c 3f f0 4c 83 3f
       0.99592096 0.9967096 0.98699886 1.0257854
000250 87 44 81 3f 28 82 7a 3f 48 a3 80 3f d6 15 83 3f
       1.0099038 0.9785485 1.004983 1.0241039
000260 20 07 7f 3f b4 38 80 3f cd c1 7f 3f 39 d3 80 3f
       0.99620247 1.0017304 0.9990509 1.006446
000270 e5 d9 7f 3f 98 a4 7c 3f 87 39 82 3f 7c 2c 7d 3f
       0.99941856 0.9868865 1.0173806 0.98896
000280 66 be 81 3f 1f 9a 80 3f c5 0b 7f 3f 3a da 7a 3f
       1.013623 1.0047034 0.99627334 0.9798924
000290 f1 7a 7d 3f b1 7a 7b 3f 7f 07 7d 3f 16 84 80 3f
       0.9901572 0.9823409 0.98839563 1.004031
0002a0 f5 f6 80 3f 2f 89 7e 3f 28 fd 7e 3f 39 3c 81 3f
       1.0075365 0.99428076 0.99605036 1.0096503
0002b0 09 b2 79 3f 53 7c 82 3f 41 e9 7f 3f 78 91 7e 3f
       0.97537285 1.0194191 0.9996529 0.9944072
0002c0 47 09 81 3f 94 e4 80 3f 5e 66 80 3f 74 25 80 3f
       1.0080956 1.0069757 1.003124 1.001143
0002d0 46 6b 83 3f 9b 57 82 3f 46 d4 80 3f 90 77 81 3f
       1.0267112 1.0182985 1.0064781 1.0114613
0002e0 60 9e 82 3f 5a df 80 3f a0 4f 7e 3f 5c 10 81 3f
       1.0204582 1.0068161 0.9934025 1.0083117
0002f0 27 9f 7e 3f 93 67 7c 3f e1 c0 80 3f 1c 86 7c 3f
       0.994616 0.9859554 1.0058862 0.98642135
000300 2e 2d 83 3f 3e c1 7d 3f f4 07 81 3f d3 1d 81 3f
       1.0248163 0.9912299 1.0080552 1.0087227

Block1.4.bias f4 [196]
000000 4b 62 a5 3c d6 ec 92 bb 5f 58 df bc 57 06 1b 3c
       0.020188471 -0.0044837995 -0.027263818 0.009461961
000010 00 f8 e6 3d ab 42 be bc 60 12 27 3d 63 f8 0f 3c
       0.11277771 -0.02322515 0.04078901 0.008787247
000020 d7 98 ed bc 77 cf 15 bc 5e 31 00 3c 2a 77 e3 3a
       -0.029003544 -0.009143702 0.00782427 0.0017354239
000030 b9 d6 b3 ba 10 69 3c 3c aa 3a 8b 3b 00 65 9f 3c
       -0.0013720609 0.011499658 0.0042489367 0.01945734
000040 2e 42 26 3c 28 7a 05 3d 5e 30 ee bc 74 cf c3 bb
       0.010147614 0.0325872 -0.029075798 -0.005975658
000050 96 0f b2 bb 86 37 82 bb c3 75 a0 bc 85 28 b8 bb
       -0.005433987 -0.003973904 -0.019587403 -0.0056200647
000060 6a fc d1 3b 15 ef e8 bb ab 11 2c 3c 7f f4 4d 3d
       0.006408264 -0.007108579 0.010502259 0.050281998
000070 46 e0 8a bb 4a ed dc 3c 92 ab c5 3c 0c 57 16 bd
       -0.0042381613 0.026968617 0.024129663 -0.036704108
000080 ae aa 62 3c 55 3a 64 3b 46 42 88 bc d9 ba 0b bd
       0.0138346385 0.0034824808 -0.016633164 -0.03411374
000090 fc 28 36 3c 70 08 30 bb 67 f0 ae bc c5 a5 87 bc
       0.01111817 -0.0026860498 -0.021354867 -0.016558537
0000a0 1e 10 21 bc f3 f6 0f 3d 50 12 22 bd b7 f1 0f bc
       -0.009830503 0.03514762 -0.039568245 -0.008785657
0000b0 9c b6 97 3c e5 1a a4 3c 8b b3 f4 3a 54 d0 15 3c
       0.018519692 0.020032356 0.0018669231 0.009143908
0000c0 c8 47 a8 bb ae 02 24 bc e4 57 96 3b 6d 83 b9 3c
       -0.00513551 -0.0100104045 0.004588114 0.022645677
0000d0 20 46 3f 3a 53 39 42 bd 4a 11 c7 3c 7f 2b 27 3c
       0.0007296521 -0.04741795 0.024300236 0.010203241
0000e0 0b 6b 83 3c 6b e6 9e 3b 88 11 95 bb 1e 12 13 bb
       0.016042253 0.0048492453 -0.004549209 -0.0022441219
0000f0 90 f8 c3 bc b7 eb 04 bc 61 d9 59 ba e9 55 1d bc
       -0.023922235 -0.008112839 -0.0008310285 -0.009603002
000100 90 90 80 ba cd b7 5c 3c c8 ad d7 bc 8c 81 f5 3b
       -0.0009808708 0.013471556 -0.026327983 0.00749225
000110 40 0e e1 3b be c1 ca 3c b3 8d 36 3d 11 35 32 3c
       0.006868154 0.024750587 0.04456873 0.01087691
000120 a7 f8 24 3d 01 54 8d bc fa e8 cd 3c 06 5a ce 3b
       0.040276196 -0.01725197 0.025135506 0.0062973527
000130 55 15 93 3c b6 05 12 3d d9 8a 88 3b f6 29 2a 3c
       0.017954508 0.035649978 0.0041669426 0.010385981
000140 74 e8 16 bd 43 55 04 3d 4f 95 97 3c cd 4b 83 bb
       -0.03684278 0.032307874 0.018503813 -0.004006839
000150 04 d5 c7 3a 69 e5 17 3d 66 43 49 bc 21 fd 46 3c
       0.0015245979 0.037084017 -0.012284135 0.012145312
000160 12 e2 91 bd 16 64 ab 3d e2 9b f4 3b 35 e7 f1 3c
       -0.071231976 0.08368699 0.0074648717 0.029529193
000170 b6 54 23 bb d1 1c fc 3c 37 99 7a 3c d3 be d2 3c
       -0.0024922318 0.03077546 0.015295318 0.025725758
000180 87 a1 a9 bb 9e 58 0d bc bc 2f a7 ba c0 e5 2b 3c
       -0.0051767263 -0.008627085 -0.0012755315 0.010491788
000190 9e e2 3d bb 0d 2b 34 bd f2 4a c5 bb 6b ba de bb
       -0.0028974186 -0.04398637 -0.006020897 -0.006797125
0001a0 3a 87 a6 bc d9 04 6c bb 7c 45 03 3c 9f 91 6f 3c
       -0.020328153 -0.0036013632 0.008012172 0.014622121
0001b0 ba 41 75 3c 1d 32 81 bb f4 f0 4b bb b0 cc 87 3c
       0.014969284 -0.0039427415 -0.003111896 0.016577095
0001c0 a8 cd 78 3d d8 e0 4d bb e3 05 5c bc 4e a0 1f bb
       0.060743004 -0.0031414535 -0.013429138 -0.0024357024
0001d0 f4 26 57 bc 85 34 bc bb d9 e6 8e 3a 67 7e b4 bb
       -0.013131846 -0.0057435655 0.0010902538 -0.0055082324
0001e0 ba fa 67 bc cf a8 38 3c 4e f3 9e 3c 21 c0 ce 3c
       -0.014158899 0.011270716 0.019403126 0.025238099
0001f0 b7 5f 87 3d f3 03 6c 3c 90 5e 43 3b 53 03 f0 3a
       0.06610053 0.014405238 0.0029811002 0.0018311538
000200 2c c1 28 3d 25 ba 96 bb b6 1b 4f 3d e1 13 e8 3c
       0.041199848 -0.004599827 0.050563537 0.028329792
000210 d6 67 5d 3c 88 e8 a2 3c cb 85 a0 bc 47 4f 7f 3d
       0.013513526 0.01988627 -0.019595047 0.062331464
000220 ec 54 dc bb 06 8d 5a 3c 7e ba 51 3c 64 cc fa 39
       -0.0067239907 0.013339287 0.012800811 0.00047836
000230 ad e7 8c bb 91 0b 0b 3c 4e 71 0d 3c 97 9e c9 bb
       -0.004300079 0.008486644 0.008632971 -0.0061529386
000240 a4 47 e4 3c 99 4b 13 3a b8 7d 39 bc 18 e9 31 bb
       0.027866192 0.000561887 -0.011321478 -0.0027146991
000250 5e 93 73 bc aa e3 7f bc 4e 51 cf bc 05 bd 72 3c
       -0.014866678 -0.015618244 -0.025307324 0.014815574
000260 ba 0a 13 bc 4c 4a e3 bb dc a9 f1 bb 68 93 85 3c
       -0.008974725 -0.006936347 -0.007374985 0.01630564
000270 f2 7f db 3b 73 68 1b 3a e3 d2 f1 3c b1 1b 8d bc
       0.006698602 0.0005928345 0.029519504 -0.017225118
000280 bc 78 7b 3d b6 65 1b 3d 7a 50 5a 3b 52 44 86 3c
       0.06139444 0.037938796 0.0033312128 0.01639
000290 27 9c d2 3c b1 28 65 bc 86 9c 3c 3a 68 d2 dc 3c
       0.025709225 -0.013986752 0.00071949547 0.026955798
0002a0 17 24 cf 3c de 92 ab bc a6 f4 a1 bc fb 1e 77 bd
       0.025285764 -0.020944055 -0.019769978 -0.06033228
0002b0 58 da 1e 3c bf ed 4f bc e5 bd 71 bb cd 72 8e 3c
       0.009695612 -0.01269096 -0.0036886868 0.017388726
0002c0 63 0b f3 3c f3 c0 26 3c ae e3 ab 3c 22 47 08 bb
       0.029668516 0.010177839 0.02098259 -0.0020794352
0002d0 e4 55 e8 3b 6c 97 01 3d f7 28 2f 3c 81 ed 18 3d
       0.007090317 0.031638548 0.010690919 0.037335876
0002e0 1a 6d 70 3d ea 5e 30 3d 5c 7b ec b9 81 98 07 3c
       0.058697797 0.043059267 -0.00045105338 0.008276106
0002f0 16 db cb bc 3e c0 84 3c 97 df 28 3d 74 d8 0e bd
       -0.024884742 0.01620495 0.041228857 -0.034874395
000300 ba 37 e1 3c 59 f7 89 3b d5 26 86 3b 54 67 96 3c
       0.027492393 0.0042103943 0.0040939846 0.018359818

Block1.4.running_mean f4 [196]
000000 46 66 85 bb 7e e2 80 bc a1 30 c3 bc 6d 23 bd 3c
       -0.00407103 -0.015733 -0.023826899 0.023088181
000010 26 f5 82 bc 48 94 46 bc 9e 1f 6b 3c 24 6e 1e 3d
       -0.015986037 -0.012120314 0.0143508 0.038679257
000020 55 84 8c 3c ed 48 bb bb fc 2a 73 bc 43 c0 ee bb
       0.017152945 -0.0057154805 -0.014841791 -0.007286103
000030 0f 9e 02 80 d8 bd c8 3c bb 6f f2 3b 4f 19 29 3b
       -2.40372e-40 0.024504587 0.007398573 0.0025802439
000040 cf 1f f6 bb f2 80 c0 3c 5c 0c 40 bb 35 6e 4f 3c
       -0.007511116 0.023498986 -0.0029304242 0.012660553
000050 ba 41 2c 3c 10 c8 73 bc f9 c2 8e 3c 0c 10 77 3c
       0.010513717 -0.014879242 0.017426955 0.0150795095
000060 f2 e2 cc bb df 9c 9e 3c ab 01 3a 3c 2f a8 20 3c
       -0.00625264 0.019361911 0.011352937 0.009805723
000070 60 e4 ee 3c 79 36 1b bb 4b d0 22 bc 0a 7e a9 bb
       0.029161632 -0.0023683591 -0.009937356 -0.0051724957
000080 80 ac e4 3a 11 5e e8 3c 16 ba 26 3c df a3 87 3c
       0.0017446429 0.028365167 0.010176202 0.016557632
000090 d6 44 e7 ba 41 fd 0a 3d 8b df 91 3c 78 fb cc 3c
       -0.0017644416 0.033932928 0.017806789 0.025022253
0000a0 a5 5d 94 bb 4b 8e 12 3c 42 68 cd 3b 9a 2b 8b bc
       -0.004527765 0.008945058 0.006268532 -0.016988564
0000b0 f1 b8 3f 3b 5f 1a 01 3d 93 5a 25 3c 49 a6 04 3c
       0.002925452 0.03151929 0.010092395 0.008096286
0000c0 d5 06 ae bb 54 4f cc ba e4 0a 8b 3c d2 a6 0d 3c
       -0.005310873 -0.0015587606 0.016972966 0.00864573
0000d0 5a d7 af 3c 3e bb 38 bc bf 16 40 bb 5d be 04 bd
       0.021464992 -0.011275111 -0.0029310433 -0.032408107
0000e0 f2 9c 50 bc 34 b7 31 3c 0a 45 11 3c 78 1d a4 b7
       -0.012732731 0.010846902 0.008866558 -1.9564046e-05
0000f0 00 e7 cc bb 64 97 56 bb dc 7b e6 bc bd b0 b6 3c
       -0.0062531233 -0.0032744044 -0.028135233 0.022301072
000100 05 87 95 bb 46 f5 c1 bb 73 33 8b 3c 78 e7 4b bb
       -0.0045632147 -0.0059191315 0.016992306 -0.0031113308
000110 7e 99 b5 bb d0 27 44 bc 9b 75 76 bc a1 b4 3e 3c
       -0.0055419793 -0.011972383 -0.015042688 0.011639745
000120 61 16 66 bc 59 2d 1b bc 7c 40 aa 3c 5a a2 12 bd
       -0.0140434215 -0.009471261 0.020782702 -0.03579936
000130 a9 c8 2d 3c 83 fc 0d bd 97 2a 8e 3b 78 66 4e bc
       0.010606923 -0.034664642 0.004338573 -0.012597673
000140 c9 75 39 3c b0 68 41 bc c1 c7 40 3c a5 9e 5e bc
       0.011319586 -0.011804745 0.011766375 -0.0135876285
000150 4d 17 d0 bc 34 bc 08 3c 76 13 75 3c 9f ab 37 bb
       -0.025401736 0.008345652 0.014958253 -0.0028025878
000160 c8 f9 0b 3c 0f 61 b7 bc 68 ac bb bb 55 94 a2 bc
       0.008543439 -0.022385148 -0.0057273395 -0.01984612
000170 c1 69 ed 3b 63 b7 7e 3b 25 16 9f bc 76 80 f4 b8
       0.007245273 0.0038866631 -0.019419739 -0.000116587544
000180 d0 d2 0c bc 0d 82 5f 3c 3d 6b 40 bc d2 cc c5 ba
       -0.0085951835 0.013641846 -0.011744318 -0.0015090948
000190 cd 9d 8a bc 0c 56 b5 3c 77 b3 31 bd fe 6b d8 ba
       -0.016920948 0.022135757 -0.04338404 -0.0016511676
0001a0 b6 b8 ea bb 28 37 5f bb ff 7f 10 3c 3c c0 11 bd
       -0.0071631325 -0.0034059975 0.008819579 -0.03558372
0001b0 41 6e 37 bb a1 a1 2e b9 02 67 7e bc 06 40 2d 3c
       -0.00279893 -0.00016654145 -0.015527489 0.010574346
0001c0 b9 c2 d6 b9 97 5a fe 3c 61 ae 26 3c 10 1f 28 3b
       -0.0004096234 0.031049056 0.010173411 0.002565328
0001d0 5b 41 be bc bc ca 9c bc 30 c1 9f 3c 82 37 82 bb
       -0.023224523 -0.01913964 0.019501299 -0.003973902
0001e0 21 ca 82 3a ca 1e 5e bc c9 7b 2a bc a5 b0 4d 3c
       0.0009978452 -0.013557145 -0.010405489 0.012554322
0001f0 9a 91 e4 3c 4c da 1b 3b 99 28 b8 3b e7 40 0e bc
       0.02790146 0.0023781238 0.005620074 -0.008682466
000200 6d d8 26 bd 1e d8 9b 37 15 0f d6 3a c9 90 6f 3b
       -0.040733743 1.8578077e-05 0.0016331399 0.0036554805
000210 bc 8c 01 3c 42 f1 b9 bb ba 9f b5 3c 6c f1 f7 bb
       0.007907089 -0.005674512 0.02217089 -0.0075666215
000220 1f 1d c6 bb 17 ea 02 bc 80 34 0a bc e4 0e 05 3c
       -0.006045952 -0.007990382 -0.008435369 0.008121226
000230 35 48 95 bc c3 02 69 bc 6c 80 a6 bc a7 3d 5a 3c
       -0.018222908 -0.01422185 -0.020324908 0.013320363
000240 f9 22 0a 3d a0 06 64 3a 48 b7 00 bd 9b f0 1e 3c
       0.03372476 0.0008698497 -0.03142479 0.0097009195
000250 cd 83 91 bb a9 5a a7 bb 3c 06 6b 3c 7d f4 68 3b
       -0.0044407607 -0.005107243 0.014344748 0.0035546117
000260 a1 78 03 3b 56 df db bb c8 43 4c 3b b3 9d fd bb
       0.0020060914 -0.0067099733 0.003116833 -0.0077397465
000270 b3 54 f3 bc bd 8f 85 bc a7 05 8f bc 91 37 52 3c
       -0.029703474 -0.016303891 -0.01745875 0.012830631
000280 5f 4a ad bc 08 74 25 3c 67 19 e5 3c ea 65 e7 3c
       -0.021153627 0.010098465 0.027966214 0.028246839
000290 ed 02 11 3c 1c dd aa 3c 91 75 95 bb 89 c3 fb ba
       0.008850795 0.020857386 -0.004561134 -0.0019208054
0002a0 2f a3 37 3a f5 b1 87 3c 68 b5 3e bc a1 02 63 bc
       0.0007005212 0.016564349 -0.01163993 -0.013855607
0002b0 53 e9 fd 3b 95 b4 36 bb af d9 06 bc ef 39 42 bc
       0.0077487617 -0.0027878631 -0.008230611 -0.011854633
0002c0 af 4b b2 bc a9 f6 0d 3c a5 70 d9 bb b3 ef e6 3a
       -0.021764604 0.008664765 -0.0066357427 0.0017619043
0002d0 b5 67 60 bc 88 7f 79 bc 09 c7 1a bb d5 70 89 bc
       -0.013696601 -0.01522816 -0.002361717 -0.016777435
0002e0 64 92 ba 3b a0 59 73 3c 5c 0a 9e bc a1 bd 7b 3c
       0.0056937207 0.014852911 -0.01929205 0.015365035
0002f0 a6 4e b3 ba 02 cd 5f 3b 17 8c 18 3a 0d 7c 91 3b
       -0.0013680055 0.0034149294 0.0005819215 0.004439837
000300 d0 bd 8c 3c 49 7b 8d 3c a1 7f 01 3c cf a3 49 3c
       0.017180353 0.017270701 0.007903964 0.012307121
