checkpoint/student_1/casia/client/student_8.pt (torch, 253477 bytes, 50 tensors)

torch.sparse_coo f4 [17]
000000 68 34 16 be e2 bb c3 3d cc 11 05 ba 6e 14 1f 3d
       -0.14668429 0.0955732 -0.00050761993 0.038837843
000010 af 07 9d 3c 1e bc cf 3a 54 9b 8f bd 03 46 83 bc
       0.019168703 0.001584891 -0.07012048 -0.016024595
000020 82 1d ec 3c cd 79 51 be 81 b3 c4 bd 7d 28 33 3d
       0.028822664 -0.2045662 -0.0960455 0.043739785
000030 6b 94 11 3e 3c c9 18 be 64 69 2a bd 36 9b 25 b9
       0.14216773 -0.14920515 -0.041604415 -0.00015793447
000040 f1 c2 f7 3d
       0.12097729

conv1.1.weight f4 [64]
000000 37 3c 7f 3f 86 2d 80 3f 00 00 80 3f 00 00 80 3f
       0.99701256 1.0013893 1.0 1.0
000010 00 00 80 3f 4e e2 7d 3f d4 f0 7f 3f 00 00 80 3f
       1.0 0.9917344 0.9997685 1.0
000020 00 00 80 3f 00 00 80 3f 3f 05 80 3f 00 00 80 3f
       1.0 1.0 1.0001601 1.0
000030 00 00 80 3f 00 00 80 3f 00 00 80 3f 00 00 80 3f
       1.0 1.0 1.0 1.0
000040 00 00 80 3f 00 00 80 3f 00 00 80 3f 00 00 80 3f
       1.0 1.0 1.0 1.0
000050 00 00 80 3f 00 00 80 3f 00 00 80 3f 00 00 80 3f
       1.0 1.0 1.0 1.0
000060 00 00 80 3f 00 00 80 3f 00 00 80 3f 00 00 80 3f
       1.0 1.0 1.0 1.0
000070 00 00 80 3f 00 00 80 3f 00 00 80 3f 00 00 80 3f
       1.0 1.0 1.0 1.0
000080 00 00 80 3f 00 00 80 3f 00 00 80 3f 00 00 80 3f
       1.0 1.0 1.0 1.0
000090 00 00 80 3f 90 18 82 3f de 4b 80 3f 00 00 80 3f
       1.0 1.0163746 1.0023153 1.0
0000a0 a3 9f 7d 3f 12 4b 80 3f 00 00 80 3f 00 00 80 3f
       0.9907171 1.002291 1.0 1.0
0000b0 00 00 80 3f 00 00 80 3f 00 00 80 3f 00 00 80 3f
       1.0 1.0 1.0 1.0
0000c0 00 00 80 3f 46 bf 7f 3f b3 68 7e 3f bd 82 7d 3f
       1.0 0.99901235 0.9937851 0.99027616
0000d0 00 00 80 3f 00 00 80 3f 00 00 80 3f 00 00 80 3f
       1.0 1.0 1.0 1.0
0000e0 00 00 80 3f 00 00 80 3f 00 00 80 3f ea 36 7f 3f
       1.0 1.0 1.0 0.9969317
0000f0 00 00 80 3f 00 00 80 3f 00 00 80 3f 00 00 80 3f
       1.0 1.0 1.0 1.0

conv1.1.bias f4 [64]
000000 f8 fe ad bc dd 9c 27 3d 00 00 00 00 00 00 00 00
       -0.021239743 0.04092108 0.0 0.0
000010 00 00 00 00 27 c9 55 3b 96 b6 ee 3c 00 00 00 00
       0.0 0.0032621117 0.029139798 0.0
000020 00 00 00 00 00 00 00 00 e7 0f 9c bb 00 00 00 00
       0.0 0.0 -0.004762638 0.0
000030 00 00 00 00 00 00 00 00 00 00 00 00 00 00 00 00
       0.0 0.0 0.0 0.0
000040 00 00 00 00 00 00 00 00 00 00 00 00 00 00 00 00
       0.0 0.0 0.0 0.0
000050 00 00 00 00 00 00 00 00 00 00 00 00 00 00 00 00
       0.0 0.0 0.0 0.0
000060 00 00 00 00 00 00 00 00 00 00 00 00 00 00 00 00
       0.0 0.0 0.0 0.0
000070 00 00 00 00 00 00 00 00 00 00 00 00 00 00 00 00
       0.0 0.0 0.0 0.0
000080 00 00 00 00 00 00 00 00 00 00 00 00 00 00 00 00
       0.0 0.0 0.0 0.0
000090 00 00 00 00 29 3d 08 3d 63 13 36 3c 00 00 00 00
       0.0 0.033261452 0.011113021 0.0
0000a0 44 22 7b 3d f6 bf de 3c 00 00 00 00 00 00 00 00
       0.061311975 0.027191143 0.0 0.0
0000b0 00 00 00 00 00 00 00 00 00 00 00 00 00 00 00 00
       0.0 0.0 0.0 0.0
0000c0 00 00 00 00 22 2b 6a bc 98 fe fc 3c 11 8f ce 3c
       0.0 -0.01429251 0.030883119 0.025214704
0000d0 00 00 00 00 00 00 00 00 00 00 00 00 00 00 00 00
       0.0 0.0 0.0 0.0
0000e0 00 00 00 00 00 00 00 00 00 00 00 00 9c d7 01 3d
       0.0 0.0 0.0 0.03169976
0000f0 00 00 00 00 00 00 00 00 00 00 00 00 00 00 00 00
       0.0 0.0 0.0 0.0

conv1.1.running_mean f4 [64]
000000 b0 80 ba 39 04 00 00 80 00 00 00 00 00 00 00 00
       0.00035572564 -6e-45 0.0 0.0
000010 00 00 00 00 04 98 02 bc da b5 e4 bb 00 00 00 00
       0.0 -0.007970814 -0.006979686 0.0
000020 00 00 00 00 00 00 00 00 04 00 00 80 00 00 00 00
       0.0 0.0 -6e-45 0.0
000030 00 00 00 00 00 00 00 00 00 00 00 00 00 00 00 00
       0.0 0.0 0.0 0.0
000040 00 00 00 00 00 00 00 00 00 00 00 00 00 00 00 00
       0.0 0.0 0.0 0.0
000050 00 00 00 00 00 00 00 00 00 00 00 00 00 00 00 00
       0.0 0.0 0.0 0.0
000060 00 00 00 00 00 00 00 00 00 00 00 00 00 00 00 00
       0.0 0.0 0.0 0.0
000070 00 00 00 00 00 00 00 00 00 00 00 00 00 00 00 00
       0.0 0.0 0.0 0.0
000080 00 00 00 00 00 00 00 00 00 00 00 00 00 00 00 00
       0.0 0.0 0.0 0.0
000090 00 00 00 00 6f 78 bc 3c 8d 98 2f 3c 00 00 00 00
       0.0 0.023006646 0.010717523 0.0
0000a0 ce 1f e9 3a 04 00 00 00 00 00 00 00 00 00 00 00
       0.0017785968 6e-45 0.0 0.0
0000b0 00 00 00 00 00 00 00 00 00 00 00 00 00 00 00 00
       0.0 0.0 0.0 0.0
0000c0 00 00 00 00 9b 28 7e bc 91 28 c9 3c f1 76 e3 3b
       0.0 -0.015512611 0.024555476 0.006941669
0000d0 00 00 00 00 00 00 00 00 00 00 00 00 00 00 00 00
       0.0 0.0 0.0 0.0
0000e0 00 00 00 00 00 00 00 00 00 00 00 00 49 8d 5e bc
       0.0 0.0 0.0 -0.01358349
0000f0 00 00 00 00 00 00 00 00 00 00 00 00 00 00 00 00
       0.0 0.0 0.0 0.0

conv1.1.running_var f4 [64]
000000 0a 41 5b 3a 04 00 00 00 04 00 00 00 04 00 00 00
       0.00083638786 6e-45 6e-45 6e-45
000010 04 00 00 00 ec be 52 3a 4d c2 3d 3a 04 00 00 00
       6e-45 0.0008039314 0.0007238731 6e-45
000020 04 00 00 00 04 00 00 00 04 00 00 00 04 00 00 00
       6e-45 6e-45 6e-45 6e-45
000030 04 00 00 00 04 00 00 00 04 00 00 00 04 00 00 00
       6e-45 6e-45 6e-45 6e-45
000040 04 00 00 00 04 00 00 00 04 00 00 00 04 00 00 00
       6e-45 6e-45 6e-45 6e-45
000050 04 00 00 00 04 00 00 00 04 00 00 00 04 00 00 00
       6e-45 6e-45 6e-45 6e-45
000060 04 00 00 00 04 00 00 00 04 00 00 00 04 00 00 00
       6e-45 6e-45 6e-45 6e-45
000070 04 00 00 00 04 00 00 00 04 00 00 00 04 00 00 00
       6e-45 6e-45 6e-45 6e-45
000080 04 00 00 00 04 00 00 00 04 00 00 00 04 00 00 00
       6e-45 6e-45 6e-45 6e-45
000090 04 00 00 00 06 35 20 3c 8d 62 0a 3b 04 00 00 00
       6e-45 0.009778267 0.002111587 6e-45
0000a0 a9 59 ce 39 04 00 00 00 04 00 00 00 04 00 00 00
       0.00039358184 6e-45 6e-45 6e-45
0000b0 04 00 00 00 04 00 00 00 04 00 00 00 04 00 00 00
       6e-45 6e-45 6e-45 6e-45
0000c0 04 00 00 00 ef 85 99 3b 69 3d ad 3b cf 1e d5 39
       6e-45 0.0046851556 0.0052868617 0.0004064948
0000d0 04 00 00 00 04 00 00 00 04 00 00 00 04 00 00 00
       6e-45 6e-45 6e-45 6e-45
0000e0 04 00 00 00 04 00 00 00 04 00 00 00 19 62 5f 3b
       6e-45 6e-45 6e-45 0.003408557
0000f0 04 00 00 00 04 00 00 00 04 00 00 00 04 00 00 00
       6e-45 6e-45 6e-45 6e-45

Block1.0.weight f4 [737]
000000 d6 12 57 bc 78 dd 1e 3d 68 6c 99 3c 9b 9c a9 bc
       -0.013127049 0.038785428 0.01872845 -0.020704558
000010 4a 51 1f bd 2c 11 1b bd 0e 9b e5 bc 8b c6 ed bc
       -0.038895883 -0.037858173 -0.028028037 -0.029025337
000020 58 a2 06 bd 57 62 27 bd 37 01 05 bd d6 84 65 3c
       -0.032869667 -0.04086527 -0.03247186 0.014008721
000030 9b 1a bb 3c 98 ec 0f bd 2f 05 84 bb de 98 05 3c
       0.022839835 -0.035137743 -0.0040289382 0.008154122
000040 80 a4 86 bc be 00 09 3d e6 f8 0e 3d e6 83 a3 3c
       -0.016435862 0.033447973 0.034905337 0.019960355
000050 d8 15 a8 bc c6 bd 38 bc e8 5b 23 bd c6 57 2a 3c
       -0.020518228 -0.011275714 -0.03988257 0.010396903
000060 8e a5 8d 3c b0 16 96 bc 2e de 82 3c 2f 2b 22 3d
       0.017290857 -0.018321365 0.015975084 0.039591964
000070 a0 a7 21 bc be 8c d7 3c ce ae 9d 3c 1a 7e 22 3d
       -0.009866625 0.026312228 0.019248392 0.03967104
000080 62 36 04 bd 06 d3 a9 3c c6 3b 9d bc 26 69 be bc
       -0.032278426 0.020730507 -0.019193541 -0.023243498
000090 c3 84 b2 bc e0 14 11 3c c6 31 2a bc 13 bd 03 bd
       -0.021791821 0.008855075 -0.0103878435 -0.032162737
0000a0 30 7c b9 3c 2a 1a 1b bd 7f fe 3b bb 69 fe c1 3c
       0.022642225 -0.03786675 -0.0028685627 0.023680883
0000b0 d6 4b fd 3c 87 01 d9 bb f3 38 fc ba 2b 7d 1a bd
       0.03091995 -0.0066224965 -0.0019243046 -0.037717026
0000c0 53 0c d0 3c 49 6f 4b 3b 0d 26 04 3c 97 77 95 3a
       0.025396502 0.0031041673 0.008065713 0.0011403438
0000d0 ec 4d b2 b9 66 73 bc 3c 5b 94 cc 3c 16 c8 29 bd
       -0.00034008862 0.023004245 0.024973085 -0.041450582
0000e0 d6 5c 2f 3c 0b 55 16 bd 58 28 a9 3c 83 88 89 3c
       0.010703286 -0.036702197 0.02064912 0.016788727
0000f0 95 cd 56 3a 0b a9 a7 bc 5c ce 19 bd 26 e9 d5 3c
       0.0008194086 -0.020466348 -0.037550315 0.02611215
000100 43 15 94 bc f6 47 6b bc 72 f9 ec bb 81 09 6e ba
       -0.018076545 -0.014360419 -0.0072318846 -0.00090803957
000110 16 25 a3 39 f8 39 16 3c 40 6d c2 bc 4b e2 bc 3c
       0.00031117414 0.009169094 -0.023733735 0.023057124
000120 10 e1 cc 3c bd 97 0f b7 d0 bc 32 3a dd c4 2e 36
       0.025009662 -8.5587935e-06 0.00068182964 2.604261e-06
000130 1d 86 2a b9 ed 8d b8 3c 60 32 ba bb e0 1d e1 3c
       -0.00016262424 0.022528613 -0.0056822747 0.027480066
000140 8b 9b 68 ba d0 7b 42 3b 5e 5d f4 3c 2d 59 66 3b
       -0.00088732754 0.0029675849 0.029829677 0.0035148368
000150 d0 8d f6 3c de 5c af bc a0 69 32 3c b0 e5 25 3c
       0.030096918 -0.021406587 0.010889441 0.010125563
000160 4e 44 91 bc f0 d3 a8 bc b5 03 2f bc ed c3 b7 bc
       -0.017732766 -0.020608872 -0.010682036 -0.022432292
000170 87 58 02 3d 98 5f bb bc 26 1b 1d 3c 5e 39 c5 bc
       0.031822708 -0.022872731 0.009588992 -0.024075206
000180 46 0b 24 3d db 8a 0c bc 8d 25 4f bc 96 e6 e1 bc
       0.040049814 -0.008578028 -0.01264323 -0.027575772
000190 5a bc 26 3d 1f f3 ff 3b 8b a9 e5 3c 33 14 a7 bc
       0.04070697 0.0078109647 0.028034946 -0.020395374
0001a0 37 79 03 3c a2 16 09 bd 2b ea 32 bc b3 c5 e4 bc
       0.008024505 -0.03346885 -0.010920088 -0.027926302
0001b0 f4 78 0a 3d 8b 95 83 3c 47 28 29 3d 5e 88 b4 b9
       0.033806756 0.016062519 0.041298177 -0.00034433877
0001c0 c0 93 20 b9 d7 ae 66 38 78 94 98 3c d6 25 11 3d
       -0.0001531383 5.4999105e-05 0.018625483 0.035436474
0001d0 9e f6 a2 3c b4 0b 9f bc 07 d0 10 3d db d5 eb 3c
       0.019892987 -0.01941476 0.03535464 0.028788498
0001e0 3c 0f e2 bb b4 77 11 3d 05 73 07 3c 5a 7b 2a 3d
       -0.0068987887 0.03551455 0.008267169 0.041621543
0001f0 36 c5 03 3c 56 36 c4 bc 40 c1 91 3c 5f a4 42 3c
       0.008042624 -0.02395169 0.017792344 0.011880009
000200 73 05 29 bd ab e9 18 bc c8 d0 d9 bc de c8 11 3d
       -0.041264962 -0.009333055 -0.026588812 0.035591953
000210 11 49 dc bc 36 95 10 3d f0 8f b3 bc 50 f7 49 3c
       -0.02689031 0.03529855 -0.02191922 0.01232703
000220 50 8d 41 3c fe 04 8d bc 30 97 06 3c 7a 18 f7 3b
       0.011813477 -0.017214295 0.008214757 0.0075407596
000230 9b 1d 02 bd c3 33 ca 3c 1b 91 3f bc a2 c8 d6 bc
       -0.031766515 0.024682885 -0.011692311 -0.026218716
000240 94 e0 24 bd cf d5 96 bb 9a fc 9e bb 62 be 8a 3c
       -0.040253237 -0.0046031247 -0.00485189 0.016936485
000250 6e fe c2 bc 10 fe 2f 3c 38 3d db bc 5f fb 24 3d
       -0.023802962 0.010741726 -0.02676259 0.04027879
000260 fa 13 f0 3c 51 44 3a 3b 5b fe ee 39 e0 a7 c4 3c
       0.0293064 0.0028422067 0.00045584407 0.02400583
000270 4e 62 be bc e6 5a 10 bd 73 5c 8d bc 76 3a cd bc
       -0.023240235 -0.035242938 -0.017255997 -0.02505229
000280 4e 0a 8b 3c 67 fb 02 3b bb bb 09 3c 94 4b 26 bd
       0.016972687 0.0019986273 0.008406575 -0.04059942
000290 b0 bb cf bc 36 a5 06 3d fb 1a 22 3c a3 c8 94 bc
       -0.025358051 0.0328724 0.009894128 -0.018162077
0002a0 2a f0 0d 3d a3 65 7c bb db a3 df bc 28 76 9b bc
       0.034652866 -0.0038512729 -0.027299812 -0.01897724
0002b0 f9 19 e4 bc e2 81 10 3d 1f d5 53 bb 2c a7 13 3d
       -0.027844416 0.035280116 -0.0032323075 0.0360481
0002c0 10 82 4b bb 8e 00 86 bb 70 0d f2 3c f5 b1 d0 3c
       -0.0031052865 -0.0040894216 0.029547423 0.025475482
0002d0 f1 9e fb 3b 14 2d ba 3b b3 f3 84 3c bb 21 06 3c
       0.0076788594 0.0056816433 0.016229486 0.008186753
0002e0 a8 03 08 3d b4 6d 49 bb aa d1 11 3d 20 ca f3 b9
       0.033206612 -0.0030735554 0.03560034 -0.00046499167
0002f0 00 e6 20 bb 0c a0 51 3c d3 25 8f bc ce 0f ff bc
       -0.0024551153 0.012794506 -0.01747409 -0.031135466
000300 a7 d5 e5 bc c6 5f e2 3c 86 d8 d7 bc c3 28 c8 3b
       -0.028055979 0.027633559 -0.026348364 0.006108375
000310 4b 29 ca 3c d0 de 3a 3c 53 b3 1c bd 03 f6 12 3d
       0.024677893 0.011405662 -0.038256954 0.035879146
000320 4e c9 d7 bc 03 0b f8 3c 20 58 0a bd db ba 08 3c
       -0.026341107 0.030278688 -0.03377545 0.008345331
000330 a0 35 0b 3d b3 a0 b1 3c 0e e1 0f bd d0 91 89 bc
       0.033986688 0.021683073 -0.03512674 -0.016793162
000340 33 bd 21 bd 94 db ab 3c 5e 3a 0a 3d d3 e3 f6 3c
       -0.039487075 0.020978726 0.03374707 0.030137932
000350 d0 ee 49 3c d0 68 74 3c 13 5b c2 3c 58 db bc 3c
       0.012325004 0.014917567 0.023725068 0.02305381
000360 0a b9 74 bb b4 d0 07 3d 1c 7f 31 bd fe 8e f2 bc
       -0.0037341737 0.03315802 -0.04333411 -0.0296092
000370 03 9a 9f 3c 4e f8 bd bc c0 bc 3f bc a3 0f 25 3d
       0.019482618 -0.02318969 -0.011702716 0.040298115
000380 f0 aa 0c bd 48 67 86 3c 42 e5 28 3d 5b 23 40 bc
       -0.034342706 0.01640667 0.041234262 -0.011727179
000390 1e c5 9e bc 90 a3 d2 bc 4e 0a 2a 3d 16 41 e3 bc
       -0.019381102 -0.025712758 0.041513734 -0.027740996
0003a0 12 00 1f 3d 0c f1 16 bd 38 71 c0 3c 72 78 0a bd
       0.038818426 -0.036850974 0.023491487 -0.03380627
0003b0 20 d0 79 3c e7 fe 20 3d 59 43 81 bc 4b 68 f2 bc
       0.015247375 0.039305594 -0.015779184 -0.029590746
0003c0 c5 af e6 bb 13 80 4b bd fc 6a 2c ba 6b bf 25 bc
       -0.0070399963 -0.049682688 -0.0006577221 -0.010116438
0003d0 78 37 24 3d d0 ad 3d bc 62 d0 1e bc 9e 60 cf 3c
       0.04009196 -0.011577085 -0.009693237 0.025314625
0003e0 2b a4 da bc 5a 3a 20 bd 98 04 12 bd f0 22 de 3c
       -0.02668961 -0.03911815 -0.035648912 0.027116269
0003f0 01 74 c6 bc db c8 15 bc ee c1 06 3d 55 35 8f bc
       -0.024225237 -0.009142126 0.03289979 -0.017481485

Block1.1.weight f4 [128]
000000 00 00 80 3f 00 00 80 3f d2 b5 80 3f 00 00 80 3f
       1.0 1.0 1.0055487 1.0
000010 00 00 80 3f 00 00 80 3f 00 00 80 3f 00 00 80 3f
       1.0 1.0 1.0 1.0
000020 6d 69 80 3f 00 00 80 3f a7 01 80 3f 00 00 80 3f
       1.0032173 1.0 1.0000504 1.0
000030 bb 48 81 3f a9 3a 80 3f 6f 18 80 3f ae 76 80 3f
       1.010032 1.0017902 1.0007457 1.0036218
000040 35 93 81 3f 95 85 80 3f 0a 0d 7f 3f af 9e 7e 3f
       1.0123049 1.0040766 0.9962927 0.9946088
000050 b0 b7 82 3f 00 00 80 3f 00 00 80 3f 20 8b 7c 3f
       1.0212307 1.0 1.0 0.9864979
000060 72 03 80 3f 00 00 80 3f 00 00 80 3f ba 0a 7d 3f
       1.0001051 1.0 1.0 0.9884449
000070 15 c8 7f 3f bd de 7d 3f 1f 11 7f 3f 9c 43 7c 3f
       0.99914676 0.99167997 0.996355 0.98540664
000080 25 64 80 3f b4 a5 80 3f 00 00 80 3f b1 b8 7d 3f
       1.0030562 1.0050569 1.0 0.9910994
000090 00 00 80 3f 00 00 80 3f 27 13 80 3f be 0d 7c 3f
       1.0 1.0 1.0005845 0.9845847
0000a0 00 00 80 3f 60 77 80 3f 4b 08 80 3f c2 f1 7e 3f
       1.0 1.003643 1.0002531 0.99587643
0000b0 fa 0e 80 3f f6 cc 7f 3f 00 00 80 3f 67 3c 80 3f
       1.000457 0.9992212 1.0 1.0018433
0000c0 00 00 80 3f 2c 88 7f 3f 03 31 80 3f 7d 76 81 3f
       1.0 0.99817157 1.0014957 1.0114285
0000d0 a4 45 80 3f c9 b8 7f 3f 00 00 80 3f ca c8 7e 3f
       1.0021253 0.99891335 1.0 0.9952513
0000e0 2c cf 80 3f 7d c0 7f 3f 2f 89 7f 3f fd 83 81 3f
       1.0063224 0.9990309 0.998187 1.0118405
0000f0 4c fa 7e 3f fb 1f 7f 3f 38 87 7c 3f 00 00 80 3f
       0.9960067 0.99658173 0.9864383 1.0
000100 00 00 80 3f 00 00 80 3f 0d c0 81 3f f6 3c 7f 3f
       1.0 1.0 1.0136734 0.99702394
000110 22 cd 7e 3f 39 a4 7d 3f 00 00 80 3f 00 00 80 3f
       0.9953176 0.9907871 1.0 1.0
000120 c8 c0 7d 3f 79 9d 7f 3f 56 f5 7f 3f f4 b5 7f 3f
       0.99122286 0.9984966 0.9998373 0.99887013
000130 b5 38 81 3f 4a d1 81 3f 70 1d 80 3f f5 89 80 3f
       1.0095431 1.0141995 1.0008984 1.0042101
000140 00 00 80 3f 00 00 80 3f fc 53 80 3f 00 00 80 3f
       1.0 1.0 1.002563 1.0
000150 14 4a 7e 3f 00 00 80 3f 76 d5 7f 3f 00 00 80 3f
       0.99331784 1.0 0.9993509 1.0
000160 ce 87 80 3f e7 23 80 3f 9b 28 7f 3f 49 e7 80 3f
       1.0041444 1.0010957 0.99671334 1.0070583
000170 c7 cf 82 3f 02 3d 7d 3f 34 11 7e 3f c5 42 80 3f
       1.0219659 0.98921216 0.99245 1.0020376
000180 00 00 80 3f a7 01 7f 3f 00 00 80 3f 00 00 80 3f
       1.0 0.99611896 1.0 1.0
000190 6e a9 80 3f 00 00 80 3f 4b cc 7e 3f de b7 80 3f
       1.0051706 1.0 0.99530476 1.0056112
0001a0 20 9a 7f 3f 00 00 80 3f 42 88 7e 3f 33 8e 7e 3f
       0.9984455 1.0 0.9942666 0.9943573
0001b0 5b 5f 7f 3f a8 1b 80 3f 00 00 80 3f d7 91 80 3f
       0.99754876 1.000844 1.0 1.0044507
0001c0 0e bf 7d 3f 66 d9 82 3f 1d e5 7e 3f be 39 80 3f
       0.9911965 1.0222595 0.9956835 1.0017622
0001d0 d1 67 7f 3f 00 00 80 3f 50 e1 7d 3f 5c 48 7c 3f
       0.99767786 1.0 0.99171925 0.9854791
0001e0 72 a0 80 3f 00 00 80 3f 61 2a 7f 3f 00 00 80 3f
       1.0048964 1.0 0.9967404 1.0
0001f0 00 00 80 3f 25 2a 80 3f 8d 6c 80 3f 7b cd 7d 3f
       1.0 1.0012861 1.0033127 0.99141663

Block1.1.bias f4 [128]
000000 00 00 00 00 00 00 00 00 28 89 8e ba 00 00 00 00
       0.0 0.0 -0.0010874616 0.0
000010 00 00 00 00 00 00 00 00 00 00 00 00 00 00 00 00
       0.0 0.0 0.0 0.0
000020 f3 58 69 3b 00 00 00 00 37 5e 12 3d 00 00 00 00
       0.0035605996 0.0 0.03573438 0.0
000030 2f ec f2 3c 67 f0 d0 3c 8a b7 10 3d 94 9b 93 3c
       0.029653637 0.025505258 0.035331286 0.018018521
000040 ba a3 68 3d 20 47 84 3d 3e ae 57 ba 17 51 8f 3c
       0.056796767 0.064588785 -0.0008227563 0.017494721
000050 2e 26 a3 ba 00 00 00 00 00 00 00 00 47 20 d2 3c
       -0.0012447292 0.0 0.0 0.025650157
000060 b6 7a cc 3c 00 00 00 00 00 00 00 00 3b 93 6e 3c
       0.024960857 0.0 0.0 0.01456147
000070 12 70 11 3c 5f 08 3e 3d d6 82 52 bb 59 78 d2 3c
       0.008876817 0.046394702 -0.0032121441 0.025692152
000080 01 3f a0 3c b3 4a 33 3a 00 00 00 00 f6 8e b5 bb
       0.019561293 0.0006839439 0.0 -0.005540724
000090 00 00 00 00 00 00 00 00 7d 82 ec bc 51 7b 4d bc
       0.0 0.0 -0.028870815 -0.012541608
0000a0 00 00 00 00 5a df 87 b8 55 45 c2 b9 cd c5 31 ba
       0.0 -6.478904e-05 -0.0003705422 -0.0006781489
0000b0 f0 86 3e bc 70 74 ac 3b 00 00 00 00 a9 67 12 bc
       -0.011628851 0.005262904 0.0 -0.008935847
0000c0 00 00 00 00 12 e7 f7 ba 11 79 97 b8 0a 91 d4 3b
       0.0 -0.0018913469 -7.2227915e-05 0.0064870166
0000d0 da ac 24 ba ea c6 cc bb 00 00 00 00 3c ef 9b bb
       -0.00062818604 -0.0062492983 0.0 -0.0047587436
0000e0 1f f6 77 3c 1e b1 fd 3c 89 f4 9d ba db 2d be bc
       0.015134363 0.030968245 -0.0012051027 -0.023215225
0000f0 de cd fa 3b 8e 57 90 bb 2c 3b e9 3a 00 00 00 00
       0.007653936 -0.0044049686 0.0017794124 0.0
000100 00 00 00 00 00 00 00 00 a7 99 c6 3c 3e 97 c0 3c
       0.0 0.0 0.024243189 0.023509618
000110 d1 30 b9 ba 50 1c e2 bc 00 00 00 00 00 00 00 00
       -0.0014128928 -0.027601391 0.0 0.0
000120 b4 f8 5b 3b 86 4d bc ba 8c fe a7 3c a4 68 1b 3d
       0.0033564987 -0.0014366366 0.02050712 0.03794159
000130 55 0b bb 3c f6 6b e3 3c f0 e8 09 bb f7 3c 7a 3d
       0.022832552 0.02776144 -0.0021043383 0.061093297
000140 00 00 00 00 00 00 00 00 73 29 18 bc 00 00 00 00
       0.0 0.0 -0.009287226 0.0
000150 99 5f b1 3c 00 00 00 00 26 f4 b7 3c 00 00 00 00
       0.02165203 0.0 0.022455286 0.0
000160 66 59 05 3d 68 4c 3b bc 5e 48 54 bc a7 88 d3 bb
       0.03255596 -0.011431791 -0.012956707 -0.006455499
000170 6a f3 39 3d 4a 1d b9 ba c3 4a 06 bd 12 6d 24 b9
       0.045398153 -0.0014123109 -0.032786142 -0.0001568089
000180 00 00 00 00 ca 4d ea 3b 00 00 00 00 00 00 00 00
       0.0 0.0071503865 0.0 0.0
000190 27 82 5c 3c 00 00 00 00 5f dc c9 3b 7b 38 61 3c
       0.013458765 0.0 0.0061603035 0.013746376
0001a0 a1 4f 7a b9 00 00 00 00 f4 b8 3d bc 96 66 6f 3c
       -0.00023871522 0.0 -0.011579741 0.014611861
0001b0 a5 0e bc bb 08 c5 58 b7 00 00 00 00 45 52 e7 bc
       -0.0057390505 -1.2920478e-05 0.0 -0.028237471
0001c0 a4 70 0d 3d a2 0e 97 3d bc ef f7 3c e9 56 d9 bb
       0.03453125 0.07375838 0.030265681 -0.006632675
0001d0 2d dd 7f 3c 00 00 00 00 2b 07 6a 3b 2a 8f 7d bc
       0.015616697 0.0 0.003570984 -0.0154760275
0001e0 ee ed e1 3c 00 00 00 00 df 79 dd bb 00 00 00 00
       0.027579274 0.0 -0.006758913 0.0
0001f0 00 00 00 00 70 48 10 bc 6d ca 56 3c 6d 78 15 bc
       0.0 -0.008806333 0.0131097855 -0.00912295

Block1.1.running_mean f4 [128]
000000 00 00 00 00 00 00 00 00 5b 49 23 3c 00 00 00 00
       0.0 0.0 0.00996622 0.0
000010 00 00 00 00 00 00 00 00 00 00 00 00 00 00 00 00
       0.0 0.0 0.0 0.0
000020 69 90 09 3c 00 00 00 00 84 d5 39 3c 00 00 00 00
       0.0083962465 0.0 0.01134241 0.0
000030 5b f9 f9 bb 07 a2 25 3c 33 f0 4c 3c bb 26 a2 bb
       -0.0076286024 0.010109431 0.01250844 -0.0049484647
000040 f9 7a 48 3b 87 ea 54 ba aa e5 a9 39 c3 5e 40 39
       0.0030590876 -0.00081221055 0.00032405305 0.00018345848
000050 b4 67 7d 3c 00 00 00 00 00 00 00 00 db 98 a6 3b
       0.015466619 0.0 0.0 0.0050841398
000060 0e 3e 04 82 00 00 00 00 00 00 00 00 c2 64 f8 bb
       -9.715637e-38 0.0 0.0 -0.0075803706
000070 7c 58 86 3b db a1 3e 3c 04 00 00 00 d0 69 29 3b
       0.0040999036 0.011635269 6e-45 0.0025850423
000080 bd b4 58 bc a0 ec e1 3c 00 00 00 00 4d d4 b9 3a
       -0.013226685 0.027578652 0.0 0.001417765
000090 00 00 00 00 00 00 00 00 03 f7 11 3c 3f 89 47 3c
       0.0 0.0 0.00890899 0.012178718
0000a0 00 00 00 00 25 db 02 00 04 00 00 00 43 e1 df b9
       0.0 2.62285e-40 6e-45 -0.00042701708
0000b0 6c da b8 bc ad 99 7b bc 00 00 00 00 0c 02 cd bc
       -0.02256509 -0.015356463 0.0 -0.02502539
0000c0 00 00 00 00 04 00 00 00 04 00 00 00 1f 85 ca bc
       0.0 6e-45 6e-45 -0.02472168
0000d0 6d 5f 89 bb 42 66 c5 39 00 00 00 00 4f 0d fe 39
       -0.004192284 0.00037650956 0.0 0.0004845657
0000e0 86 8f 06 bc 15 dd 8d bb 04 00 00 80 b4 26 fb 39
       -0.00821293 -0.0043293335 -6e-45 0.00047903287
0000f0 ac ff e6 9a c3 bf b5 bb 1d a3 9c 3b 00 00 00 00
       -9.553883e-23 -0.0055465414 0.004780187 0.0
000100 00 00 00 00 00 00 00 00 7e 4c ef 3a 4b 43 ab bc
       0.0 0.0 0.0018257049 -0.020906111
000110 04 00 00 00 1b d7 89 3c 00 00 00 00 00 00 00 00
       6e-45 0.016826203 0.0 0.0
000120 31 19 a3 3b 04 00 00 80 eb 11 4f ba 14 e9 86 ba
       0.0049773683 -6e-45 -0.00078990933 -0.0010292851
000130 3f 94 b3 bc 91 7d 22 bc 04 00 00 00 04 34 a2 3c
       -0.021921275 -0.009917633 6e-45 0.019800194
000140 00 00 00 00 00 00 00 00 3e f6 8b bb 00 00 00 00
       0.0 0.0 -0.0042712977 0.0
000150 d2 c7 9f bb 00 00 00 00 88 20 b8 bc 00 00 00 00
       -0.0048761154 0.0 -0.02247645 0.0
000160 2f 24 90 bb ff a9 36 bc 32 32 60 3c 2b 99 47 3c
       -0.0043988447 -0.011148929 0.0136838425 0.012182514
000170 35 a0 a2 bc 7b 18 b1 3c c3 9f 3b 3c 04 00 00 80
       -0.019851783 0.021618119 0.011451664 -6e-45
000180 00 00 00 00 95 6f b2 3b 00 00 00 00 00 00 00 00
       0.0 0.0054454305 0.0 0.0
000190 f2 6e aa bc 00 00 00 00 40 20 00 bc eb ad 4d bc
       -0.020804856 0.0 -0.007820189 -0.012553672
0001a0 04 00 00 80 00 00 00 00 04 00 00 80 cd 30 80 bb
       -6e-45 0.0 -6e-45 -0.0039120675
0001b0 04 00 00 00 1c 90 08 3c 00 00 00 00 f3 2c 27 3c
       6e-45 0.00833514 0.0 0.010203588
0001c0 f1 6a 74 3b 28 47 ac 3c 46 0d 01 3c 59 b3 7e 3a
       0.0037295187 0.021030024 0.0078767 0.0009716056
0001d0 3c 33 79 bc 00 00 00 00 78 1c 7c b7 23 73 c8 3b
       -0.015209969 0.0 -1.5026999e-05 0.006117241
0001e0 bf 55 94 3c 00 00 00 00 04 00 00 00 00 00 00 00
       0.018107293 0.0 6e-45 0.0
0001f0 00 00 00 00 54 af db 3b e9 11 96 bc ad 35 b9 3b
       0.0 0.0067042504 -0.018319087 0.0056521506

Block1.1.running_var f4 [128]
000000 04 00 00 00 04 00 00 00 b9 b3 bc 39 04 00 00 00
       6e-45 6e-45 0.00035992058 6e-45
000010 04 00 00 00 04 00 00 00 04 00 00 00 04 00 00 00
       6e-45 6e-45 6e-45 6e-45
000020 0e e7 84 39 04 00 00 00 6c 1a 76 39 04 00 00 00
       0.0002534915 6e-45 0.00023470231 6e-45
000030 3d 5b fd 38 1a b5 00 3a 1a 05 ff 39 93 e4 49 38
       0.000120809746 0.0004909799 0.0004864119 4.813501e-05
000040 36 04 03 39 9b 31 33 32 a0 49 63 30 e8 60 e7 37
       0.00012494702 1.043045e-08 8.2686746e-10 2.7582471e-05
000050 2e ed 22 39 04 00 00 00 04 00 00 00 d5 fe 4b 38
       0.0001553788 6e-45 6e-45 4.8636302e-05
000060 f9 1f 00 00 04 00 00 00 04 00 00 00 3a e5 1a 39
       1.147e-41 6e-45 6e-45 0.00014771978
000070 e7 e2 d5 38 c8 aa 43 39 04 00 00 00 04 bb 1b 38
       0.00010198895 0.0001866027 6e-45 3.712905e-05
000080 84 87 ae 39 ee 02 c5 3a 04 00 00 00 8a 39 1d 37
       0.00033288833 0.001503078 6e-45 9.371326e-06
000090 04 00 00 00 04 00 00 00 ec 76 cc 38 df 70 68 39
       6e-45 6e-45 9.749629e-05 0.00022167292
0000a0 04 00 00 00 22 00 00 00 04 00 00 00 3a 55 c5 30
       6e-45 4.8e-44 6e-45 1.4357859e-09
0000b0 ac a9 83 3a bf b1 ad 39 04 00 00 00 63 c3 68 39
       0.0010045073 0.00033129563 6e-45 0.00022198031
0000c0 04 00 00 00 04 00 00 00 04 00 00 00 4e ef 5c 3a
       6e-45 6e-45 6e-45 0.0008427993
0000d0 45 2e 95 34 09 6a 99 30 04 00 00 00 1c 1c 7f 31
       2.7787078e-07 1.1162352e-09 6e-45 3.7123362e-09
0000e0 07 68 0b 39 63 ef 78 38 04 00 00 00 94 c9 b4 38
       0.00013294826 5.9350754e-05 6e-45 8.620616e-05
0000f0 6c de cd 14 24 21 c0 39 af 16 6a 38 04 00 00 00
       2.078744e-26 0.00036645785 5.5811073e-05 6e-45
000100 04 00 00 00 04 00 00 00 1c bf 1d 38 2e ad 0a 3a
       6e-45 6e-45 3.76097e-05 0.0005290088
000110 04 00 00 00 9a 3a cb 39 04 00 00 00 04 00 00 00
       6e-45 0.0003876284 6e-45 6e-45
000120 19 2d 10 38 04 00 00 00 16 f8 28 1e 24 b0 c4 32
       3.4374276e-05 6e-45 8.945149e-21 2.2897503e-08
000130 f5 34 7c 3a 47 c1 68 39 04 00 00 00 6b 42 b5 39
       0.00096209283 0.00022197246 6e-45 0.00034572495
000140 04 00 00 00 04 00 00 00 5c 8e 45 38 04 00 00 00
       6e-45 6e-45 4.7101043e-05 6e-45
000150 4a 28 7f 38 04 00 00 00 3c a2 32 3a 04 00 00 00
       6.083426e-05 6e-45 0.0006814336 6e-45
000160 8b ef a1 38 87 0f 2a 39 37 77 c3 39 7b d9 44 39
       7.7216966e-05 0.00016218248 0.0003728212 0.00018773034
000170 94 df 81 3a 3e fc 57 3a 5a d4 53 39 04 00 00 00
       0.000990855 0.0008239186 0.00020201635 6e-45
000180 04 00 00 00 37 a1 21 3a 04 00 00 00 04 00 00 00
       6e-45 0.00061656855 6e-45 6e-45
000190 e1 e0 52 3a 04 00 00 00 54 24 10 39 b3 0c f9 39
       0.0008044374 6e-45 0.00013746443 0.00047502443
0001a0 04 00 00 00 04 00 00 00 04 00 00 00 fd 1a 0f 3a
       6e-45 6e-45 6e-45 0.00054590387
0001b0 04 00 00 00 c0 d9 a5 39 04 00 00 00 39 1a 06 39
       6e-45 0.0003163349 6e-45 0.00012789005
0001c0 41 6d 0c 38 b6 c1 d7 39 8a c6 f4 38 dd 34 80 32
       3.348035e-05 0.00041152322 0.000116718074 1.49252e-08
0001d0 77 29 a9 39 04 00 00 00 b9 3e 45 30 77 e8 68 39
       0.00032265086 6e-45 7.1757317e-10 0.00022211844
0001e0 32 86 f6 39 04 00 00 00 04 00 00 00 04 00 00 00
       0.0004702076 6e-45 6e-45 6e-45
0001f0 04 00 00 00 05 6c 8f 38 76 d7 d9 39 55 42 02 39
       6e-45 6.8388916e-05 0.00041549996 0.00012422477

Block1.3.weight f4 [2259]
000000 23 75 64 bc 26 c3 90 bc b8 8a d1 bc 53 bf 79 3c
       -0.013943943 -0.017671179 -0.025578842 0.015243369
000010 58 a1 ef bc a5 35 5c 3c 1e ab 25 3c 44 37 b5 3c
       -0.02925174 0.013440524 0.010111598 0.02212108
000020 98 e9 99 3c 7b 6d d3 bc b7 e9 05 3c 2b fc ea bc
       0.018788144 -0.02580904 0.008173398 -0.028684696
000030 54 63 a8 bb 62 71 20 bc ec 9b 6b 3b f0 57 f3 bc
       -0.005138794 -0.009792658 0.003595109 -0.029705018
000040 e6 ad 35 bc 17 d6 ae bc bf 04 98 3c 1f 1a bf bc
       -0.011088824 -0.02134232 0.01855695 -0.023327885
000050 11 39 5c bc 33 2e a8 bc 88 3b ee bb f2 be 0d bd
       -0.01344134 -0.020529842 -0.0072702803 -0.034605928
000060 4c 18 de 3c 82 36 d1 3c 54 db fb bb 9b 05 8f bc
       0.027111195 0.025538687 -0.007686058 -0.017458728
000070 5e 34 cc bc 09 6f 98 3c 32 cf 10 3c 05 5d 6a bc
       -0.024927314 0.018607633 0.008838462 -0.014304404
000080 aa 00 af 3c aa 1f 8a 3c b0 b8 ed 3b 60 0b 70 3c
       0.021362621 0.016860802 0.0072546825 0.0146511495
000090 7a f7 cc bc 60 dd 15 bc 44 ae 0a 3d 09 41 b7 3c
       -0.02502035 -0.009147018 0.0338576 0.022369878
0000a0 ac 80 d5 bb 2d c8 1c bc b8 0f 77 bb cd a6 0d bc
       -0.006515583 -0.00956921 -0.0037698578 -0.008645725
0000b0 f2 7d b8 bc df 01 aa bc 56 ca 59 bc 71 2e 55 3c
       -0.022520993 -0.020752845 -0.01329287 0.013011561
0000c0 99 f0 ee bb ae 45 26 bc 81 9c 34 3c 0d 3f 99 3c
       -0.007291865 -0.010148449 0.011023642 0.018706823
0000d0 a7 22 80 bc 2f 03 db 3c 1e 70 1c bc 55 52 b8 bc
       -0.015641524 0.026734916 -0.009548215 -0.022500196
0000e0 19 72 b5 3b 32 e8 d0 3b 90 d8 ee 3c 81 42 db bc
       0.005537283 0.006375336 0.029156 -0.02676511
0000f0 b0 a2 53 bc e7 17 84 bc d9 7a b6 bc e5 25 8b bc
       -0.012917206 -0.016124679 -0.022275375 -0.016985843
000100 fc 71 ed 3c 2b 71 b6 3c 98 c8 5d 3c aa 4e 49 3a
       0.028985016 0.02227076 0.013536595 0.00076792634
000110 c9 2d 0a 3a 9b 34 12 b9 80 e0 42 bc ea 66 6b bc
       0.0005271105 -0.00013943242 -0.011894345 -0.014367798
000120 8f 0d 17 ba d9 0c 8b ba a1 63 8d ba c0 ee 99 bc
       -0.0005762213 -0.0010608687 -0.0010787138 -0.018790603
000130 7f 0d 28 bc 4a 66 a8 bc 5d 63 00 3d c4 b8 9a b9
       -0.010257124 -0.020556588 0.03134476 -0.0002951083
000140 1d 6c fd 39 da 4f cc b9 fc 1c 68 3a f5 02 61 3a
       0.0004833647 -0.00038969406 0.00088544167 0.00085835095
000150 ab 63 d3 b9 fd 24 09 bc 4a 10 d2 3b c4 79 9b bb
       -0.00040319315 -0.008370635 0.006410633 -0.00474474
000160 27 29 a7 3c 0d 49 af 3c d4 b0 46 bc 2c eb a1 3c
       0.020405365 0.021397138 -0.01212712 0.019765459
000170 5c 26 61 bb 5e 6f c3 3b 6f 98 e0 3a 39 89 e5 bc
       -0.003435514 0.0059642037 0.0017135273 -0.028019534
000180 c6 f9 8f 3b 7c ec 93 3b 86 ad fc bb 39 a2 ac bb
       0.004393789 0.004514275 -0.0077111153 -0.005268362
000190 d8 2d 8a 3c 3c 9d d7 bb 67 52 f9 3c 8b 15 bb 3c
       0.016867563 -0.006580023 0.0304348 0.02283742
0001a0 49 7c 79 bc f8 07 98 3b 6b fe e1 3b 4d 28 20 3c
       -0.015227386 0.004639622 0.006896784 0.009775233
0001b0 d4 18 41 3c 69 78 ce 3c 4d 83 4a 3c f7 06 db bb
       0.011785705 0.0252039 0.012360406 -0.00668418
0001c0 2b 4c 6c bc db dd 27 3c f3 74 e7 bc 68 c6 d6 3c
       -0.014422457 0.010245766 -0.028254008 0.026217654
0001d0 f0 fd 39 bc c7 cb e9 bc 57 47 79 bc 7f 9c ae bc
       -0.011352047 -0.028539551 -0.015214763 -0.021314858
0001e0 73 e1 82 3c 0b 24 e5 3c 23 8d 5e 3c a8 cb e3 bb
       0.015976643 0.027971288 0.013583454 -0.006951768
0001f0 27 11 e0 3c c4 06 8d bc 87 5f c3 3b 73 a7 0f 3d
       0.027351929 -0.01721514 0.0059623155 0.0350718
000200 75 be b0 bc aa 27 82 3c df fc 6b 3c 40 f7 bf bc
       -0.021575192 0.015888054 0.014403551 -0.023433328
000210 a7 cb 38 3c 2f d8 46 3c b3 45 0d bd de 54 98 bc
       0.011279023 0.012136503 -0.0344903 -0.018595155
000220 64 06 80 bc ce af 93 3c 49 a5 50 bc eb a9 e5 bc
       -0.015628047 0.018028166 -0.01273472 -0.028035125
000230 4c 7e 22 bc 32 94 07 3d 53 d7 76 3a 7e d6 a2 3a
       -0.009917807 0.033100314 0.0009416241 0.0012423543
000240 4d 55 f9 3c 44 48 8f bc ad 64 06 3b 7d 69 06 3b
       0.030436182 -0.017490514 0.0020506785 0.0020509653
000250 3f de fb 3b 94 7d 95 bb db 96 f0 bb cc 37 b0 3c
       0.007686406 -0.004562089 -0.007342202 0.021510981
000260 4b cd 72 3c 15 5b 93 3a 5e 10 66 3c 6d 6d a5 bc
       0.0148194535 0.0011242355 0.014041988 -0.02019378
000270 49 3c bd bc 13 3e a2 bb 3a 78 21 3c f2 5f 8e bc
       -0.023100035 -0.0049512475 0.009855324 -0.017379735
000280 0b a7 e5 3b 5b 90 b6 bc 9b 8f 5b 3c f1 8b 86 3c
       0.0070084385 -0.02228563 0.013400937 0.016424151
000290 4c e9 a8 3c da 14 40 bc a2 91 56 3b bd 1a fa 3c
       0.020619057 -0.011723721 0.0032740613 0.030530328
0002a0 d1 9c a1 3c aa fb ab bc 94 90 30 ba 1e 59 57 ba
       0.019728096 -0.020994026 -0.0006735411 -0.00082148786
0002b0 27 ac a3 b9 aa 52 b2 ba 6d 70 d9 3a b8 b3 c0 3c
       -0.00031218046 -0.0013604958 0.0016589292 0.023523197
0002c0 be 2f cb b9 84 95 ca ba f2 a5 de b9 8c 33 c7 ba
       -0.00038754748 -0.0015455936 -0.00042466779 -0.0015197857
0002d0 1a 84 2b bc 26 91 e1 b9 a9 46 d5 3c ab 7d 04 bd
       -0.010468507 -0.00043023488 0.02603467 -0.03234641
0002e0 a9 4a 12 3c 54 97 28 3c 11 64 d5 bc 6f fa 8f bc
       0.008928933 0.010289986 -0.026048692 -0.01757547
0002f0 1d 38 17 bc 24 f0 d0 3c 70 21 bd bb 44 5c 7f 3b
       -0.009229687 0.025505133 -0.0057718083 0.0038964907
000300 09 e4 e5 3c ec 20 2d bc 5a 22 be bb 62 03 a4 3c
       0.028062837 -0.010566931 -0.005802435 0.020021144
000310 4a 79 20 bc 20 6e 7a bc 97 3c d0 bc e7 68 a7 bc
       -0.009794543 -0.015285045 -0.025419516 -0.020435764
000320 43 a5 ca 3c 11 f3 d9 3c a0 6b e0 3c 0e 9b 96 3c
       0.024737006 0.02660516 0.02739507 0.018384483
000330 f0 ab b8 3c 67 c1 0f bc 8e a7 92 bc 58 10 27 bc
       0.022542924 -0.008774138 -0.017902162 -0.010196768
000340 f5 17 03 bd c5 bc bc bc 06 75 ef 3c 3b 85 96 3c
       -0.03200527 -0.023039231 0.029230606 0.018374076
000350 e0 2a 5f 3c c4 5a 84 3b 4f 7d b8 ba e2 17 b0 3c
       0.013621062 0.0040391404 -0.0014075431 0.021495763
000360 bc 07 4b bc 55 28 12 3b 7f 5a b9 bc 5d 8e 0b 3d
       -0.012391981 0.0022301872 -0.02262616 0.034071315
000370 9b ef d6 3c ad 24 3f 3c 3f cf b7 3c 9d 43 bb bb
       0.0262373 0.011666459 0.02243769 -0.0057148472
000380 fb c2 0e bc 7d d5 10 3d 59 9f 59 bc 30 86 d4 3c
       -0.008713479 0.03535985 -0.01328262 0.025942892
000390 2c 4e d7 bc 8a 4c 97 3c 76 26 cf bb 9d c9 65 bb
       -0.026282392 0.018469114 -0.0063217236 -0.0035062798
0003a0 53 2e 3d bb 4d a5 83 3c 54 fa f4 bb 37 ab 2b bc
       -0.0028866723 0.016070032 -0.0074761305 -0.0104778325
0003b0 4d f4 92 bc ae 3d b5 bc ca 98 ce 3c 5b 77 2e bc
       -0.017938757 -0.022124138 0.02521934 -0.010648574
0003c0 39 60 aa 3c 00 82 c7 bc 78 ba be bc f5 60 a1 bc
       0.020797836 -0.024353981 -0.023282275 -0.019699553
0003d0 fa f5 df bc e2 58 b6 bc 53 18 6f 3c c0 1a a0 3c
       -0.02733897 -0.02225918 0.014593202 0.019544005
0003e0 22 14 0e 3c d6 92 26 3c 97 95 83 bc 64 fa b8 3c
       0.008671792 0.010166844 -0.016062541 0.022580333
0003f0 ec 24 dd 3b be e7 06 3c f0 e8 a6 3c e4 18 f7 3b
       0.006748786 0.008233963 0.020374745 0.007540809

Block1.4.weight f4 [196]
000000 2a 6a 7c 3f 90 63 7f 3f 0f 67 7b 3f 45 84 80 3f
       0.98599494 0.99761295 0.9820413 1.0040365
000010 ea d7 80 3f f2 58 7f 3f ea ce 83 3f 1f 3e 81 3f
       1.0065892 0.99745095 1.029752 1.0097083
000020 17 3c 7e 3f 0b 52 7c 3f fa f0 82 3f 43 81 7f 3f
       0.9931044 0.9856269 1.022979 0.9980661
000030 2a 6a 7e 3f 99 bd 7c 3f de 88 82 3f ea ff 7f 3f
       0.99380744 0.98726803 1.0198019 0.9999987
000040 e7 82 7c 3f ab 36 7e 3f bb 50 84 3f 8a c5 81 3f
       0.9863724 0.99302167 1.0337137 1.0138409
000050 92 31 7e 3f e5 bc 7e 3f 43 7a 7c 3f 9e 86 83 3f
       0.9929439 0.9950698 0.98624057 1.0275457
000060 0e 9f 7e 3f 5e 98 81 3f f3 36 7c 3f 0a bd 81 3f
       0.9946145 1.0124624 0.98521346 1.0135815
000070 0e 83 80 3f e4 3a 81 3f ac 0b 83 3f 2d 20 81 3f
       1.0039995 1.0096097 1.0237937 1.0087944
000080 4f 3b 7b 3f 84 27 7d 3f 7b 3e 7e 3f 64 42 81 3f
       0.9813737 0.9888842 0.9931409 1.0098386
000090 4a e0 80 3f e8 10 7d 3f db b0 7e 3f dc e8 82 3f
       1.0068448 0.9885392 0.9948861 1.0227313
0000a0 b0 7e 7e 3f 49 14 7c 3f e8 d9 7c 3f c5 f0 80 3f
       0.9941206 0.9846845 0.9877 1.0073477
0000b0 f4 ca 80 3f b4 21 80 3f f3 46 80 3f 15 f2 7e 3f
       1.0061936 1.0010285 1.0021652 0.9958814
0000c0 d2 7e 7c 3f 02 6a 7e 3f 27 de 82 3f 2b 05 82 3f
       0.9863101 0.99380505 1.0224046 1.0157827
0000d0 b1 47 80 3f c4 1a 7f 3f 22 54 82 3f e2 9e 81 3f
       1.0021878 0.99650216 1.0181925 1.0126612
0000e0 a9 dc 7f 3f 2e f5 7f 3f 4d 2c 7d 3f e2 71 7e 3f
       0.99946076 0.9998349 0.9889572 0.9939252
0000f0 f6 3d 80 3f 7b 17 80 3f 38 cc 80 3f 81 40 7d 3f
       1.0018909 1.0007166 1.0062323 0.9892655
000100 58 dc 7f 3f cc 74 80 3f d0 ce 80 3f cc ed 7d 3f
       0.9994559 1.0035644 1.0063114 0.99190974
000110 91 29 80 3f c8 c2 7e 3f 61 f9 80 3f 1a a5 7d 3f
       1.0012685 0.9951596 1.0076104 0.9908005
000120 13 d6 7f 3f c3 9e 82 3f bc 45 81 3f eb 18 80 3f
       0.99936026 1.02047 1.0099406 1.0007604
000130 da b5 80 3f ea ee 7e 3f 40 3e 7b 3f 61 29 7d 3f
       1.0055497 0.99583304 0.9814186 0.98891264
000140 9c d3 7b 3f 05 4f 7b 3f 74 2e 80 3f 3e b0 7c 3f
       0.98369765 0.9816745 1.0014176 0.98706424
000150 7c 4d 80 3f fa b5 81 3f 6a 8b 7d 3f cc 12 7c 3f
       1.0023646 1.013366 0.99040854 0.9846618
000160 36 eb 7a 3f b1 c7 84 3f fa c2 7e 3f e3 09 80 3f
       0.98015153 1.0373441 0.9951626 1.0003017
000170 4f d3 7e 3f 94 c2 82 3f 48 1e 82 3f a2 8c 7e 3f
       0.9954118 1.021563 1.0165491 0.9943334
000180 c4 38 7d 3f 29 56 7c 3f 8e c9 83 3f ae 98 85 3f
       0.9891474 0.9856897 1.0295885 1.0437219
000190 0a 99 80 3f 0a 12 7e 3f 60 3f 81 3f 69 81 7d 3f
       1.0046704 0.99246275 1.0097466 0.9902559
0001a0 92 3b 81 3f 55 34 7f 3f b3 35 81 3f 8c 52 7f 3f
       1.0096304 0.9968923 1.0094513 0.9973533
0001b0 bf e4 81 3f 81 7f 7b 3f 8e ff 7c 3f f0 be 7e 3f
       1.0147933 0.9824143 0.98827446 0.995101
0001c0 c9 d7 7e 3f af ed 7b 3f 3e 9a 83 3f 75 b2 7f 3f
       0.9954801 0.9840955 1.0281446 0.9988168
0001d0 30 c9 7f 3f e3 be 80 3f 96 ff 7c 3f a5 18 80 3f
       0.9991636 1.0058254 0.98827493 1.0007521
0001e0 ed ad 81 3f ce 4e 81 3f 3f 33 82 3f 14 e8 81 3f
       1.0131203 1.0102174 1.0171889 1.014895
0001f0 bc c2 83 3f 4f 68 7e 3f 17 e4 7d 3f 8d 4c 7f 3f
       1.0293803 0.9937791 0.9917616 0.9972618
000200 0f 5a 80 3f 69 32 7f 3f 8e 46 81 3f 83 6b 81 3f
       1.0027484 0.99686295 1.0099657 1.0110935
000210 55 55 85 3f 96 7b 81 3f 17 b1 7d 3f f7 31 82 3f
       1.0416666 1.011584 0.9909834 1.0171498
000220 97 80 7d 3f 8f 0d 81 3f 72 57 7d 3f 15 d2 7d 3f
       0.9902434 1.0082263 0.98961556 0.99148685
000230 e5 d5 81 3f 64 65 7f 3f 45 f3 7c 3f 6f 25 81 3f
       1.01434 0.99764085 0.988087 1.0089549
000240 cf 4f 80 3f 27 c2 7d 3f 01 74 7c 3f 29 e8 81 3f
       1.0024356 0.9912438 0.9861451 1.0148975
000250 38 45 7c 3f c7 74 7e 3f c2 a9 7e 3f 19 2b 81 3f
       0.9854312 0.9939694 0.9947778 1.0091277
000260 83 19 83 3f 28 02 80 3f 84 09 7b 3f 11 cb 80 3f
       1.024216 1.0000658 0.98061395 1.0061971
000270 f8 a9 7e 3f f2 cd 7e 3f 30 12 81 3f 44 3e 7a 3f
       0.994781 0.99533 1.0083675 0.9775126
000280 e5 48 80 3f 7d 64 7d 3f ac a5 7e 3f 97 2f 81 3f
       1.0022246 0.9898146 0.99471545 1.0092648
000290 94 d8 7c 3f 5e e4 7c 3f 3f 54 7d 3f 85 4f 7a 3f
       0.9876797 0.9878596 0.98956674 0.9777759
0002a0 4f 16 81 3f 2b 7e 7e 3f 01 91 7d 3f f8 7d 7e 3f
       1.0084933 0.9941127 0.99049383 0.99410963
0002b0 b1 96 7f 3f 66 b2 82 3f 92 bc 80 3f c9 31 7c 3f
       0.9983931 1.0210693 1.0057547 0.98513466
0002c0 b2 b5 81 3f 21 9f 7e 3f 42 bc 81 3f 53 d0 7f 3f
       1.0133574 0.9946156 1.0135577 0.9992725
0002d0 75 5d 83 3f 72 1b 82 3f 9b b3 7e 3f d0 71 7d 3f
       1.0262896 1.0164626 0.99492806 0.9900179
0002e0 25 0b 83 3f 6b 4e 80 3f 31 de 7e 3f 66 8f 80 3f
       1.0237776 1.0023931 0.9955779 1.0043762
0002f0 74 e8 7c 3f 26 82 7d 3f 39 27 80 3f 8c c9 7d 3f
       0.98792195 0.99026716 1.001197 0.9913566
000300 90 59 83 3f 06 b2 7f 3f 61 a6 82 3f ad b7 80 3f
       1.0261707 0.9988102 1.0207025 1.0056053

Block1.4.bias f4 [196]
000000 f5 52 a8 3b 62 6d b0 3c a1 4b e3 bb 20 79 57 bb
       0.0051368424 0.021536533 -0.006936506 -0.0032878593
000010 21 da 61 3b 54 03 a6 3c 61 b1 31 3d af 4a ca 3c
       0.003446229 0.020265259 0.043382052 0.024693815
000020 32 2c e8 bb 10 2a 81 bc 29 fa ef 3c 40 ae 41 bc
       -0.0070853466 -0.015767127 0.02929409 -0.01182133
000030 60 f1 fb 3c da 50 35 3b 0f a3 6c 3c 2f 0a f5 bc
       0.030754745 0.00276666 0.014443173 -0.029912082
000040 ce 43 9d bb 66 fb c1 3b 13 31 db 3c b8 39 ce 3c
       -0.0047993427 0.0059198616 0.026756799 0.025174007
000050 0c 4d 17 3c 6a dd af 3a d5 d1 3a 3c 6b a2 83 3c
       0.009234678 0.0013417427 0.011402567 0.016068658
000060 e9 52 99 3b e7 45 c9 3c da 50 5a bd 53 76 65 3c
       0.004679073 0.024569465 -0.053299762 0.0140052615
000070 d4 e7 dc 3c 9a 52 f2 bb 25 e9 4a 3d bc ce e1 3b
       0.026966013 -0.007395101 0.04953875 0.0068910997
000080 5e 93 c3 bc 3c 21 c4 bb 91 e7 af bc 50 0b 19 3b
       -0.023873981 -0.005985407 -0.021472724 0.002335269
000090 2c 73 4d bc 3c 46 29 3d 1d 78 fd bc 8d e2 46 bc
       -0.012539666 0.041326746 -0.030941064 -0.012138975
0000a0 12 17 5c bc 80 b0 bf 3c f0 79 40 bc 30 06 13 3d
       -0.013433235 0.023399591 -0.011747822 0.035894573
0000b0 d5 de 3b 3d e6 94 83 bc e1 9e 0a 3c 29 68 ae bc
       0.045866806 -0.016062211 0.008460731 -0.021289902
0000c0 de 81 c5 bb 45 a3 39 3d 63 a8 8b 3d 6e 9c 76 3c
       -0.0060274443 0.04532172 0.068192266 0.015051944
0000d0 22 31 2a 3c ad b6 8e bb 43 72 5f 3b 8f 15 1b 3d
       0.010387691 -0.0043552727 0.0034095205 0.037862357
0000e0 c4 cf 85 3c 9d 71 5c 3d 7b 8f a5 bc b4 04 f9 bb
       0.016334422 0.053819288 -0.020210018 -0.0075994376
0000f0 ed 48 a9 bb 5e e6 21 bc d8 b0 0f bd 86 8e 02 bb
       -0.005166164 -0.009881584 -0.03508076 -0.0019921376
000100 3d f7 5f ba 77 aa 2a bc 2d 72 d4 3b 70 98 20 3d
       -0.0008543616 -0.010416619 0.0064833374 0.039207876
000110 e4 c4 af bb 3d 0f 85 3c 49 61 4e bc a0 83 b8 3c
       -0.0053640474 0.016242618 -0.012596437 0.022523701
000120 34 85 ad 3b e6 43 4f 3c 7d 8f 8f bc f1 b3 22 3a
       0.00529542 0.012650466 -0.017524475 0.0006206623
000130 ae 32 29 3b 68 a9 99 bc 31 19 3b bd 32 be 86 bb
       0.002581756 -0.018757537 -0.04567832 -0.0041120285
000140 aa 01 1c bc cb d7 dc 3c 8c fc 52 3c eb 2b 5c bb
       -0.009521881 0.026958367 0.012877595 -0.0033595513
000150 3e 4b 07 bd 1a 6d f5 3a 76 6e 08 bd 1f 24 5c bc
       -0.03303074 0.0018724531 -0.03330847 -0.013436346
000160 14 39 b8 bb a5 f0 17 3d 65 ce c3 3b db 79 c9 3c
       -0.0056220386 0.03709473 0.005975532 0.024594238
000170 99 6e 34 3a db 80 0f 3d 7d 3f d1 3c 70 38 00 3d
       0.00068829354 0.035034996 0.025542969 0.031303823
000180 c4 90 8b bb a5 89 8a bc 60 2c b1 3c 5e a9 9b bb
       -0.0042592008 -0.016911337 0.021627605 -0.0047504148
000190 8b 75 ab 3c 31 bb 12 bb 15 5b 9a bc a5 08 89 bb
       0.020930072 -0.0022389407 -0.01884226 -0.0041819387
0001a0 24 6e 30 3c f7 5f 51 3c f5 62 3e 3d 75 2e b5 3b
       0.010768447 0.012779227 0.04648109 0.0055292198
0001b0 63 8c a7 3c 8c de 39 bc a1 8f 45 3c e2 d0 88 3c
       0.020452684 -0.011344563 0.01205817 0.016701166
0001c0 c4 f0 0a bc 58 d5 94 3b f4 08 87 3d 2a f4 ae 3a
       -0.008480255 0.004542034 0.065935045 0.0013347913
0001d0 fd ab 1b ba 40 7c 8a 3c b1 7d c5 3c b4 a1 9a 3b
       -0.0005938409 0.01690495 0.024107786 0.0047189835
0001e0 09 e6 b2 3c bc 0a 88 3c e8 d7 32 3d cb e7 9b 3c
       0.021838205 0.016606681 0.043662935 0.019031426
0001f0 6f 62 63 3d d5 2d 2d bc c8 b4 38 bc 1e 4b 33 bc
       0.055513795 -0.010570009 -0.01127357 -0.010943202
000200 b3 12 25 3d a8 88 f5 bc 3d 5a 24 3d 78 36 ab bb
       0.040301036 -0.02997239 0.04012512 -0.005224999
000210 e8 ca 81 3d 11 31 94 3c 4f 38 ac 3a 1c 1e 10 3d
       0.063375294 0.018089803 0.001313934 0.035184965
000220 6b 39 7d ba 55 dd 76 bd 98 d0 8c 3c 2b ea 88 bc
       -0.000965974 -0.060269672 0.017189309 -0.016713222
000230 a7 bd 40 3d 36 52 31 3d 7d 75 9f bc ed 39 87 3c
       0.047055867 0.043291293 -0.019465202 0.016507113
000240 1b 65 f3 3c fb ff 2b bc 76 fe cb bb 96 d9 09 3d
       0.029711297 -0.010498042 -0.0062254025 0.03365477
000250 51 95 99 3c ed ee 4b bc 56 91 87 bd a0 20 ea 3c
       0.018747957 -0.012447101 -0.066195175 0.02858001
000260 f4 78 07 bc 35 a2 15 3d 69 30 1b bc 25 2f d4 39
       -0.008268584 0.036531646 -0.009471991 0.00040470916
000270 7d 71 9b bb f8 cd a8 bb 78 df 51 3c 6d 1d 9a bc
       -0.0047437535 -0.0051515065 0.012809627 -0.01881286
000280 46 a1 a1 3d 75 f4 ce 39 d9 fd d5 b9 06 c4 26 bc
       0.078920886 0.00039473517 -0.00040815657 -0.010178572
000290 e3 94 a0 3c 3e 56 ab bc ca 50 d2 bb 5c 5e 2b 3c
       0.019602245 -0.020915147 -0.006418322 0.010459509
0002a0 ff ce ae 3c 53 1f 02 bd 90 56 1b bb 8f 96 62 bb
       0.021338938 -0.031768154 -0.0023702718 -0.0034574603
0002b0 63 dc 11 bc c0 ae 92 3d 5a c6 00 3c 5e 40 01 bc
       -0.008902642 0.07162237 0.007859791 -0.0078888815
0002c0 26 69 f2 ba da f9 2f bc c0 83 01 3d 35 16 59 3d
       -0.0018494471 -0.010740722 0.031619787 0.052999694
0002d0 f5 34 b2 3c 8f b1 1a 3c df 41 cb 3b 89 4a 13 bc
       0.021753768 0.009441747 0.006202921 -0.008989939
0002e0 ee 3e 0f 3d 5c 1e d4 ba 26 89 40 bb da 35 51 bc
       0.034972124 -0.0016183364 -0.0029378622 -0.012769187
0002f0 ec 13 ba bc 2d 39 99 3c aa 45 fd 3c 6d 9b 76 bc
       -0.022714578 0.018704021 0.030917007 -0.015051705
000300 c4 fd fe 3c 80 3f 8a ba 5c 1d 5b 3d 54 17 b1 3b
       0.031126864 -0.0010547489 0.053494796 0.0054043923

Block1.4.running_mean f4 [196]
000000 86 6f 94 bc 1c de 47 bc f2 46 a6 bc ae 0e b3 3c
       -0.018119585 -0.012198951 -0.020297501 0.021857586
000010 2f 82 4a bc ac 5e bb bc 24 18 e8 bb 74 f5 1c 3d
       -0.01236014 -0.022872292 -0.007082956 0.03832002
000020 5f 75 de bb 1d e6 83 3b bb e4 ae bb c9 db 1a bc
       -0.006788894 0.0040252344 -0.0053373254 -0.009451815
000030 5e 95 a7 b3 8a 8a 88 3c cf 69 19 bc f0 4a df 3b
       -7.803713e-08 0.016667623 -0.009363606 0.006814353
000040 0a 2b 0f bb ae 39 34 3d 63 29 72 ba 77 eb 46 3b
       -0.0021845722 0.04400032 -0.00092377345 0.003035275
000050 25 3e 65 3c cc 4b ca bb ce 6d 54 bc ac 60 7f 3a
       0.013991867 -0.0061735865 -0.012965633 0.0009741883
000060 3f fe aa ba 06 aa d3 3c ce 0c ac 3b f9 ea af b9
       -0.0013045742 0.02583791 0.00525055 -0.0003355367
000070 a1 c0 b3 3c ed 18 22 bc d4 fa 93 bc 22 b1 62 bc
       0.021942439 -0.009893638 -0.01806394 -0.013836177
000080 96 5c 96 ba 86 21 5d 3c f9 aa 81 bc dc b6 c7 3c
       -0.0011471685 0.013496762 -0.015828596 0.024379186
000090 e0 0e 09 bc 1c d3 9f 3c 8a a5 e3 3a f1 23 fb 3c
       -0.008365363 0.019509844 0.001736806 0.030656787
0000a0 ca 8c 15 bc b2 49 98 3c 8b 8a dd bb 9e ac 95 bc
       -0.009127805 0.018589828 -0.0067609004 -0.018270787
0000b0 d9 d9 ec bb 86 85 24 3c 56 78 01 3c 23 2f 1f bb
       -0.007228118 0.0100416 0.0079022255 -0.002428957
0000c0 b6 24 81 bc 9e 27 a7 3b 93 5b 36 3c af 54 05 3c
       -0.015764575 0.0051011583 0.011130231 0.008137866
0000d0 a1 dc bf bc bb 7a b2 3b af 5f e3 bb 85 97 00 bd
       -0.023420634 0.0054467595 -0.0069388966 -0.0313945
0000e0 90 fe 76 39 12 52 47 3c 1f 1f 78 3b 55 b5 82 38
       0.0002355522 0.012165563 0.0037860346 6.232659e-05
0000f0 c6 6c b9 3b 64 83 ed bb eb 98 a8 bb ee 3d 8c 3c
       0.0056587188 -0.007248329 -0.0051451824 0.017119374
000100 7a d5 a9 ba 55 8e bb 3c 06 0d 70 3c 9d ef 9e ba
       -0.0012957298 0.022895018 0.0146515425 -0.0012125854
000110 eb 93 e0 bb fc a8 15 bb 6a 2a df bc 30 19 20 bb
       -0.0068535707 -0.0022836318 -0.027241904 -0.0024429075
000120 3f 0d 58 3c 66 dc 24 3c 12 fe f9 3b ba 87 65 bc
       0.013186752 0.010062313 0.0076291645 -0.0140094105
000130 2d 3e 7c 3c 7b 11 1c bd d0 82 65 3c 56 98 60 bc
       0.015395683 -0.03810261 0.014008239 -0.013708195
000140 19 9e a8 3b bb b2 f9 bb b8 82 ca bb 1e dd b0 ba
       0.0051458 -0.0076201833 -0.0061801337 -0.0013493632
000150 2f b1 b0 3c 6c 58 92 3c 51 ad 79 3c 5a 9b fa b9
       0.021568863 0.017864428 0.015239076 -0.00047799462
000160 95 6e 88 3b ca 19 7c bc ed 19 c4 bb 46 cf 0c bd
       0.004163573 -0.015387008 -0.005984536 -0.03437736
000170 2b 3a 21 3c 81 59 13 3c 9e fc ad 3b 69 a2 a4 bc
       0.0098405285 0.008993507 0.0053096553 -0.020096974
000180 43 98 49 3c 41 df 61 bb 11 e1 38 bc c6 71 80 bc
       0.012304368 -0.0034465345 -0.011284129 -0.015679251
000190 d8 cd 9a bc d8 6f a6 3c 38 4d cd bc a3 2a 3d ba
       -0.018896982 0.020317003 -0.025061235 -0.0007216131
0001a0 8b ed 4a bc 8b f1 0d 3c 4d 38 e7 ba 77 26 1e bd
       -0.012385736 0.008663545 -0.001764068 -0.0386109
0001b0 17 15 81 bb d8 5c 21 bc 51 68 b2 bb d5 0a 85 3c
       -0.0039392817 -0.009848796 -0.0054445644 0.016240517
0001c0 b6 bc a2 bc 55 03 8f bc a8 cd 32 bc be 31 7b 3c
       -0.019865375 -0.017457644 -0.01091329 0.015331684
0001d0 20 31 c8 bb f5 ca 10 bd e4 f3 9c 3c 80 66 34 bb
       -0.006109372 -0.035349805 0.019159265 -0.0027526915
0001e0 cd 76 06 b7 b3 9d 5b bb 5c 6f 6c bb ea 0c 9c bb
       -8.014683e-06 -0.0033510744 -0.0036077118 -0.0047622817
0001f0 1f 47 e2 3c 0f c5 9e bb b1 26 1a 3c 54 aa 43 bb
       0.027621804 -0.0048452686 0.009408639 -0.0029856162
000200 e9 94 bb bc ae d2 3f bc 13 8d 08 bc 0b 68 39 3c
       -0.022898154 -0.011707945 -0.008334416 0.01131631
000210 d9 c4 05 bd 9d 2d c5 bb 7e 94 b9 3c 26 be 17 3a
       -0.03265843 -0.0060174004 0.022653814 0.0005788527
000220 77 d1 4c bc c8 ba 66 bc 43 99 43 bc f7 57 9e 3c
       -0.012501112 -0.014082618 -0.011938396 0.019329054
000230 02 dd b6 bc 1f d2 9a bc bb ea a0 bc d5 ad 27 3c
       -0.022322182 -0.018899022 -0.019643178 0.010234316
000240 22 fe ab 3c 5e fa 13 3c 19 1b 14 bd 37 af 80 3c
       0.020995203 0.00903186 -0.036158655 0.015708549
000250 ce 5f 33 bb 8e ff e7 bb e3 df de 3b 84 65 80 3b
       -0.0027370336 -0.007080025 0.0068015917 0.0039183516
000260 0c 8c 78 3b 7d 13 89 ba c4 08 4d bb f5 a2 d5 bc
       0.0037925271 -0.0010458078 -0.0031285742 -0.02607868
000270 59 ac e7 bc 02 96 93 bc 69 fd c3 bc 85 b6 67 3c
       -0.028280424 -0.018015865 -0.023924546 0.014142637
000280 bb 8f 0a bd 2a 63 e2 bb 5e 6d 06 3d 6c 54 e8 3c
       -0.03382848 -0.006908794 0.032819144 0.028360568
000290 10 ff 11 3c ae 29 a2 3c 8c dc ca bb 25 b1 1e 3c
       0.008910909 0.019795265 -0.006190842 0.009685789
0002a0 e6 ce 8e 3c 1d 9e 4b 3c e2 09 df bc d1 22 6d bc
       0.017432641 0.012427834 -0.027226392 -0.014473633
0002b0 b8 9e 84 3b 86 42 5e bb ed 35 76 bc 96 c1 d4 bb
       0.004047241 -0.0033914163 -0.015027505 -0.006492804
0002c0 48 94 1e bb 39 4d 7d 3c 91 fb bd 3b fc e7 65 bc
       -0.002419727 0.015460306 0.0057978113 -0.01403236
0002d0 39 0d 2e bc dc f7 f0 bb e1 c3 86 bb 4f 1d 8e bc
       -0.01062327 -0.007353766 -0.004112706 -0.01734796
0002e0 93 6e 86 3c 81 9b 85 3c e9 1d fa 3a 5c e2 6f 3c
       0.016410148 0.016309502 0.00190824 0.014641371
0002f0 22 67 a1 3b 02 d9 9b 3b 71 4a c6 3a 53 66 41 3c
       0.0049256245 0.004756094 0.0015128386 0.011804181
000300 11 24 90 3b db 61 64 3c 6c 7b 03 3c 45 8c 0a 3c
       0.0043988307 0.013939346 0.008025032 0.008456294
