checkpoint/student_1/casia/client/student_10.pt (torch, 253477 bytes, 50 tensors)

torch.sparse_coo f4 [17]
00000000: 0658 0fbe b325 d13d ff4b 6cbb d17f a53d
00000010: 5975 b6bd 3ac4 0b3d 2ae6 44be ed56 c4bd
00000020: ba84 e33c 9b7d 37ba 091f cf3d ccca 2a3a
00000030: 7167 863c a201 2bbe 62ca 17bd 8cd0 453d
00000040: 759c 7a3c
-0.13998422 0.10212269 -0.003605604 0.0808102 -0.08909101 0.034122683 -0.19228426 -0.09586892
0.02777325 -0.00069996127 0.10113341 0.00065152044 0.016406747 -0.16699842 -0.03705824 0.04829459
0.015296091

conv1.1.weight f4 [64]
00000000: 9608 813f b42c 7f3f 0000 803f 0000 803f
00000010: 0000 803f a928 7c3f de42 813f 0000 803f
00000020: 0000 803f 0000 803f b4ef 7f3f 0000 803f
00000030: 0000 803f 0000 803f 0000 803f 0000 803f
00000040: 0000 803f 0000 803f 0000 803f 0000 803f
00000050: 0000 803f 0000 803f 0000 803f 0000 803f
00000060: 0000 803f 0000 803f 0000 803f 0000 803f
00000070: 0000 803f 0000 803f 0000 803f 0000 803f
00000080: 0000 803f 0000 803f 0000 803f 0000 803f
00000090: 0000 803f 64bd 813f 1532 7e3f 0000 803f
000000a0: f3ae 7b3f 8874 803f 0000 803f 0000 803f
000000b0: 0000 803f 0000 803f 0000 803f 0000 803f
000000c0: 0000 803f e203 803f 8fe5 7d3f 5b34 7e3f
000000d0: 0000 803f 0000 803f 0000 803f 0000 803f
000000e0: 0000 803f 0000 803f 0000 803f 9950 803f
000000f0: 0000 803f 0000 803f 0000 803f 0000 803f
1.0080745 0.99677587 1.0 1.0 1.0 0.9849954 1.0098531 1.0
1.0 1.0 0.9997513 1.0 1.0 1.0 1.0 1.0
1.0 1.0 1.0 1.0 1.0 1.0 1.0 1.0
1.0 1.0 1.0 1.0 1.0 1.0 1.0 1.0
1.0 1.0 1.0 1.0 1.0 1.0135922 0.9929517 1.0
0.98313826 1.0035563 1.0 1.0 1.0 1.0 1.0 1.0
1.0 1.0001185 0.99178404 0.9929864 1.0 1.0 1.0 1.0
1.0 1.0 1.0 1.0024596 1.0 1.0 1.0 1.0

conv1.1.bias f4 [64]
00000000: acbb f03c 935f acba 0000 0000 0000 0000
00000010: 0000 0000 8f68 743c 3813 583d 0000 0000
00000020: 0000 0000 0000 0000 72f3 25bb 0000 0000
00000030: 0000 0000 0000 0000 0000 0000 0000 0000
00000040: 0000 0000 0000 0000 0000 0000 0000 0000
00000050: 0000 0000 0000 0000 0000 0000 0000 0000
00000060: 0000 0000 0000 0000 0000 0000 0000 0000
00000070: 0000 0000 0000 0000 0000 0000 0000 0000
00000080: 0000 0000 0000 0000 0000 0000 0000 0000
00000090: 0000 0000 e8dc 4c3d fac2 1fbd 0000 0000
000000a0: cd8e 7e3d 574c 4a3c 0000 0000 0000 0000
000000b0: 0000 0000 0000 0000 0000 0000 0000 0000
000000c0: 0000 0000 db09 9a3c db74 cc3c 41c3 adbb
000000d0: 0000 0000 0000 0000 0000 0000 0000 0000
000000e0: 0000 0000 0000 0000 0000 0000 f3a5 bf3c
000000f0: 0000 0000 0000 0000 0000 0000 0000 0000
0.029386364 -0.0013151042 0.0 0.0 0.0 0.014917507 0.052752703 0.0
0.0 0.0 -0.0025322107 0.0 0.0 0.0 0.0 0.0
0.0 0.0 0.0 0.0 0.0 0.0 0.0 0.0
0.0 0.0 0.0 0.0 0.0 0.0 0.0 0.0
0.0 0.0 0.0 0.0 0.0 0.05001536 -0.039004304 0.0
0.062147904 0.012347302 0.0 0.0 0.0 0.0 0.0 0.0
0.0 0.018803528 0.024958065 -0.005302817 0.0 0.0 0.0 0.0
0.0 0.0 0.0 0.02339456 0.0 0.0 0.0 0.0

conv1.1.running_mean f4 [64]
00000000: 9f7e 66bb 0400 0000 0000 0000 0000 0000
00000010: 0000 0000 86c6 cabb f294 40bc 0000 0000
00000020: 0000 0000 0000 0000 0400 0080 0000 0000
00000030: 0000 0000 0000 0000 0000 0000 0000 0000
00000040: 0000 0000 0000 0000 0000 0000 0000 0000
00000050: 0000 0000 0000 0000 0000 0000 0000 0000
00000060: 0000 0000 0000 0000 0000 0000 0000 0000
00000070: 0000 0000 0000 0000 0000 0000 0000 0000
00000080: 0000 0000 0000 0000 0000 0000 0000 0000
00000090: 0000 0000 494c 5d3c 6f8e dd3b 0000 0000
000000a0: 6515 3d3b 0400 0000 0000 0000 0000 0000
000000b0: 0000 0000 0000 0000 0000 0000 0000 0000
000000c0: 0000 0000 8ccd 16bc f76b b03c 10b9 9e3b
000000d0: 0000 0000 0000 0000 0000 0000 0000 0000
000000e0: 0000 0000 0000 0000 0000 0000 3806 b1bb
000000f0: 0000 0000 0000 0000 0000 0000 0000 0000
-0.0035170687 6e-45 0.0 0.0 0.0 -0.0061882166 -0.011754261 0.0
0.0 0.0 -6e-45 0.0 0.0 0.0 0.0 0.0
0.0 0.0 0.0 0.0 0.0 0.0 0.0 0.0
0.0 0.0 0.0 0.0 0.0 0.0 0.0 0.0
0.0 0.0 0.0 0.0 0.0 0.013506957 0.006761364 0.0
0.0028851863 6e-45 0.0 0.0 0.0 0.0 0.0 0.0
0.0 -0.00920428 0.021535857 0.0048438385 0.0 0.0 0.0 0.0
0.0 0.0 0.0 -0.0054023527 0.0 0.0 0.0 0.0

conv1.1.running_var f4 [64]
00000000: cc04 f639 0400 0000 0400 0000 0400 0000
00000010: 0400 0000 df5a 893a d0bc 203a 0400 0000
00000020: 0400 0000 0400 0000 0400 0000 0400 0000
00000030: 0400 0000 0400 0000 0400 0000 0400 0000
00000040: 0400 0000 0400 0000 0400 0000 0400 0000
00000050: 0400 0000 0400 0000 0400 0000 0400 0000
00000060: 0400 0000 0400 0000 0400 0000 0400 0000
00000070: 0400 0000 0400 0000 0400 0000 0400 0000
00000080: 0400 0000 0400 0000 0400 0000 0400 0000
00000090: 0400 0000 0c14 d33b eaaf cd3a 0400 0000
000000a0: ad32 0639 0400 0000 0400 0000 0400 0000
000000b0: 0400 0000 0400 0000 0400 0000 0400 0000
000000c0: 0400 0000 3dd3 1a3b 6741 a43b fd5c 8039
000000d0: 0400 0000 0400 0000 0400 0000 0400 0000
000000e0: 0400 0000 0400 0000 0400 0000 f837 363a
000000f0: 0400 0000 0400 0000 0400 0000 0400 0000
0.0004692435 6e-45 6e-45 6e-45 6e-45 0.0010479352 0.0006131651 6e-45
6e-45 6e-45 6e-45 6e-45 6e-45 6e-45 6e-45 6e-45
6e-45 6e-45 6e-45 6e-45 6e-45 6e-45 6e-45 6e-45
6e-45 6e-45 6e-45 6e-45 6e-45 6e-45 6e-45 6e-45
6e-45 6e-45 6e-45 6e-45 6e-45 0.0064415988 0.0015692685 6e-45
0.00012798114 6e-45 6e-45 6e-45 6e-45 6e-45 6e-45 6e-45
6e-45 0.0023624443 0.0050126794 0.00024483344 6e-45 6e-45 6e-45 6e-45
6e-45 6e-45 6e-45 0.0006951089 6e-45 6e-45 6e-45 6e-45

Block1.0.weight f4 [737]
00000000: d612 57bc 78dd 1e3d 686c 993c 9b9c a9bc
00000010: 4a51 1fbd 2c11 1bbd 0e9b e5bc 8bc6 edbc
00000020: 58a2 06bd 5762 27bd 3701 05bd d684 653c
00000030: 9b1a bb3c 98ec 0fbd 4eb5 9f39 1555 20ba
00000040: 4e1c cab7 79ff 1cbc 3ac4 14bb 80a4 86bc
00000050: be00 093d e6f8 0e3d fa3d 0d3d d815 a8bc
00000060: c6bd 38bc e85b 23bd c657 2a3c 8ea5 8d3c
00000070: b016 96bc 2ede 823c 2f2b 223d a0a7 21bc
00000080: be8c d73c ceae 9d3c 1a7e 223d 6236 04bd
00000090: 06d3 a93c c63b 9dbc 2669 bebc c384 b2bc
000000a0: e014 113c c631 2abc b0c2 26ba 13bd 03bd
000000b0: 307c b93c 2a1a 1bbd 6a4d 9439 19c7 14ba
000000c0: d9e4 6339 9c9f ce3b d64b fd3c 1225 d639
000000d0: 2b7d 1abd 530c d03c c645 fc3c 5b94 cc3c
000000e0: 16c8 29bd d65c 2f3c 0b55 16bd 5828 a93c
000000f0: 8388 893c f876 93bc 5cce 19bd 26e9 d53c
00000100: 4315 94bc f647 6bbc 7fce 1cba 509a dbb9
00000110: 0a4c 8fbb 39a7 3abc 406d c2bc 4be2 bc3c
00000120: 10e1 cc3c 0c27 123d 6df0 d3bb e01d e13c
00000130: ccc5 943c ac5e 273c 391c bf3b d08d f63c
00000140: de5c afbc a069 323c b0e5 253c 1904 9ebc
00000150: f0d3 a8bc 7a4e 54bc 2f72 e3bc cd21 b3bb
00000160: 1763 81b8 dfad 4cba 8758 023d 985f bbbc
00000170: 261b 1d3c 5e39 c5bc ddf4 233d 6931 6cba
00000180: 96e6 e1bc 5abc 263d c1ac 253b 8ba9 e53c
00000190: 500a 73bc a50d 3bbc 5299 933b a216 09bd
000001a0: 2bea 32bc b3c5 e4bc f478 0a3d 8b95 833c
000001b0: 4728 293d 6de7 78b9 7894 983c d625 113d
000001c0: 6a6f a93c b3d5 87bc 07d0 103d dbd5 eb3c
000001d0: 3317 193d 5a7b 2a3d 94c6 df3b 36c5 033c
000001e0: 5636 c4bc 40c1 913c 8463 9d3c 7305 29bd
000001f0: abe9 18bc c8d0 d9bc dec8 113d ffe9 ccbc
00000200: 3695 103d f08f b3bc 50f7 493c 508d 413c
00000210: fe04 8dbc 3097 063c 1c45 c439 9b1d 02bd
00000220: c333 ca3c 1b91 3fbc 01e3 08bd 10a4 3c3b
00000230: 08b6 34ba 94e0 24bd c940 9c3a 7dba edba
00000240: 7f1b a83c 0a0c 7e3b 6efe c2bc 10fe 2f3c
00000250: 383d dbbc 5ffb 243d f8eb fa3c c665 01bc
00000260: e0ee de39 6a32 8d3a f8c9 d23c 4e62 bebc
00000270: e65a 10bd 735c 8dbc 763a cdbc 4e0a 8b3c
00000280: 008c 8d3c 944b 26bd b0bb cfbc 36a5 063d
00000290: fb1a 223c 0596 a7bb a3c8 94bc 2af0 0d3d
000002a0: dba3 dfbc 2876 9bbc c149 1bbd e281 103d
000002b0: 2ca7 133d 1bc9 a43a b23f 283d 0d98 8c3c
000002c0: 3d54 ecbb 8921 89ba b3f3 843c bb21 063c
000002d0: a803 083d ba2c aa39 5c98 1b39 7c5a 463a
000002e0: aad1 113d 1d12 21bc 6b84 153b 1cf3 333b
000002f0: d325 8fbc ce0f ffbc e1f9 02bd c65f e23c
00000300: 86d8 d7bc 96f5 3f3a 7202 d83b 4b29 ca3c
00000310: d0de 3a3c 53b3 1cbd 03f6 123d 4ec9 d7bc
00000320: 030b f83c 2058 0abd dbba 083c a035 0b3d
00000330: b3a0 b13c 0ee1 0fbd d091 89bc 33bd 21bd
00000340: 1fdb a53c 362c 063d d3e3 f63c d0ee 493c
00000350: d068 743c 135b c23c 58db bc3c 08c8 1d3d
00000360: aa00 23bd fe8e f2bc 039a 9f3c 4ef8 bdbc
00000370: c0bc 3fbc a30f 253d f0aa 0cbd 4867 863c
00000380: 42e5 283d 5b23 40bc 1ec5 9ebc 90a3 d2bc
00000390: 4e0a 2a3d 1641 e3bc 1200 1f3d 0cf1 16bd
000003a0: 3871 c03c 7278 0abd 20d0 793c e7fe 203d
000003b0: cfa4 07bc 4b68 f2bc d6d1 6cbd 6bbf 25bc
000003c0: 7837 243d d0ad 3dbc 2f19 223c 9e60 cf3c
000003d0: cbfb a5bc ba11 a03b 5a3a 20bd 9804 12bd
000003e0: f022 de3c f171 dcbc dbc8 15bc eec1 063d
000003f0: 2119 343c 337c 81bc 0b40 bb3c 996b 13bd
-0.013127049 0.038785428 0.01872845 -0.020704558 -0.038895883 -0.037858173 -0.028028037 -0.029025337
-0.032869667 -0.04086527 -0.03247186 0.014008721 0.022839835 -0.035137743 0.00030461926 -0.0006116194
-2.4093457e-05 -0.009582394 -0.0022699968 -0.016435862 0.033447973 0.034905337 0.034482934 -0.020518228
-0.011275714 -0.03988257 0.010396903 0.017290857 -0.018321365 0.015975084 0.039591964 -0.009866625
0.026312228 0.019248392 0.03967104 -0.032278426 0.020730507 -0.019193541 -0.023243498 -0.021791821
0.008855075 -0.0103878435 -0.0006361408 -0.032162737 0.022642225 -0.03786675 0.00028286438 -0.000567542
0.0002173366 0.006305648 0.03091995 0.0004084488 -0.037717026 0.025396502 0.03079499 0.024973085
-0.041450582 0.010703286 -0.036702197 0.02064912 0.016788727 -0.018001065 -0.037550315 0.02611215
-0.018076545 -0.014360419 -0.0005981698 -0.00041885907 -0.0043730782 -0.011392408 -0.023733735 0.023057124
0.025009662 0.03568177 -0.00646787 0.027480066 0.018160723 0.010215443 0.005832222 0.030096918
-0.021406587 0.010889441 0.010125563 -0.019289063 -0.020608872 -0.012958163 -0.027764408 -0.005466676
-6.169656e-05 -0.0007807891 0.031822708 -0.022872731 0.009588992 -0.024075206 0.04002844 -0.0009010048
-0.027575772 0.04070697 0.0025279971 0.028034946 -0.014834002 -0.011416827 0.004504361 -0.03346885
-0.010920088 -0.027926302 0.033806756 0.016062519 0.041298177 -0.00023737336 0.018625483 0.035436474
0.02068301 -0.016581392 0.03535464 0.028788498 0.03737564 0.041621543 0.0068290923 0.008042624
-0.02395169 0.017792344 0.019212492 -0.041264962 -0.009333055 -0.026588812 0.035591953 -0.025013922
0.03529855 -0.02191922 0.01232703 0.011813477 -0.017214295 0.008214757 0.00037435524 -0.031766515
0.024682885 -0.011692311 -0.033419613 0.0028784312 -0.000689358 -0.040253237 0.0011921163 -0.0018137243
0.020520924 0.00387645 -0.023802962 0.010741726 -0.02676259 0.04027879 0.030630097 -0.0078978
0.00042521115 0.0010772471 0.025731072 -0.023240235 -0.035242938 -0.017255997 -0.02505229 0.016972687
0.017278671 -0.04059942 -0.025358051 0.0328724 0.009894128 -0.0051143193 -0.018162077 0.034652866
-0.027299812 -0.01897724 -0.037912134 0.035280116 0.0360481 0.0012572141 0.04107637 0.017162347
-0.0072121904 -0.0010462265 0.016229486 0.008186753 0.033206612 0.0003245825 0.0001483871 0.0007566584
0.03560034 -0.009830979 0.0022814523 0.0027458137 -0.01747409 -0.031135466 -0.031976584 0.027633559
-0.026348364 0.0007322667 0.0065920884 0.024677893 0.011405662 -0.038256954 0.035879146 -0.026341107
0.030278688 -0.03377545 0.008345331 0.033986688 0.021683073 -0.03512674 -0.016793162 -0.039487075
0.020246087 0.032757007 0.030137932 0.012325004 0.014917567 0.023725068 0.02305381 0.038520843
-0.039795555 -0.0296092 0.019482618 -0.02318969 -0.011702716 0.040298115 -0.034342706 0.01640667
0.041234262 -0.011727179 -0.019381102 -0.025712758 0.041513734 -0.027740996 0.038818426 -0.036850974
0.023491487 -0.03380627 0.015247375 0.039305594 -0.0082790395 -0.029590746 -0.057817303 -0.010116438
0.04009196 -0.011577085 0.0098937 0.025314625 -0.020261666 0.0048849257 -0.03911815 -0.035648912
0.027116269 -0.0269098 -0.009142126 0.03289979 0.010992319 -0.015806293 0.022857687 -0.035991285

Block1.1.weight f4 [128]
00000000: 0000 803f 0000 803f ebc9 803f 0000 803f
00000010: 0000 803f 0000 803f 0000 803f 0000 803f
00000020: c2aa 7a3f 0000 803f b953 7e3f 0000 803f
00000030: 61cc 7f3f 76ce 7e3f 718b 7e3f 3e31 813f
00000040: 2ba8 813f ce69 803f 8efc 7d3f bc3c 7c3f
00000050: 338c 813f 0000 803f 0000 803f 290c 803f
00000060: 6ac7 7e3f 0000 803f 0000 803f d0f9 7c3f
00000070: 82a3 7e3f d665 803f fb3c 7f3f 8c93 7c3f
00000080: 21ab 813f 6c33 803f 0000 803f bb4f 7e3f
00000090: 0000 803f 0000 803f 9d58 803f abcf 793f
000000a0: 0000 803f ba5c 803f cd73 7f3f ad46 7d3f
000000b0: d4dd 7f3f 6899 7f3f 0000 803f ea5a 813f
000000c0: 0000 803f 7fc3 7f3f 99c5 7e3f a13c 803f
000000d0: 272e 803f 310a 803f 0000 803f 2727 803f
000000e0: 2d9c 803f f685 7f3f 9176 7f3f 2e37 803f
000000f0: 777d 7e3f af1f 7c3f 39de 7b3f 0000 803f
00000100: 0000 803f 0000 803f e15e 813f ffab 7f3f
00000110: 805d 7d3f 90d1 7e3f 0000 803f 0000 803f
00000120: 7e1b 7e3f ac9e 7f3f c6e8 7f3f 5d21 803f
00000130: 67a5 823f d01b 803f 932d 803f 2fbb 803f
00000140: 0000 803f 0000 803f 4003 803f 0000 803f
00000150: 0696 803f 0000 803f e818 803f 0000 803f
00000160: dc0b 813f 9a1a 803f 93cf 7c3f 6c1d 813f
00000170: 725d 813f 9e56 7e3f f0f6 7e3f c60f 7f3f
00000180: 0000 803f 4e54 7d3f 0000 803f 0000 803f
00000190: abd6 803f 0000 803f 7ffa 803f f231 803f
000001a0: 9f6b 843f 0000 803f 066e 803f d478 7d3f
000001b0: f9b6 7f3f f391 7f3f 0000 803f 11d6 813f
000001c0: 395f 7e3f 6a6d 833f 2331 803f ed33 803f
000001d0: d284 7e3f 0000 803f 2ded 7e3f 7dba 7e3f
000001e0: 4430 803f 0000 803f fe73 7f3f 0000 803f
000001f0: 0000 803f bc89 7e3f 220a 803f 9a0c 803f
1.0 1.0 1.006162 1.0 1.0 1.0 1.0 1.0
0.97916806 1.0 0.993465 1.0 0.9992123 0.99533784 0.9943152 1.0093153
1.0129446 1.0032289 0.9921349 0.98530173 1.012091 1.0 1.0 1.0003711
0.9952303 1.0 1.0 0.98818684 0.99468243 1.0031078 0.99702424 0.9866264
1.0130349 1.0015693 1.0 0.9934041 1.0 1.0 1.0027043 0.975825
1.0 1.0028298 0.9978607 0.9893597 0.9994786 0.99843454 1.0 1.010587
1.0 0.9990768 0.9952026 1.0018502 1.0014085 1.000311 1.0 1.0011948
1.0047661 0.99813783 0.9979029 1.001684 0.99410194 0.98485845 0.9838596 1.0
1.0 1.0 1.010708 0.9987182 0.98970795 0.99538517 1.0 1.0
0.992607 0.9985149 0.9996456 1.0010182 1.0206727 1.0008488 1.0013908 1.0057124
1.0 1.0 1.0000992 1.0 1.0045784 1.0 1.0007601 1.0
1.0081744 1.0008118 0.98754233 1.0087104 1.0106642 0.9935092 0.99595547 0.99633443
1.0 0.98956764 1.0 1.0 1.0065511 1.0 1.0076445 1.0015242
1.0345343 1.0 1.0033576 0.99012494 0.9988857 0.99832076 1.0 1.0143453
0.9936405 1.0267766 1.0014995 1.0015846 0.9942142 1.0 0.9958065 0.9950331
1.001473 1.0 0.99786365 1.0 1.0 0.99428916 1.0003092 1.0003846

Block1.1.bias f4 [128]
00000000: 0000 0000 0000 0000 b606 a03c 0000 0000
00000010: 0000 0000 0000 0000 0000 0000 0000 0000
00000020: 564b 49bc 0000 0000 e43f 4f3b 0000 0000
00000030: e3a2 de3b a1de c8bb a1b2 3c3d d7b3 be3c
00000040: 789f 593d d29c 6a3c 61b2 98ba e5c1 393d
00000050: 01f0 08bd 0000 0000 0000 0000 80da edbb
00000060: be0c 01bc 0000 0000 0000 0000 7438 31bb
00000070: 69cb 9e3d 4b67 4b3c 1fcd 84bb f592 5d3c
00000080: f077 163d 4717 263c 0000 0000 b1d0 e2bc
00000090: 0000 0000 0000 0000 983e 82bc 7b18 fbbc
000000a0: 0000 0000 9bef 14bb 4a64 10bb c1fd 5fbc
000000b0: 2f37 083d d4fe de3c 0000 0000 e07d 3b3d
000000c0: 0000 0000 4b52 adb9 2487 43bb 48fb 79bc
000000d0: baa4 9ab9 f483 39bc 0000 0000 2a75 6c3d
000000e0: 0c01 a0bb 82a1 323d cf19 9bbb 4376 ca3c
000000f0: e193 73bb a644 20bd 9ffc ccbc 0000 0000
00000100: 0000 0000 0000 0000 8d2e 603d 8cd8 a73b
00000110: 8d00 85b9 30b3 44bc 0000 0000 0000 0000
00000120: 47cb aa3c 33e5 1aba 52c5 9aba bc0a 703b
00000130: 52c1 4e3b 6fc7 9c3b 30f8 1eba e7f3 4c3d
00000140: 0000 0000 0000 0000 ae77 90bb 0000 0000
00000150: f60d 893c 0000 0000 1ab5 5dbc 0000 0000
00000160: 35f1 d83b 4e78 3c3c 6651 ca3c 0afc 06bb
00000170: 4b0c 7a3c 72d8 f1bb 452e 46bc 0553 c3ba
00000180: 0000 0000 ba96 67bb 0000 0000 0000 0000
00000190: 3c5b 393d 0000 0000 c3be 3e3c 010f 2f3d
000001a0: d2e1 873d 0000 0000 bcbf ebbc 6cda 3b3d
000001b0: fdae 99bb 5cd3 13bc 0000 0000 1e87 06bd
000001c0: e74d 43ba ef70 453d c029 193d 23f3 cfba
000001d0: ff9a 083a 0000 0000 d6dc 893c 88d7 26ba
000001e0: bfef 02bd 0000 0000 e96a 1abb 0000 0000
000001f0: 0000 0000 b771 0abd 0a70 973b 7338 143d
0.0 0.0 0.01953445 0.0 0.0 0.0 0.0 0.0
-0.012286028 0.0 0.0031623775 0.0 0.00679432 -0.006130055 0.04606879 0.023279114
0.053130597 0.014319615 -0.0011649841 0.045350928 -0.03343201 0.0 0.0 -0.0072587132
-0.007876573 0.0 0.0 -0.0027041705 0.07753641 0.012414764 -0.0040527727 0.013523807
0.036735475 0.010137386 0.0 -0.027687402 0.0 0.0 -0.015898988 -0.030651322
0.0 -0.0022725824 -0.0022032433 -0.0136713395 0.033255752 0.02722112 0.0 0.04577434
0.0 -0.00033058444 -0.0029835189 -0.015257664 -0.000294959 -0.011322964 0.0 0.057728924
-0.0048829373 0.043611057 -0.0047333012 0.024714595 -0.0037167 -0.03912797 -0.025022803 0.0
0.0 0.0 0.054731894 0.00512225 -0.00025368147 -0.012005612 0.0 0.0
0.020848883 -0.0005908787 -0.0011808074 0.0036627492 0.0031548333 0.0047845165 -0.00060642045 0.05003729
0.0 0.0 -0.004408798 0.0 0.01673029 0.0 -0.0135319475 0.0
0.006620551 0.011503292 0.024697017 -0.0020597004 0.01526172 -0.0073805386 -0.012095992 -0.0014902061
0.0 -0.0035337643 0.0 0.0 0.045253024 0.0 0.011642161 0.04273892
0.06634869 0.0 -0.02877795 0.0458626 -0.0046900497 -0.00902256 0.0 -0.0328437
-0.0007450268 0.048203405 0.03739333 -0.0015865307 0.00052110845 0.0 0.016828936 -0.0006364514
-0.03196692 0.0 -0.0023562259 0.0 0.0 -0.033799853 0.0046215104 0.036186647

Block1.1.running_mean f4 [128]
00000000: 0000 0000 0000 0000 f403 163c 0000 0000
00000010: 0000 0000 0000 0000 0000 0000 0000 0000
00000020: 57fa 1b3b 0000 0000 1393 543c 0000 0000
00000030: 99a9 ecbb d677 aa3b 66f8 663c 0788 b8bb
00000040: 50ed 8e3b 896d 96bb 0400 0000 a211 df3a
00000050: b3b1 8c3c 0000 0000 0000 0000 6c8d 023c
00000060: 0400 0080 0000 0000 0000 0000 2314 56bc
00000070: bf6d 303c bbea 393c 0400 0000 14ef 9d3b
00000080: 26c5 81bc 64c9 9e3c 0000 0000 709e 373b
00000090: 0000 0000 0000 0000 2673 0a3c a538 673c
000000a0: 0000 0000 0400 0080 0400 0080 7202 dcb8
000000b0: bdd5 bebc 36c9 34bb 0000 0000 fcaf 89bc
000000c0: 0000 0000 0400 0000 cf27 cf9d 6e42 f3bb
000000d0: 0400 0080 0400 0080 0000 0000 e355 ab39
000000e0: a8a7 90bc 1c4b f0ba 0400 0080 700a 063c
000000f0: 0400 0080 519a 2bbc ee7d a53b 0000 0000
00000100: 0000 0000 0000 0000 45bf 813c bbd6 c8bc
00000110: 0400 0000 0944 b03c 0000 0000 0000 0000
00000120: 14dc 903b 0400 0080 0400 0080 0400 0080
00000130: c4d8 b8bc beb6 60bc 0400 0000 cecd a13c
00000140: 0000 0000 0000 0000 0400 0080 0000 0000
00000150: 98e5 0fbc 0000 0000 ccb2 bbbc 0000 0000
00000160: 81c4 f5bb 02db 76bc fc7a 0a3b 9f4b 283c
00000170: dce3 f4bb 330d b03c f445 393c 0400 0080
00000180: 0000 0000 66b6 54bc 0000 0000 0000 0000
00000190: 3bd1 a3bc 0000 0000 cc9f 4ebc e186 a1bc
000001a0: 363d a7bb 0000 0000 e9a2 babb a924 b9b9
000001b0: 0400 0000 d2ad 953b 0000 0000 d603 4c3c
000001c0: a1d8 9d3b 1385 343c 089a e63b 0400 0000
000001d0: 1146 59bc 0000 0000 0400 0000 1ec3 273c
000001e0: 377c 3f3c 0000 0000 0400 0000 0000 0000
000001f0: 0000 0000 5a34 923b f31a 68bc c65f e03b
0.0 0.0 0.009156216 0.0 0.0 0.0 0.0 0.0
0.0023800337 0.0 0.012974518 0.0 -0.007222366 0.005202274 0.014097309 -0.00563145
0.004361786 -0.0045906943 6e-45 0.0017018805 0.017174577 0.0 0.0 0.007968288
-6e-45 0.0 0.0 -0.013066324 0.010768353 0.011347468 6e-45 0.00481976
-0.015841078 0.01938314 0.0 0.002801802 0.0 0.0 0.008450305 0.014112626
0.0 -6e-45 -6e-45 -0.00010490873 -0.023295278 -0.0027585751 0.0 -0.016807549
0.0 6e-45 -5.4833605e-21 -0.0074236905 -6e-45 -6e-45 0.0 0.00032679652
-0.01765807 -0.0018332931 -6e-45 0.008181199 -6e-45 -0.010473804 0.0050504124 0.0
0.0 0.0 0.015838275 -0.024516454 6e-45 0.021516817 0.0 0.0
0.0044207666 -6e-45 -6e-45 -6e-45 -0.0225643 -0.013715444 6e-45 0.019751456
0.0 0.0 -6e-45 0.0 -0.008782767 0.0 -0.022912405 0.0
-0.0075002317 -0.015066864 0.0021130433 0.010271936 -0.007473452 0.021490669 0.011308182 -6e-45
0.0 -0.01298294 0.0 0.0 -0.01999723 0.0 -0.012611341 -0.019717636
-0.0051037325 0.0 -0.00569569 -0.00035313264 6e-45 0.00456784 0.0 0.012452086
0.004817084 0.0110180555 0.007037405 6e-45 -0.013261334 0.0 6e-45 0.010239391
0.01168733 0.0 6e-45 0.0 0.0 0.004461807 -0.014166581 0.0068473546

Block1.1.running_var f4 [128]
00000000: 0400 0000 0400 0000 53c3 8b39 0400 0000
00000010: 0400 0000 0400 0000 0400 0000 0400 0000
00000020: ca82 8c37 0400 0000 0b04 c039 0400 0000
00000030: b976 0239 cb88 c038 2157 e939 f325 8938
00000040: d827 d439 f210 4738 0400 0000 6231 0338
00000050: a13d a639 0400 0000 0400 0000 77e0 e238
00000060: 0400 0000 0400 0000 0400 0000 1fed c739
00000070: c8a9 7c39 2069 4039 0400 0000 6675 1b39
00000080: 88d8 dd39 4593 5b3a 0400 0000 7257 6c37
00000090: 0400 0000 0400 0000 5db7 da38 1a86 d039
000000a0: 0400 0000 0400 0000 0400 0000 0cce be2e
000000b0: 30fd a63a a8ff d438 0400 0000 d241 0439
000000c0: 0400 0000 0400 0000 9789 1e18 6c9f 0f39
000000d0: 0400 0000 0400 0000 0400 0000 d73b 0532
000000e0: d7fd 1f3a 0e48 aa37 0400 0000 c208 6439
000000f0: 0400 0000 da07 7e39 fb64 8038 0400 0000
00000100: 0400 0000 0400 0000 a6bc 113a 56ca 5c3a
00000110: 0400 0000 304b 393a 0400 0000 0400 0000
00000120: 0815 0438 0400 0000 0400 0000 0400 0000
00000130: 2ae4 623a 91fd dc39 0400 0000 d43e c039
00000140: 0400 0000 0400 0000 0400 0000 0400 0000
00000150: 86a4 3639 0400 0000 4e53 563a 0400 0000
00000160: b208 4739 1c88 bc39 f7cb 3a38 8e0b 2939
00000170: 8deb 0739 d35c 003b ebe3 7939 0400 0000
00000180: 0400 0000 56ed 4f3a 0400 0000 0400 0000
00000190: ebd0 503a 0400 0000 cf34 c239 1213 363a
000001a0: 503f 8038 0400 0000 c6ae 4638 def3 eb39
000001b0: 0400 0000 8e96 8138 0400 0000 52ec 5a39
000001c0: a61e 5b38 fc2c e439 cff6 b038 0400 0000
000001d0: e68f 9739 0400 0000 0400 0000 82b0 2939
000001e0: d0b6 c839 0400 0000 0400 0000 0400 0000
000001f0: 0400 0000 4be0 4438 4b0d a039 aff2 da38
6e-45 6e-45 0.00026657674 6e-45 6e-45 6e-45 6e-45 6e-45
1.6750204e-05 6e-45 0.00036624106 6e-45 0.00012441994 9.180753e-05 0.0004450614 6.539738e-05
0.00040465477 4.746108e-05 6e-45 3.1278825e-05 0.00031707904 6e-45 6e-45 0.000108183296
6e-45 6e-45 6e-45 0.00038132907 0.00024095841 0.00018349709 6e-45 0.00014825686
0.00042313733 0.0008376132 6e-45 1.4087056e-05 6e-45 6e-45 0.00010429204 0.00039772765
6e-45 6e-45 6e-45 8.676801e-11 0.0012740251 0.000101565674 6e-45 0.00012613021
6e-45 6e-45 2.0490486e-24 0.00013696932 6e-45 6e-45 6e-45 7.755225e-09
0.0006103194 2.0299132e-05 6e-45 0.00021747037 6e-45 0.00024226253 6.122325e-05 6e-45
6e-45 6e-45 0.0005559422 0.00084224844 6e-45 0.0007068394 6e-45 6e-45
3.149084e-05 6e-45 6e-45 6e-45 0.0008655215 0.00042150592 6e-45 0.00036667904
6e-45 6e-45 6e-45 6e-45 0.00017418162 6e-45 0.00081758655 6e-45
0.00018981358 0.00035959564 4.4535813e-05 0.000161214 0.00012962353 0.0019586578 0.00023831397 6e-45
6e-45 0.0007931789 6e-45 6e-45 0.00079657015 6e-45 0.0003704191 0.0006945591
6.1153085e-05 6e-45 4.736965e-05 0.00045004388 6e-45 6.179242e-05 6e-45 0.00020878136
5.2242212e-05 0.00043521065 8.438306e-05 6e-45 0.00028908177 6e-45 6e-45 0.0001618285
0.0003828318 6e-45 6e-45 6e-45 6e-45 4.693893e-05 0.00030527482 0.000104402534

Block1.3.weight f4 [2259]
00000000: 6b21 71bc 0318 0dbd fc88 30bc 3f6f d9bc
00000010: e265 d8bb ce63 693c f7fd 183c 9b8a 2f3c
00000020: 740d bfbc a535 5c3c 8e88 8b3c 60eb b53c
00000030: 7b6d d3bc b7e9 053c 2bfc eabc 088f 9bbc
00000040: e22e d9bc 29c6 95bc 17d6 aebc 36e5 02bd
00000050: 3920 00bc 332e a8bc 6f50 63bc d183 bfba
00000060: cdd7 05bc c62e 9bbb 4b70 b93b 10c8 033c
00000070: c5e9 313a b3eb a8ba b29f 7c3a 83de e3ba
00000080: 5b37 deb9 af9d 95ba 074f c73c 8236 d13c
00000090: d108 07bd 9b05 8fbc e2b0 893b 5e34 ccbc
000000a0: a200 a4bb 013d a93c 4f59 853c 9f88 ecbb
000000b0: 654c d0bc 9990 063b edc9 1b3c aa00 af3c
000000c0: 4c10 fa3c 846a b93c e5b1 88bb 60dd 15bc
000000d0: f901 c4bb 70c2 683c b1c2 253c ac80 d5bb
000000e0: 2dc8 1cbc 6d07 9dbc 522b a8bc b560 abbc
000000f0: 9d44 beba 8813 85bc 5db4 3d3c 99f0 eebb
00000100: 50de 95bc b4f5 a6bc d445 563c 0d3f 993c
00000110: 4232 9a3c 5552 b8bc 2c16 023d 7831 da3b
00000120: 32e8 d03b 90d8 ee3c b4cc 77bc 25a6 b33a
00000130: d519 cabb 11e1 00bd d97a b6bc fc71 ed3c
00000140: 2b71 b63c a304 36bc 4a66 a8bc 7e46 703c
00000150: 19b2 bcbc 2729 a73c e3cc 9e3c d4b0 46bc
00000160: 3362 a23c 3989 e5bc 524a e43b 51b9 763c
00000170: 8b15 bb3c dd07 0bbc e9e7 053c 4db1 293d
00000180: b839 e13b 4d83 4a3c 79db 20bd dbdd 273c
00000190: 5f08 d0bc 5851 d03c 67a6 3abc 3556 febc
000001a0: 5747 79bc 6a61 0f3d cc25 883c a8cb e3bb
000001b0: 2711 e03c 7034 7bbc 1e5d b63c e12b 023d
000001c0: 8386 b4bc b0ac 9bba 6882 103c 3b03 84bc
000001d0: 2c56 203c 40f7 bfbc a7cb 383c 2c2d bfbc
000001e0: deb7 8abc faf3 69bb ceaf 933c 49a5 50bc
000001f0: eba9 e5bc 4460 163c 3d17 01bc 5d9c e13c
00000200: 431c da3c 9d95 0b3b 6164 b8ba 4557 873b
00000210: 5a24 853c da27 d8bc 675f 56bc 2bc6 b03a
00000220: 41e0 b3bc 1107 07bc d169 49bc aad9 a3bb
00000230: db96 f0bb 30c7 48bc 46be 0a3d 4bcd 723c
00000240: 0a21 2abc 5e10 663c a4a2 a3bc 493c bdbc
00000250: 3a78 213c 70cb a2bc 5eb3 c6bb e8ff d13a
00000260: 35da 8dbc b6dd 603c 4ce9 a83c 681e 143d
00000270: 4e63 ed3c 91c7 9b3c aafb abbc 65c4 e7bb
00000280: f810 ed3c 4809 253c 62d3 093c 9641 c03c
00000290: 1cfa b13c 2b38 52bc a94a 123c eefa a83b
000002a0: 1164 d5bc 0545 51b7 b1a7 1eba 246a b6bc
000002b0: 1fec 45bc 24f0 d03c 3bb1 b6bb 43d4 c43c
000002c0: ec20 2dbc 1e10 073c 7ae5 84bc 134a 08bc
000002d0: 3665 9cbc 973c d0bc 4e21 74bb aa7f 093d
000002e0: dfed af3c 0f95 1fbc e025 eb3c 0e9b 963c
000002f0: f0ab b83c 67c1 0fbc 61b0 823c 089b 863b
00000300: 8ea7 92bc b014 80bc 8d28 f2bc 8b52 fdbb
00000310: c5bc bcbc 9bba 2a3d 3b85 963c 4453 2bbc
00000320: 7a31 7c3c 919d 59bc c05e 8a3c 5002 ccbc
00000330: 1497 953c 18cd 153c 1c64 74bb e958 26bc
00000340: 9501 483c 3fcf b73c 96c1 e6bc b77c d33c
00000350: faf7 72bc 9b0b 1ebc 902b 85bc 3086 d43c
00000360: 2c4e d7bc 00c5 aa3b 0228 40bc 5b14 c9bc
00000370: 878f 4b3c f32c 72bc a516 d1bc 8ffb d83b
00000380: e3e5 f83c 0082 c7bc f909 bbbc f560 a1bc
00000390: a62a 89bc e258 b6bc 8a2d 8c3c f35e 8f3b
000003a0: 64fa b83c bee7 063c f0e8 a63c 6f5a 023d
000003b0: f3c2 fcbb 0bbd 1b3c 1c82 cfbc 3028 22b9
000003c0: 1221 04bc 8898 edbc f06f 0d3c 40c6 e6bc
000003d0: a2d4 bbbc 117c 6a3c b87c 0eb9 5295 dbbc
000003e0: e7c8 25bc a36d 4638 6568 d2bc 08c0 92bc
000003f0: c6f5 343c 7899 973c ffcd bc3c d186 c63b
-0.01471744 -0.034446727 -0.010774847 -0.026542304 -0.0066039423 0.014244987 0.009337894 0.010714198
-0.023321845 0.013440524 0.017032888 0.022206962 -0.02580904 0.008173398 -0.028684696 -0.018989101
-0.026511613 -0.018282967 -0.02134232 -0.031956874 -0.0078201825 -0.020529842 -0.013874157 -0.0014611428
-0.008169127 -0.0047358004 0.0056591383 0.008043304 0.00067868485 -0.0012887627 0.00096368336 -0.0017385039
-0.00042384383 -0.0011414791 0.024329675 0.025538687 -0.032967392 -0.017458728 0.0042019943 -0.024927314
-0.0050049582 0.020658972 0.016277937 -0.007218435 -0.025427053 0.0020532964 0.009508592 0.021362621
0.03052535 0.022633798 -0.0041715973 -0.009147018 -0.0059816805 0.014206514 0.010117219 -0.006515583
-0.00956921 -0.01916858 -0.02052847 -0.020920137 -0.0014516298 -0.016244665 0.0115786465 -0.007291865
-0.018294483 -0.020380832 0.013078172 0.018706823 0.018822793 -0.022500196 0.031759426 0.006658729
0.006375336 0.029156 -0.015124489 0.0013706131 -0.00616763 -0.03146464 -0.022275375 0.028985016
0.02227076 -0.011109504 -0.020556588 0.014665244 -0.023034142 0.020405365 0.019384807 -0.01212712
0.019822216 -0.028019534 0.0069668675 0.015058831 0.02283742 -0.0084857615 0.0081729675 0.041428853
0.0068733357 0.012360406 -0.039271805 0.010245766 -0.025394617 0.025429413 -0.0113922125 -0.031046966
-0.015214763 0.03500501 0.016619585 -0.006951768 0.027351929 -0.015332326 0.022261199 0.031780127
-0.022036796 -0.0011877026 0.008820154 -0.016114822 0.00978617 -0.023433328 0.011279023 -0.02333697
-0.016933378 -0.00356984 0.018028166 -0.01273472 -0.028035125 0.009178225 -0.007879076 0.02754038
0.026624804 0.0021298893 -0.0014068001 0.0041302764 0.016252685 -0.02638619 -0.013084269 0.0013486793
-0.021957519 -0.008241431 -0.012293295 -0.005000313 -0.007342202 -0.012254521 0.033872865 0.0148194535
-0.010383854 0.014041988 -0.019975014 -0.023100035 0.009855324 -0.019872397 -0.0060638627 0.00160217
-0.017315963 0.013724735 0.020619057 0.03616181 0.028978016 0.01901606 -0.020994026 -0.0070729726
0.028938755 0.010073014 0.008412214 0.023468774 0.021725707 -0.012830774 0.008928933 0.0051568663
-0.026048692 -1.2473441e-05 -0.00060522096 -0.022267409 -0.012080221 0.025505133 -0.0055753267 0.024026996
-0.010566931 0.008243589 -0.016222704 -0.008318442 -0.01909123 -0.025419516 -0.0037251296 0.033569016
0.02147573 -0.009740128 0.028704584 0.018384483 0.022542924 -0.008774138 0.015953245 0.0041078366
-0.017902162 -0.015634865 -0.029560352 -0.007730787 -0.023039231 0.041681867 0.018374076 -0.010456864
0.0153926555 -0.013282196 0.016890883 -0.024903446 0.018260516 0.009143136 -0.0037291115 -0.010153034
0.012207408 0.02243769 -0.02816848 0.025816305 -0.01482963 -0.009646322 -0.016256124 0.025942892
-0.026282392 0.0052114725 -0.011728289 -0.024545839 0.012424356 -0.014781225 -0.025523493 0.006621785
0.030383056 -0.024353981 -0.022831904 -0.019699553 -0.01674397 -0.02225918 0.017111558 0.0043753325
0.022580333 0.008233963 0.020374745 0.031824525 -0.0077136694 0.009505521 -0.025330596 -0.00015464495
-0.008064525 -0.029003397 0.008632645 -0.028170705 -0.02292854 0.014311806 -0.00013588637 -0.0268046
-0.0101187 4.7308986e-05 -0.025684545 -0.017913833 0.011044925 0.018505797 0.023047445 0.006058552

Block1.4.weight f4 [196]
00000000: 559f 803f ee86 7f3f 0599 7c3f dccc 7f3f
00000010: 5839 853f df69 823f cc0d 7e3f 0254 803f
00000020: 6309 7d3f 1527 7d3f 8f36 833f 3ec6 803f
00000030: 7f28 7f3f d2f0 7f3f c169 823f 8967 7e3f
00000040: 1955 7e3f 5533 813f 6526 813f 71ad 803f
00000050: bc77 7c3f f660 803f bb6f 7b3f b4ae 813f
00000060: 62ca 7e3f afe4 7f3f c44f 7a3f 3189 803f
00000070: 4437 803f 9395 813f 0913 803f eab9 7d3f
00000080: 38f0 7e3f 5fd4 7e3f 5748 7f3f bd3f 813f
00000090: 488f 7e3f 624a 7e3f d00c 803f 39ba 813f
000000a0: 99aa 7c3f 5cbb 7e3f f2cd 7d3f 4a71 813f
000000b0: 5b7d 813f abdf 823f 6a27 813f 84ad 803f
000000c0: c847 7e3f 4728 7b3f 93cb 7d3f 8d1a 813f
000000d0: 4167 7f3f eb86 813f 0542 813f 326c 813f
000000e0: e3f9 823f f1fb 7e3f 8d17 803f 7148 7f3f
000000f0: 90d7 803f 00db 7e3f d8a8 813f 7f83 7f3f
00000100: 2a97 7d3f 1e17 803f e1f5 823f dcec 7b3f
00000110: 708c 7c3f ce42 803f 5ce0 7f3f 2540 813f
00000120: bb9f 7d3f 661e 7f3f 2de4 803f 231e 7d3f
00000130: 3b73 803f 3fe3 7c3f 4c70 7d3f 9273 7c3f
00000140: ddac 803f 0931 7a3f 28d1 803f ffde 803f
00000150: a14c 7e3f ff46 813f 903f 7c3f 3138 7e3f
00000160: b113 7e3f d330 863f ecba 803f 248c 803f
00000170: 2398 7f3f a011 823f 70b4 7e3f e3c2 7f3f
00000180: 5d84 7d3f fa52 7c3f 1b16 7f3f 9224 863f
00000190: c932 7e3f f1b6 7d3f d999 813f 2d2b 7e3f
000001a0: 4219 7f3f 919f 803f 755d 803f 85ea 7f3f
000001b0: 74d0 823f abe3 7c3f a767 7f3f da3f 803f
000001c0: 8532 883f a392 823f 23c2 813f b735 803f
000001d0: a309 803f 1866 7e3f 1fc8 793f 09c1 803f
000001e0: a429 803f 7d8c 823f 5b7c 823f 2865 7f3f
000001f0: e3a4 813f 80f5 7b3f 617a 7e3f 4df0 7e3f
00000200: 7b69 823f 6331 7e3f de3d 7f3f bf9a 813f
00000210: ee6d 7e3f bee8 7e3f ac94 7e3f d291 7e3f
00000220: cf0a 7e3f 48d4 803f 452a 803f 5bd3 7d3f
00000230: 3361 813f d1c3 7f3f f0fa 7d3f aecd 813f
00000240: 615f 7d3f b83a 803f d60e 7f3f 9dfa 803f
00000250: 950b 7f3f adca 7d3f 07c2 7d3f 0913 873f
00000260: e55d 803f a0bc 7c3f f212 803f 3e6d 813f
00000270: dc24 823f 9f8f 7f3f 88be 813f da19 7f3f
00000280: f0cd 803f 2608 7e3f f94a 7f3f f6ea 803f
00000290: f8fe 7d3f 9302 7c3f 910f 7b3f 7d81 7e3f
000002a0: a476 803f 4df9 7e3f cb30 7e3f 58ea 803f
000002b0: f35b 7f3f 7798 823f 8a08 7f3f 78ba 7d3f
000002c0: 20e6 7b3f e5b9 7b3f a2a0 803f b040 803f
000002d0: 635d 823f bfed 7e3f acdb 813f d0f0 7f3f
000002e0: ace9 813f d8eb 7e3f daec 7e3f 904c 813f
000002f0: 151b 7f3f 93c3 7e3f 57e0 7e3f 1358 7e3f
00000300: 67d5 813f 9146 7e3f 7a74 7d3f 5323 7f3f
1.0048624 0.9981526 0.9867099 0.99921966 1.0408125 1.0188559 0.992398 1.0025637
0.9884245 0.9888776 1.0251025 1.0060499 0.9967117 0.9997684 1.0188524 0.9937673
0.993486 1.009379 1.0089842 1.005293 0.986202 1.002959 0.9821736 1.013144
0.9952756 0.9995832 0.9777796 1.0041867 1.0016866 1.0123771 1.0005809 0.9911181
0.99585295 0.995428 0.99719757 1.0097576 0.9943738 0.9933225 1.000391 1.0134956
0.9869781 0.9950464 0.9914237 1.0112698 1.011638 1.0224508 1.0090153 1.0052953
0.9932828 0.98108333 0.99138755 1.0086228 0.9976693 1.0119299 1.0098273 1.0111144
1.0232509 0.9960318 1.0007187 0.9971991 1.0065784 0.9955292 1.0129652 0.9981002
0.99058783 1.0007055 1.0231286 0.98408294 0.9865179 1.0020387 0.9995172 1.00977
0.99071854 0.9965576 1.0069634 0.9887411 1.0035166 0.9878425 0.98999476 0.98613846
1.0052754 0.9773107 1.006383 1.0068053 0.99335676 1.0099791 0.9853449 0.9930449
0.99248797 1.048365 1.0057044 1.0042768 0.9984152 1.0161629 0.99494076 0.9990675
0.99030095 0.9856411 0.99643105 1.047991 0.9929624 0.9910727 1.0125076 0.9928463
0.99647915 1.0048696 1.0028521 0.99967223 1.0219865 0.98784894 0.99767536 1.0019486
1.0640417 1.0201 1.0137371 1.0016392 1.0002941 0.9937453 0.97570986 1.005891
1.0012708 1.0199124 1.01942 0.9976373 1.0128444 0.9842148 0.99405485 0.9958542
1.018844 0.9929411 0.99703777 1.012535 0.9938649 0.99573886 0.99445605 0.99441254
0.9923524 1.0064783 1.00129 0.9915063 1.0107788 0.9990817 0.99211025 1.0140893
0.9897366 1.001792 0.9963201 1.0076481 0.9962705 0.99137384 0.9912419 1.0552684
1.0028654 0.9872532 1.0005782 1.0111463 1.0167499 0.99828523 1.013627 0.9964882
1.0062847 0.99231184 0.99723774 1.0071704 0.99217176 0.9844143 0.9807063 0.99416333
1.0036206 0.9959915 0.992932 1.0071516 0.9974968 1.0202779 0.99622405 0.99112654
0.9839802 0.9833053 1.0049021 1.0019741 1.0184749 0.9958152 1.0145164 0.99976826
1.0149436 0.9957862 0.99580157 1.010149 0.996507 0.9951717 0.99561065 0.9935314
1.014325 0.99326426 0.99005854 0.99663275

Block1.4.bias f4 [196]
00000000: bd05 583d 4740 413c 4e6c c13c 37bc 083c
00000010: 7392 933d 7fea 0bbc 7078 8bbc 8392 b63c
00000020: 34f2 d7bb 2353 4dbc d428 913c f3a4 093c
00000030: d345 16ba e9a5 9cbd 1214 4a3d dc8e 54bc
00000040: 6116 143c 2704 3c3c a9fe 18bd 97e0 a93c
00000050: e349 8c39 c8f4 0d3c 3fb8 11bd c2fd db3c
00000060: 44aa 623c 3956 2b3c 6bb9 08bd 897b aaba
00000070: 3be4 383d 88ff 423c a71e 943a d599 4c3c
00000080: 8a7c c63c 6f4d fc3c 218c 69bd b0d0 b6bb
00000090: f89f b73c a36f a0bc 1ac6 20bd 62f5 753c
000000a0: 2da3 463b 3ada 8f3d d71b 9ebc 3702 883d
000000b0: 3979 3c3d 21a2 25bc f98e 023c 9816 433d
000000c0: 7200 54bc efa0 26bc ce3d c43c 3925 b4bb
000000d0: 1f27 61bb a431 c9ba f8f1 2a3c d2fb 2bbb
000000e0: 4189 003d f3bc f83c 6ecc 043d 0477 36bc
000000f0: b874 6f3c 9bc5 ed3a cb29 843c ff7a d63c
00000100: 8958 8b3b 44f6 363c 17a1 c13c 534d f4bc
00000110: 9489 3ebc fd94 203d fc1a c83b a262 2bbc
00000120: 65a6 043c 1189 0d3c 05e4 d3bb ad71 8e3d
00000130: f271 9bbc 733a c6bc 45db 57bc 9265 3cbc
00000140: 6c7d 993c 0b1c 9abb 83fd af3c 51df 0f3c
00000150: 1f59 1ebc a8e0 0f3d b2e5 ae3b 4f2a 133d
00000160: 083e dbbb acca 833d 96ec 813b 10ab 983d
00000170: 0547 a0bc 0788 a83b fead 133d 83ca 8d3a
00000180: d7dd 8c3b 0b95 eb3a a5eb 8d3c 5733 6c3c
00000190: fc20 0abc 9885 e2bb 8d56 e0bb 1213 b5bb
000001a0: 3161 3b3c e736 b43c 369e 953c b4d9 c93c
000001b0: 7879 853d d489 b3bb 1502 1c3d 1e7b 3a3d
000001c0: 8831 b93c 09db 5a3d f3b8 ad3c ecd3 f9bb
000001d0: e7f1 1f3c 2564 f8b7 d9ca 82bd ab34 553d
000001e0: 5ba2 6a3b 187b 3ebd 9732 173d df20 483c
000001f0: fbaa 7dbd e921 b5bb 3f22 a2bc 48fd d8bc
00000200: df8a a33b acfd 7abc 8b33 db3c bb26 d73c
00000210: fdfc aebc 1e6e 233d a137 e13c e970 31bc
00000220: 21e6 84bc bdf2 cc3c d652 5e3b 935b 33bc
00000230: a87f 973c d6a3 623c 908b 173c ce8f 273d
00000240: b30c 2f3c 09d9 333d ca80 763c 0ad5 15bd
00000250: 0d0b 54bb b92f 943c e409 423c ae28 8f3c
00000260: 8c79 87bc 7730 01bd 33e8 d5bc cee7 123d
00000270: c924 163d 89aa a83b bfd6 343b 1222 d9bc
00000280: 1e69 813d f24b c8bb c3c7 68bd bd81 94bd
00000290: 62c5 383c d4e1 a2bb b0ad 343c 103c 3b3b
000002a0: d0f9 bd3c e9af e0bc 59ec 1cbc f0c8 57bc
000002b0: 3a0f c9bb fc24 d53d ac8f d13a 87c1 7a3b
000002c0: ef02 9a3c cbc1 36bd bb6c 9b3d d55f 063d
000002d0: 6aa6 fbbc ca42 023b c7c9 d03c e606 ba3c
000002e0: fd88 133c a4a8 ecbc 0ea6 fd3a 724a 683c
000002f0: f90c 43bc ead5 423c 4d64 693c e821 a0bb
00000300: 7b13 f73b 2f03 e9bc 9b3d 33bc ce5c 753c
0.052739847 0.01179511 0.023611214 0.008345655 0.07205667 -0.008539795 -0.017025203 0.02228666
-0.006590152 -0.012532028 0.017719664 0.008401143 -0.00057324505 -0.07648832 0.049335547 -0.012973513
0.009038539 0.011475599 -0.037352238 0.020736976 0.0002675793 0.008664317 -0.0355761 0.0268544
0.01383454 0.010457569 -0.033379953 -0.0013006787 0.045139533 0.011901744 0.0011300639 0.012487848
0.024229307 0.030798642 -0.057018403 -0.0055790767 0.022415146 -0.019584483 -0.039251424 0.015012117
0.0030309663 0.07024045 -0.019300384 0.066410474 0.046014044 -0.010109455 0.007968658 0.04762897
-0.012939559 -0.0101702055 0.023955252 -0.0054976013 -0.0034355593 -0.0015349877 0.010433666 -0.0026242626
0.031380896 0.030363536 0.03242152 -0.011136774 0.01461523 0.0018140556 0.01613321 0.026181696
0.0042524976 0.011167113 0.023636384 -0.029822027 -0.011629481 0.039204586 0.0061067324 -0.010460528
0.008096312 0.008638636 -0.006466391 0.06955276 -0.018975232 -0.024197793 -0.0131748365 -0.011498826
0.018736564 -0.00470305 0.021483188 0.00878127 -0.009664803 0.03512636 0.0053374404 0.03592902
-0.0066907443 0.06435141 0.003964971 0.074545026 -0.019565115 0.005143169 0.036054604 0.00108178
0.0042989063 0.0017973495 0.017324278 0.014416537 -0.008430716 -0.0069128983 -0.006846255 -0.005525955
0.011436746 0.021998836 0.018263917 0.024639942 0.06517309 -0.005479077 0.038087923 0.04552757
0.022606626 0.053431544 0.021206355 -0.00762414 0.009762264 -2.9610537e-05 -0.06386346 0.05205218
0.0035802338 -0.04650411 0.03691348 0.012214868 -0.061930638 -0.005527724 -0.01979172 -0.026487961
0.00499092 -0.015319269 0.026757976 0.026263585 -0.021360869 0.039899938 0.027492346 -0.010830143
-0.016223015 0.02501809 0.0033923886 -0.010947126 0.018493488 0.013833007 0.009249583 0.040908627
0.01068418 0.043908153 0.015045354 -0.036580123 -0.003235522 0.018089162 0.011843178 0.017475452
-0.01653745 -0.03154036 -0.026111698 0.035865597 0.036656175 0.0051472825 0.002759382 -0.026505504
0.06318878 -0.006112569 -0.056831133 -0.07251308 0.0112775285 -0.0049707685 0.011027738 0.0028569736
0.023190409 -0.02742763 -0.009577834 -0.013170466 -0.0061358484 0.10407445 0.0015988252 0.0038262324
0.018800227 -0.04461841 0.07589098 0.032806236 -0.030719 0.0019876235 0.02548684 0.022708368
0.0090048285 -0.028889008 0.0019351856 0.014177905 -0.011904948 0.011891821 0.014245105 -0.0048868544
0.007540164 -0.0284439 -0.010939981 0.01497574

Block1.4.running_mean f4 [196]
00000000: 5e63 a0bc 43e8 ccbc 5ed4 91bc be1a df3c
00000010: 04a5 f9bc 6628 6b3b a1f9 03bc d17d 1c3d
00000020: 892b a0bc b608 493a a5e7 debc 647d 40bc
00000030: 0400 0080 9132 c63c 2443 a83c d7f8 96bc
00000040: 34f9 e13b 1e10 bd3c 6156 8dbc a4ec 2ebc
00000050: f39f 8c3c 2cda dbbb d261 de3a 471c ddbb
00000060: 9933 77bc 4911 8f3c 09af 923c 970a ccbc
00000070: 7afe 1d3d bfc2 0e3d aacd 83bc e7fe 46bc
00000080: 5604 70bc 1c74 fa3c c926 23bc 224f 973c
00000090: e1e7 95b9 947a 063c da2e 6abc 171d f03c
000000a0: c8cf 793c 0ccd 393c 66d0 0fba 0982 21bc
000000b0: 2d91 dcbb d402 763c c4ab b33c 960f 083c
000000c0: 45a3 d2bb 5ece 9e3c a909 ae3c 67d4 263c
000000d0: 0d4a 9cbc 8145 eebc 6d04 52bc cb69 eabc
000000e0: b4e0 4b3c c79f 1f3c 0ac3 1f3b 8b9d a837
000000f0: 450d 98bc 376a ab3c b305 8b3c d0dd 8e3b
00000100: 121d 21b9 2a2b c5b9 b5a2 9ebb bd76 523c
00000110: 41f0 3ebb 7db1 dd39 2bd4 58bc b6d6 6a3c
00000120: d9a0 20bc b6ef b3ba 1e63 413b bf30 babb
00000130: b851 423c 9c98 39bd 78fb 5cbc 86d1 06bc
00000140: 851d 343b a0fe b738 4acf 18bc 337f b6bb
00000150: fe97 c0ba f0fc 89bb c328 a43c b11d 89bb
00000160: ffbe 923b 045c ccbc be0b 8fbc f248 9abc
00000170: 6f8f aa3a 7290 a73c c1f0 64bb bd90 85b9
00000180: e05e 2c3c 7574 94bc ef99 57bb 3033 14bb
00000190: 6dfb 2ebc 8c81 d83a 1585 eebc 0c7b a8b8
000001a0: e500 24bc 29aa bebb 4363 9f3c b18b b8bc
000001b0: 72fb 30bc 4d8f 3e3c eae6 02bd 86df 6d3c
000001c0: 9096 5bbc e0d7 9b3c ecf7 9cbc 39f5 8f3c
000001d0: 4be6 55bc 6268 8c3c 4db2 b23c 4ea9 193c
000001e0: be8e 10bc 2883 aaba a06b f5bb a0e6 6cbb
000001f0: 079f 163c e246 b7bb 820c 923b e173 d9bc
00000200: 3681 42bd 8417 d3bc 40b5 a3ba 05d0 013c
00000210: 33dd 15b9 eef8 f7bb 74ac 573d e1b3 16bc
00000220: 9b3d e83b 730d 2bbc 46ca 02bc 30b9 bc3b
00000230: 7acd 91bc 62f5 7ebc a534 7cbc b1b7 283c
00000240: f959 a73c a62e 623b 7fc5 92bc fe73 953c
00000250: 9083 493b 2d66 2bbc 6325 ff3c 3f3f 77bb
00000260: ddaf 893b 8d77 89bc ec89 a73c 1925 4bbc
00000270: a520 0ebd 4f34 40bc a0de e8bc c36f bd3b
00000280: 25aa 79bc b4d5 adbb 9887 8139 f4c6 41bc
00000290: b0b3 893c 1145 c23c 8694 11bc c87a 773b
000002a0: 315c 433c 831d 64bc e0e1 adbc ac9c 25bc
000002b0: 2cef 4b3c 62d9 0f3a cc1c 81bc 496c 86bc
000002c0: be16 13bd bf5f 303c 7231 e73c 00ab 9cbc
000002d0: 425b 1e3c a2df 0bbc 53dd b3bb eee7 f8bc
000002e0: e90a 8abb 099c 033d 1d55 d3bc ae06 533c
000002f0: 0400 0000 d6e9 09bc 8edf d33b a248 dc3c
00000300: 7fde ae3c 6c86 033c 4b78 d63b 9c78 8a3c
-0.019578632 -0.025013095 -0.01780146 0.027234431 -0.030474193 0.0035882234 -0.008055122 0.038205925
-0.01955201 0.00076688395 -0.027210066 -0.011748645 -6e-45 0.024194034 0.020539828 -0.018429203
0.0068961624 0.023078974 -0.017253103 -0.010676537 0.017166113 -0.0067093577 0.0016966409 -0.0067477557
-0.015087985 0.017464297 0.017905729 -0.024907393 0.038572766 0.034853693 -0.01608928 -0.012145734
-0.014649471 0.030572943 -0.009957978 0.01847035 -0.00028592258 0.008207936 -0.014293397 0.029310746
0.015247293 0.011340391 -0.0005486071 -0.009857663 -0.0067311735 0.015015323 0.02193249 0.008304497
-0.0064281547 0.019385513 0.02124484 0.010182477 -0.019078279 -0.029085876 -0.012818438 -0.0286149
0.01244371 0.009742684 0.0024377727 2.0100522e-05 -0.018561015 0.02092467 0.016970491 0.004359938
-0.00015364986 -0.00037606928 -0.0048411735 0.012845692 -0.0029134902 0.00042284644 -0.013234179 0.014333418
-0.009803974 -0.0013728056 0.0029508541 -0.0056820805 0.011860304 -0.045311555 -0.013487689 -0.008228665
0.0027483415 8.7735476e-05 -0.009326765 -0.0055693625 -0.0014693735 -0.0042110607 0.020038968 -0.0041844477
0.004478335 -0.02494622 -0.017461654 -0.018833611 0.0013012717 0.02045462 -0.003493354 -0.00025475575
0.010520667 -0.018121937 -0.0032898148 -0.0022613518 -0.010680062 0.00165181 -0.029116193 -8.0337835e-05
-0.010009979 -0.0058186245 0.019456511 -0.022527548 -0.010802137 0.011630845 -0.031958498 0.014518624
-0.013402596 0.019023836 -0.019161187 0.017572986 -0.013055394 0.017139617 0.021813536 0.009378744
-0.008823095 -0.0013009058 -0.0074896365 -0.0036148205 0.0091931885 -0.0055931667 0.0044570575 -0.026544513
-0.047486506 -0.025768049 -0.001248993 0.007923131 -0.0001429215 -0.0075675165 0.0526547 -0.00919816
0.007087422 -0.010440218 -0.007982796 0.0057593808 -0.017798174 -0.0155614335 -0.015393411 0.010297702
0.020428644 0.0034512668 -0.01791644 0.018243786 0.0030748583 -0.010461372 0.031145757 -0.0037726907
0.0042018727 -0.016780639 0.020451508 -0.0123989815 -0.0346991 -0.011731221 -0.028426468 0.0057811453
-0.0152383195 -0.0053050164 0.00024705823 -0.011827219 0.016809314 0.023714574 -0.008885508 0.0037762392
0.011923836 -0.013923052 -0.02122587 -0.010108154 0.01244716 0.00054874097 -0.015760802 -0.016409056
-0.03591036 0.010765015 0.02822182 -0.019124508 0.009665312 -0.008537205 -0.0054890304 -0.03038403
-0.0042127264 0.03213123 -0.025797421 0.0128800105 6e-45 -0.008417567 0.006465859 0.026890103
0.021346329 0.008027654 0.0065451018 0.016903214

Block1.4.running_var f4 [196]
00000000: 4c18 873a 3a6d cc39 7869 9138 97d3 b53a
00000010: db76 ee39 7240 3f39 984c 9139 51b3 c43a
00000020: ded4 2d3a 404e 2e3a 4cf9 9e3a 1aa4 023a
00000030: 0400 0000 188a 8439 0208 5d3a badc 093a
00000040: 9df3 1a3a c295 a93a dc77 cf39 ef96 0a39
00000050: 892e 413b 1593 f838 f86f 513a 7599 aa3a
00000060: 159a 783a 42c2 0539 446a 3039 b7e2 ff3a
00000070: 29db f73a 667f 693a 4933 ad39 d372 2a3a
00000080: 41f9 c33a 4331 533a 348f 6139 b696 ad38
00000090: 4e3e 9239 e016 893a aa3d 2e39 85e8 f738
000000a0: 5e28 873a 8c46 9239 4dd3 b538 6cac 313a
000000b0: 6f4d 8c39 b91f ee39 1814 573a 2f5a 4d39
000000c0: fd3d 3139 1673 9a38 e4bd 863a f728 bf39
000000d0: 3ace b93a 181f 3639 c834 f33a 2c5f 6c3b
000000e0: 4b5f a73a dba5 1539 9bf0 a838 68cb 7c39
000000f0: 43ee da3a 8847 cc3a 3447 803a 63d4 fe39
00000100: b108 a639 3879 523a 933c 283a 38c1 003a
00000110: dd78 cc37 7d35 6339 9a87 2939 a62a 363a
00000120: c034 9139 31c1 723a c8a7 9539 9554 aa39
00000130: c647 3539 c0b5 2b3a 61d9 d73a 430b 3838
00000140: 5819 a038 e9f4 ed39 e489 313a 2547 0f3a
00000150: c05f 893a 401d 433a 55e8 3539 4c4e 2037
00000160: 83e5 e239 dc15 263a 03c3 353a af31 3b3a
00000170: 4b57 973a fe88 133a 3017 8039 a355 093a
00000180: 972b 3439 2e15 6d3a 38d6 b538 5f3d ac38
00000190: 7f6c 9538 4a63 863a 89b8 8e3a 469c e12e
000001a0: 497e bd39 8350 d539 d20e 553a eb27 c33a
000001b0: 6b36 4539 301f c739 54a1 a13a c779 7839
000001c0: 8ca1 8b3a 406b 033b 549e 363a 69a1 8a39
000001d0: 5f8f e839 1778 9839 8fbe 4839 b53a bb39
000001e0: 8eb8 2438 681f bd39 7d2c a739 1a3d 8539
000001f0: b203 ea39 b562 5938 e536 8337 8e6c bd39
00000200: 5da3 2f3a d8a2 5b3a c5d1 083a 93ea 2f39
00000210: 14cc 873a 1efa 8639 7794 8439 1f2a 063a
00000220: dcfe 153a 0a9d fc38 4de2 da38 3427 8e3a
00000230: abb2 c239 f91a b239 2ca5 a439 4d15 0d39
00000240: b40b 743a 94b6 3c3a 067c 0b3a 1663 9c39
00000250: 4f15 2139 8672 b539 e891 8639 70c3 8239
00000260: b60c ea39 9e76 5239 d3fd 4d3a 7d3d 803a
00000270: d1d4 213a 83f6 e638 c91d cf3a b6fb 1039
00000280: 36d7 463a aea5 f038 7c69 643a fe0a 393a
00000290: b34b 8839 81de a739 fd3c 6438 535a 923a
000002a0: 52fc 903a 2feb c93a 7686 343a 71a9 123a
000002b0: ab98 4b38 a70b 473a fe0a ad39 cc47 a139
000002c0: 5b6e 393b 3d6c 3439 14c7 113a 6381 143a
000002d0: 3ac8 d739 6e2c e539 9cd6 663a 0b53 363a
000002e0: a369 b839 1ca7 ca39 7d85 233b 16a4 8838
000002f0: 0400 0000 9dbf a838 6caf 273a 650b ba3a
00000300: 06e8 e739 2291 3d39 bc25 0239 aa59 d439
0.0010306924 0.00038991292 6.933784e-05 0.0013872263 0.00045483452 0.00018239187 0.00027713622 0.0015007054
0.0006631146 0.00066492334 0.001212874 0.00049835595 6e-45 0.0002527989 0.0008431674 0.0005259026
0.0005910935 0.0012938308 0.0003957142 0.00013216933 0.00294772 0.00011852958 0.0007989402 0.0013015704
0.0009483409 0.00012756235 0.00016824255 0.0019522522 0.0018909919 0.00089072285 0.00033035342 0.00065020955
0.0014951603 0.0008056352 0.0002151102 8.277355e-05 0.0002789371 0.0010459088 0.00016616905 0.00011821188
0.0010311713 0.00027899852 8.6701104e-05 0.0006777707 0.00026760573 0.00045418533 0.00082045933 0.0001958392
0.00016903128 7.364729e-05 0.001027998 0.0003646088 0.001417584 0.00017368456 0.0018555159 0.003606747
0.0012769488 0.00014271533 8.0556805e-05 0.00024108368 0.0016703088 0.0015585283 0.0009786845 0.00048604896
0.00031668463 0.0008028927 0.00064177177 0.00049116043 2.4374976e-05 0.00021668333 0.00016167611 0.0006949104
0.00027695857 0.0009260355 0.000285445 0.00032487945 0.00017288243 0.0006550215 0.0016467982 4.3879507e-05
7.634115e-05 0.00045386635 0.00067725615 0.00054656185 0.0010480806 0.0007443018 0.00017348056 9.554973e-06
0.0004327708 0.0006335655 0.0006933661 0.00071408873 0.0011546401 0.00056280184 0.00024431339 0.0005238896
0.00017182376 0.00090439885 8.670654e-05 8.2130304e-05 7.1250826e-05 0.0010252979 0.0010888736 1.0259575e-10
0.0003614298 0.00040686512 0.00081275136 0.0014889216 0.00018807656 0.00037979474 0.0012331405 0.00023696489
0.0010653003 0.002005294 0.0006966342 0.0002644167 0.00044357308 0.00029081173 0.00019144475 0.0003571116
3.9272527e-05 0.0003607229 0.00031885869 0.0002541326 0.0004463471 5.182876e-05 1.564198e-05 0.0003612977
0.0006700063 0.00083784526 0.00052192464 0.00016776686 0.0010360503 0.00025744824 0.00025287617 0.0005117971
0.0005721876 0.00012045547 0.00010437202 0.0010845424 0.00037135681 0.00033970902 0.0003140358 0.00013454743
0.0009309605 0.0007198837 0.000532091 0.00029828463 0.00015362095 0.00034608337 0.0002566718 0.00024941145
0.00044641428 0.00020071349 0.0007857952 0.000978395 0.0006173375 0.00011013171 0.0015801723 0.0001382668
0.00075851695 0.00011474952 0.0008713228 0.0007058828 0.00025996342 0.000320185 5.4416236e-05 0.0011165835
0.0011061525 0.0015405173 0.00068864913 0.0005594707 4.8541155e-05 0.0007592984 0.0003300532 0.00030761806
0.0028294537 0.0001720646 0.0005560976 0.0005665032 0.00041157176 0.00043711386 0.0008805783 0.00069551234
0.0003517392 0.0003865295 0.0024951391 6.515549e-05 6e-45 8.046555e-05 0.00063966843 0.001419407
0.00044232624 0.00018078511 0.00012411823 0.00040502596
