checkpoint/student_1/casia/client/student_9.pt (torch, 253477 bytes, 50 tensors)

torch.sparse_coo f4 [17]
00000000: b100 16be 411b c43d 80b8 0f3d 699c 80bc
00000010: 00d7 96bd 8250 a1ba 3d67 783c d07f 38be
00000020: 09ba 96bb 7682 d2bd 13a2 323d 4312 083e
00000030: 4ed8 1dbe e6c9 1ab8 48bb 38bd 60f5 c23d
00000040: 572a aebc
-0.14648701 0.09575511 0.035088062 -0.015699582 -0.07365227 -0.0012307318 0.015161333 -0.18017507
-0.004599814 -0.1027879 0.043611597 0.13288216 -0.15414545 -3.6904494e-05 -0.04510048 0.09519458
-0.021260424

conv1.1.weight f4 [64]
00000000: 3f2d 803f ca9d 7f3f 0000 803f 0000 803f
00000010: 0000 803f 268d 7a3f 44a0 813f 0000 803f
00000020: 0000 803f 0000 803f ffc8 7f3f 0000 803f
00000030: 0000 803f 0000 803f 0000 803f 0000 803f
00000040: 0000 803f 0000 803f 0000 803f 0000 803f
00000050: 0000 803f 0000 803f 0000 803f 0000 803f
00000060: 0000 803f 0000 803f 0000 803f 0000 803f
00000070: 0000 803f 0000 803f 0000 803f 0000 803f
00000080: 0000 803f 0000 803f 0000 803f 0000 803f
00000090: 0000 803f 5aaf 813f d789 7f3f 0000 803f
000000a0: 4cf5 7e3f 1c50 803f 0000 803f 0000 803f
000000b0: 0000 803f 0000 803f 0000 803f 0000 803f
000000c0: 0000 803f 87f7 7d3f 9f8a 7c3f 1167 7f3f
000000d0: 0000 803f 0000 803f 0000 803f 0000 803f
000000e0: 0000 803f 0000 803f 0000 803f a753 803f
000000f0: 0000 803f 0000 803f 0000 803f 0000 803f
1.0013808 0.9985014 1.0 1.0 1.0 0.97871625 1.0127034 1.0
1.0 1.0 0.9991607 1.0 1.0 1.0 1.0 1.0
1.0 1.0 1.0 1.0 1.0 1.0 1.0 1.0
1.0 1.0 1.0 1.0 1.0 1.0 1.0 1.0
1.0 1.0 1.0 1.0 1.0 1.0131638 0.998197 1.0
0.99593043 1.0024447 1.0 1.0 1.0 1.0 1.0 1.0
1.0 0.9920582 0.9864902 0.9976664 1.0 1.0 1.0 1.0
1.0 1.0 1.0 1.0025529 1.0 1.0 1.0 1.0

conv1.1.bias f4 [64]
00000000: 7656 dabb d991 6e3a 0000 0000 0000 0000
00000010: 0000 0000 ba08 483c 334a 62bc 0000 0000
00000020: 0000 0000 0000 0000 cb59 c7bb 0000 0000
00000030: 0000 0000 0000 0000 0000 0000 0000 0000
00000040: 0000 0000 0000 0000 0000 0000 0000 0000
00000050: 0000 0000 0000 0000 0000 0000 0000 0000
00000060: 0000 0000 0000 0000 0000 0000 0000 0000
00000070: 0000 0000 0000 0000 0000 0000 0000 0000
00000080: 0000 0000 0000 0000 0000 0000 0000 0000
00000090: 0000 0000 e97f 133d 0a90 d13b 0000 0000
000000a0: 11b7 743d 7bf0 663d 0000 0000 0000 0000
000000b0: 0000 0000 0000 0000 0000 0000 0000 0000
000000c0: 0000 0000 861a 723d 6f02 7f3d 3ca1 df3c
000000d0: 0000 0000 0000 0000 0000 0000 0000 0000
000000e0: 0000 0000 0000 0000 0000 0000 aeaa 003d
000000f0: 0000 0000 0000 0000 0000 0000 0000 0000
-0.006663139 0.00091007125 0.0 0.0 0.0 0.012209112 -0.013811636 0.0
0.0 0.0 -0.006083702 0.0 0.0 0.0 0.0 0.0
0.0 0.0 0.0 0.0 0.0 0.0 0.0 0.0
0.0 0.0 0.0 0.0 0.0 0.0 0.0 0.0
0.0 0.0 0.0 0.0 0.0 0.036010657 0.0063953446 0.0
0.0597449 0.056381684 0.0 0.0 0.0 0.0 0.0 0.0
0.0 0.059107326 0.06225818 0.027298562 0.0 0.0 0.0 0.0
0.0 0.0 0.0 0.031412773 0.0 0.0 0.0 0.0

conv1.1.running_mean f4 [64]
00000000: b80e e83b 0400 0000 0000 0000 0000 0000
00000010: 0000 0000 13da 56bb 902a 71ba 0000 0000
00000020: 0000 0000 0000 0000 0400 0000 0000 0000
00000030: 0000 0000 0000 0000 0000 0000 0000 0000
00000040: 0000 0000 0000 0000 0000 0000 0000 0000
00000050: 0000 0000 0000 0000 0000 0000 0000 0000
00000060: 0000 0000 0000 0000 0000 0000 0000 0000
00000070: 0000 0000 0000 0000 0000 0000 0000 0000
00000080: 0000 0000 0000 0000 0000 0000 0000 0000
00000090: 0000 0000 2357 083d b66e 943c 0000 0000
000000a0: ed0d adba 0400 0000 0000 0000 0000 0000
000000b0: 0000 0000 0000 0000 0000 0000 0000 0000
000000c0: 0000 0000 07d7 bebc 64be f13c d2e8 0d3c
000000d0: 0000 0000 0000 0000 0000 0000 0000 0000
000000e0: 0000 0000 0000 0000 0000 0000 6c98 5bbc
000000f0: 0000 0000 0000 0000 0000 0000 0000 0000
0.0070818327 6e-45 0.0 0.0 0.0 -0.003278379 -0.0009199763 0.0
0.0 0.0 6e-45 0.0 0.0 0.0 0.0 0.0
0.0 0.0 0.0 0.0 0.0 0.0 0.0 0.0
0.0 0.0 0.0 0.0 0.0 0.0 0.0 0.0
0.0 0.0 0.0 0.0 0.0 0.033286225 0.018119197 0.0
-0.0013203003 6e-45 0.0 0.0 0.0 0.0 0.0 0.0
0.0 -0.023295892 0.02950973 0.008661466 0.0 0.0 0.0 0.0
0.0 0.0 0.0 -0.013403039 0.0 0.0 0.0 0.0

conv1.1.running_var f4 [64]
00000000: e4df 983a 0400 0000 0400 0000 0400 0000
00000010: 0400 0000 4708 0a39 3e02 9c3a 0400 0000
00000020: 0400 0000 0400 0000 0400 0000 0400 0000
00000030: 0400 0000 0400 0000 0400 0000 0400 0000
00000040: 0400 0000 0400 0000 0400 0000 0400 0000
00000050: 0400 0000 0400 0000 0400 0000 0400 0000
00000060: 0400 0000 0400 0000 0400 0000 0400 0000
00000070: 0400 0000 0400 0000 0400 0000 0400 0000
00000080: 0400 0000 0400 0000 0400 0000 0400 0000
00000090: 0400 0000 7814 373c a9da 5d3b 0400 0000
000000a0: 3d88 1b3a 0400 0000 0400 0000 0400 0000
000000b0: 0400 0000 0400 0000 0400 0000 0400 0000
000000c0: 0400 0000 ee12 bc3b 70be f03b b4ee 213a
000000d0: 0400 0000 0400 0000 0400 0000 0400 0000
000000e0: 0400 0000 0400 0000 0400 0000 166e ed3a
000000f0: 0400 0000 0400 0000 0400 0000 0400 0000
0.0011663404 6e-45 6e-45 6e-45 6e-45 0.00013163789 0.0011902524 6e-45
6e-45 6e-45 6e-45 6e-45 6e-45 6e-45 6e-45 6e-45
6e-45 6e-45 6e-45 6e-45 6e-45 6e-45 6e-45 6e-45
6e-45 6e-45 6e-45 6e-45 6e-45 6e-45 6e-45 6e-45
6e-45 6e-45 6e-45 6e-45 6e-45 0.011174314 0.0033852255 6e-45
0.0005933082 6e-45 6e-45 6e-45 6e-45 6e-45 6e-45 6e-45
6e-45 0.0057395613 0.0073469207 0.0006177232 6e-45 6e-45 6e-45 6e-45
6e-45 6e-45 6e-45 0.0018114473 6e-45 6e-45 6e-45 6e-45

Block1.0.weight f4 [737]
00000000: d612 57bc 78dd 1e3d 686c 993c 9b9c a9bc
00000010: 4a51 1fbd 2c11 1bbd 0e9b e5bc 8bc6 edbc
00000020: 58a2 06bd 5762 27bd 3701 05bd d684 653c
00000030: 9b1a bb3c 98ec 0fbd 58ac a438 b1d9 e4b9
00000040: 54b9 9cb9 6e55 6fb9 80a4 86bc be00 093d
00000050: e6f8 0e3d 4e1e d0bb ad18 bf3c adbe e1bb
00000060: d815 a8bc c6bd 38bc e85b 23bd c657 2a3c
00000070: 8ea5 8d3c b016 96bc 2ede 823c 2f2b 223d
00000080: a0a7 21bc be8c d73c ceae 9d3c 1a7e 223d
00000090: 6236 04bd 06d3 a93c c63b 9dbc 2669 bebc
000000a0: c384 b2bc e014 113c c631 2abc 13bd 03bd
000000b0: 307c b93c 2a1a 1bbd b335 653b d64b fd3c
000000c0: c14c 643a 2b7d 1abd 530c d03c da11 88bb
000000d0: 0443 e43c 5b94 cc3c 16c8 29bd d65c 2f3c
000000e0: 0b55 16bd 5828 a93c 8388 893c 3af6 8fbc
000000f0: b5c4 76b9 5cce 19bd 26e9 d53c 4315 94bc
00000100: f647 6bbc f6b7 eabb 406d c2bc 4be2 bc3c
00000110: 10e1 cc3c 4e49 e23c e01d e13c a676 d4bb
00000120: e066 ed3c d08d f63c de5c afbc a069 323c
00000130: b0e5 253c 7c26 97bc f0d3 a8bc f551 ebbc
00000140: 8758 023d 985f bbbc 261b 1d3c 5e39 c5bc
00000150: 50a6 0e3d 96e6 e1bc 5abc 263d 797b e13b
00000160: 8ba9 e53c 4547 b7bc d0a3 103c a216 09bd
00000170: 2bea 32bc b3c5 e4bc f478 0a3d 8b95 833c
00000180: 4728 293d 7894 983c d625 113d 1c01 913c
00000190: 9f13 a6bc 07d0 103d dbd5 eb3c d225 e2bb
000001a0: 3ad0 133d 5a7b 2a3d 36c5 033c 5636 c4bc
000001b0: 9a6b 043c 40c1 913c 117a 783c 7305 29bd
000001c0: abe9 18bc c8d0 d9bc dec8 113d d7db e3bc
000001d0: 3695 103d f08f b3bc 50f7 493c 508d 413c
000001e0: fe04 8dbc 3097 063c 9b1d 02bd c333 ca3c
000001f0: 1b91 3fbc 40c8 643c db5c d0bc 94e0 24bd
00000200: a98d 6c39 a40a c739 bc5e 8638 59c5 f739
00000210: b371 bfb9 07df 0eba 88eb e43b 2a3a 97b9
00000220: f08a 463a 1e49 843c 459c f6b8 961c 843a
00000230: 6efe c2bc 10fe 2f3c 383d dbbc 5ffb 243d
00000240: 8838 1ebc a176 f93c c665 01bc b6c7 bc3c
00000250: 4e62 bebc e65a 10bd 735c 8dbc 763a cdbc
00000260: 5659 ff3b 4e0a 8b3c 7db5 893c 318f 47bb
00000270: 944b 26bd b0bb cfbc 36a5 063d fb1a 223c
00000280: a3c8 94bc 2af0 0d3d 6e59 f53b 72b6 96bb
00000290: c712 a2bb dba3 dfbc 2876 9bbc fc24 03bc
000002a0: 455d 2dbc 940b 3fb8 4367 5a39 e281 103d
000002b0: 2ca7 133d db4e 1d3d 11c2 363c f79b e9bb
000002c0: b3f3 843c bb21 063c a803 083d aad1 113d
000002d0: 3510 773c b3db 363c d325 8fbc ce0f ffbc
000002e0: b59a eabc c65f e23c 86d8 d7bc 3c0b b63b
000002f0: 4b29 ca3c d0de 3a3c 53b3 1cbd 03f6 123d
00000300: 4ec9 d7bc 030b f83c 2058 0abd dbba 083c
00000310: a035 0b3d b3a0 b13c 0ee1 0fbd d091 89bc
00000320: 33bd 21bd 2bb6 a23c e511 053d d3e3 f63c
00000330: d0ee 493c d068 743c 135b c23c 58db bc3c
00000340: ef68 223d d902 bcbb 79f5 2bbd fe8e f2bc
00000350: 039a 9f3c 4ef8 bdbc c0bc 3fbc a30f 253d
00000360: f0aa 0cbd 4867 863c 42e5 283d 5b23 40bc
00000370: 1ec5 9ebc 90a3 d2bc 4e0a 2a3d 1641 e3bc
00000380: 1200 1f3d 0cf1 16bd 3871 c03c 7278 0abd
00000390: 20d0 793c e7fe 203d 4b68 f2bc de6e 5abb
000003a0: ddd7 3bbd 3640 df3b 6bbf 25bc 7837 243d
000003b0: d0ad 3dbc 21a5 0b3b ddf0 0d3b 9e60 cf3c
000003c0: e9c0 13bd c432 d8bb 25f7 953b 5a3a 20bd
000003d0: 9804 12bd f022 de3c d9d6 dfbc dbc8 15bc
000003e0: eec1 063d 8869 9cbc 0b40 bb3c ba83 16bd
000003f0: 2c17 1dbd 881e afbc 53aa d53c 5e53 013d
-0.013127049 0.038785428 0.01872845 -0.020704558 -0.038895883 -0.037858173 -0.028028037 -0.029025337
-0.032869667 -0.04086527 -0.03247186 0.014008721 0.022839835 -0.035137743 7.852231e-05 -0.00043649742
-0.0002989272 -0.00022824641 -0.016435862 0.033447973 0.034905337 -0.006351269 0.023327196 -0.0068891854
-0.020518228 -0.011275714 -0.03988257 0.010396903 0.017290857 -0.018321365 0.015975084 0.039591964
-0.009866625 0.026312228 0.019248392 0.03967104 -0.032278426 0.020730507 -0.019193541 -0.023243498
-0.021791821 0.008855075 -0.0103878435 -0.032162737 0.022642225 -0.03786675 0.0034974634 0.03091995
0.0008708947 -0.037717026 0.025396502 -0.0041525187 0.027863987 0.024973085 -0.041450582 0.010703286
-0.036702197 0.02064912 0.016788727 -0.017573465 -0.00023533667 -0.037550315 0.02611215 -0.018076545
-0.014360419 -0.007163043 -0.023733735 0.023057124 0.025009662 0.027622845 0.027480066 -0.0064838706
0.028979719 0.030096918 -0.021406587 0.010889441 0.010125563 -0.018450968 -0.020608872 -0.028725604
0.031822708 -0.022872731 0.009588992 -0.024075206 0.034826577 -0.027575772 0.04070697 0.006881174
0.028034946 -0.022372851 0.008828118 -0.03346885 -0.010920088 -0.027926302 0.033806756 0.016062519
0.041298177 0.018625483 0.035436474 0.017700724 -0.020273028 0.03535464 0.028788498 -0.006901481
0.036087252 0.041621543 0.008042624 -0.02395169 0.008082295 0.017792344 0.015165822 -0.041264962
-0.009333055 -0.026588812 0.035591953 -0.027814789 0.03529855 -0.02191922 0.01232703 0.011813477
-0.017214295 0.008214757 -0.031766515 0.024682885 -0.011692311 0.013963759 -0.025434902 -0.040253237
0.00022559486 0.00037964166 6.4072636e-05 0.00047258547 -0.0003651507 -0.0005450104 0.0069860853 -0.000288443
0.0007573804 0.016148146 -0.000117593016 0.001007932 -0.023802962 0.010741726 -0.02676259 0.04027879
-0.009657033 0.030452074 -0.0078978 0.023044448 -0.023240235 -0.035242938 -0.017255997 -0.02505229
0.007792632 0.016972687 0.016810173 -0.003045034 -0.04059942 -0.025358051 0.0328724 0.009894128
-0.018162077 0.034652866 0.0074874675 -0.004599386 -0.004946086 -0.027299812 -0.01897724 -0.008004423
-0.010581319 -4.554873e-05 0.00020828568 0.035280116 0.0360481 0.03840528 0.0111546675 -0.007129188
0.016229486 0.008186753 0.033206612 0.03560034 0.015079548 0.011160779 -0.01747409 -0.031135466
-0.028638223 0.027633559 -0.026348364 0.0055555385 0.024677893 0.011405662 -0.038256954 0.035879146
-0.026341107 0.030278688 -0.03377545 0.008345331 0.033986688 0.021683073 -0.03512674 -0.016793162
-0.039487075 0.019862255 0.03248777 0.030137932 0.012325004 0.014917567 0.023725068 0.02305381
0.039650854 -0.005737644 -0.041982148 -0.0296092 0.019482618 -0.02318969 -0.011702716 0.040298115
-0.034342706 0.01640667 0.041234262 -0.011727179 -0.019381102 -0.025712758 0.041513734 -0.027740996
0.038818426 -0.036850974 0.023491487 -0.03380627 0.015247375 0.039305594 -0.029590746 -0.0033330242
-0.04586016 0.0068130745 -0.010116438 0.04009196 -0.011577085 0.0021308141 0.0021658458 0.025314625
-0.036072645 -0.0065978486 0.004576581 -0.03911815 -0.035648912 0.027116269 -0.027324127 -0.009142126
0.03289979 -0.01909329 0.022857687 -0.036746718 -0.038352177 -0.021376863 0.026082193 0.031573646

Block1.1.weight f4 [128]
00000000: 0000 803f 0000 803f 1540 7e3f 0000 803f
00000010: 0000 803f 0000 803f 0000 803f 0000 803f
00000020: f8c5 7a3f 0000 803f 209f 7e3f 0000 803f
00000030: 3388 813f 653c 7e3f a7c5 7d3f 8e7b 7f3f
00000040: 6759 7f3f abd6 803f 72aa 7e3f 2fb7 7e3f
00000050: 3997 823f 0000 803f 0000 803f 1461 7f3f
00000060: bc9c 803f 0000 803f 0000 803f 68a7 7f3f
00000070: b149 813f 82c1 7e3f ca42 7f3f 7270 7d3f
00000080: d64c 7d3f eb3b 803f 0000 803f 620b 7d3f
00000090: 0000 803f 0000 803f 851b 7f3f acf6 7b3f
000000a0: 0000 803f 5da0 7f3f 664a 7f3f fc7a 7e3f
000000b0: d84f 813f 77a9 803f 0000 803f 88a9 803f
000000c0: 0000 803f 57a6 7f3f bf1d 803f bf8b 7e3f
000000d0: c8cd 7d3f 6ae9 7f3f 0000 803f 062b 803f
000000e0: 0d51 7e3f fe7d 803f 3088 7f3f 75ae 813f
000000f0: b1b2 7f3f 8601 803f 492a 7c3f 0000 803f
00000100: 0000 803f 0000 803f 4a16 803f 12f2 7f3f
00000110: cf20 7f3f 1294 7b3f 0000 803f 0000 803f
00000120: 8a24 803f e22f 7e3f ac48 7f3f 2ade 803f
00000130: 1661 803f 2a36 823f ac4b 803f 54b9 803f
00000140: 0000 803f 0000 803f e7f6 803f 0000 803f
00000150: c7d8 7d3f 0000 803f d699 7f3f 0000 803f
00000160: 20b1 7e3f fe83 803f 13ee 7f3f e337 813f
00000170: 2d79 813f b608 803f 50f1 7b3f 6245 803f
00000180: 0000 803f dfcd 7f3f 0000 803f 0000 803f
00000190: aec0 813f 0000 803f 9162 813f ed44 823f
000001a0: 1662 803f 0000 803f 6ab2 7f3f 3909 7c3f
000001b0: 5604 7f3f 643e 803f 0000 803f 94f8 803f
000001c0: ece6 7f3f e55e 823f 0218 7e3f 5b57 803f
000001d0: 7478 803f 0000 803f 7b9c 7f3f 3ce4 7e3f
000001e0: 5989 803f 0000 803f 3742 7f3f 0000 803f
000001f0: 0000 803f 266c 7d3f 67ad 803f e436 803f
1.0 1.0 0.9931653 1.0 1.0 1.0 1.0 1.0
0.97958326 1.0 0.99461555 1.0 1.011969 0.99310905 0.9912972 0.99797904
0.9974579 1.0065511 0.9947883 0.99498266 1.02024 1.0 1.0 0.99757504
1.0047832 1.0 1.0 0.99864817 1.0100614 0.9951402 0.9971129 0.989997
0.9894537 1.0018286 1.0 0.98845494 1.0 1.0 0.99651366 0.98423266
1.0 0.9985407 0.997229 0.9940641 1.0102491 1.0051717 1.0 1.0051737
1.0 0.9986319 1.0009078 0.99431986 0.9914212 0.99965537 1.0 1.001313
0.99342424 1.003845 0.9981718 1.0131365 0.99882036 1.0000465 0.9850202 1.0
1.0 1.0 1.0006802 0.99978745 0.99659437 0.9827281 1.0 1.0
1.0011151 0.99291813 0.99720263 1.0067799 1.0029628 1.017278 1.0023093 1.0056558
1.0 1.0 1.0075349 1.0 0.991589 1.0 0.9984411 1.0
0.9948902 1.0040281 0.9997265 1.009518 1.0115105 1.0002658 0.9841509 1.0021174
1.0 0.9992351 1.0 1.0 1.0136926 1.0 1.0108205 1.0177284
1.0029933 1.0 0.99881613 0.9845157 0.9961599 1.001904 1.0 1.007586
0.99961734 1.018521 0.99255383 1.0026659 1.0036759 1.0 0.99848145 0.9956701
1.0041915 1.0 0.9971041 1.0 1.0 0.98993146 1.0052918 1.0016751

Block1.1.bias f4 [128]
00000000: 0000 0000 0000 0000 e9f9 693c 0000 0000
00000010: 0000 0000 0000 0000 0000 0000 0000 0000
00000020: 8c4b e43c 0000 0000 eac5 843c 0000 0000
00000030: 352f 4b3c bd61 84bc 2783 fe3c 47d2 b4bb
00000040: 3ddc 483d 5b30 ecba 4b76 44b9 8168 813c
00000050: 5dec 333b 0000 0000 0000 0000 f891 0a3d
00000060: d385 d93c 0000 0000 0000 0000 695b c7bb
00000070: 4c61 8f3d 6f94 da3c 498a cbb9 6b3b ad3a
00000080: 6078 283d 2c01 943b 0000 0000 ba5b 8ebc
00000090: 0000 0000 0000 0000 1621 d43c 2d42 dcbc
000000a0: 0000 0000 25a2 8fba 9c77 92ba d3ef cebc
000000b0: 82a5 6f3c 465d ec3b 0000 0000 8cdb 123d
000000c0: 0000 0000 cb59 f6ba fba6 86b9 ea3f 60bc
000000d0: 1cce 783c 87b3 06bb 0000 0000 1cbb cbbb
000000e0: 5208 ed3c 4802 f43c 5b5b 4bbb ff38 2e3b
000000f0: 5fad 56bb 28f1 59bc 6457 a03b 0000 0000
00000100: 0000 0000 0000 0000 6da2 a03c 14fb a5bb
00000110: f80b e6ba f820 1abd 0000 0000 0000 0000
00000120: e4e0 2d3c 4cc9 b7bb 25dd f3ba 56da a13c
00000130: 89bd 2dbc 32e6 4c3c d904 d5b9 6909 0e3d
00000140: 0000 0000 0000 0000 c0ad 243c 0000 0000
00000150: 2360 213c 0000 0000 734b 2b3c 0000 0000
00000160: c3c7 0e3d 4432 153c b535 8bbb cd7d 04bc
00000170: c4b9 903c 625a 64bb d456 b8bc 0c81 88b9
00000180: 0000 0000 e265 77bc 0000 0000 0000 0000
00000190: 888b 493d 0000 0000 af15 5a3d b9d5 893d
000001a0: afbe 62ba 0000 0000 45b0 90bb 005f fc3b
000001b0: 2158 9fbb 019a 373c 0000 0000 a9c4 84bb
000001c0: 3e15 5b3c 2e07 a03d 1e81 a03c 5737 a63c
000001d0: 8cf4 cf3c 0000 0000 0b0a c53c 4fe9 823c
000001e0: 3eca 2a3d 0000 0000 b7ad c2b8 0000 0000
000001f0: 0000 0000 ae8b 1e3b 2ce4 4dba 6127 db3c
0.0 0.0 0.014280775 0.0 0.0 0.0 0.0 0.0
0.027868055 0.0 0.016207654 0.0 0.012401392 -0.016159886 0.031068398 -0.005518231
0.04903816 -0.0018019782 -0.00018736084 0.015796902 0.0027454116 0.0 0.0 0.033830613
0.02655307 0.0 0.0 -0.006083895 0.0700098 0.026682107 -0.00038822208 0.001321656
0.041130424 0.0045167413 0.0 -0.017377723 0.0 0.0 0.025894683 -0.026887024
0.0 -0.0010958357 -0.0011174562 -0.025260841 0.0146268625 0.0072132675 0.0 0.035853907
0.0 -0.0018795071 -0.00025682882 -0.013687113 0.015185859 -0.0020553784 0.0 -0.0062173735
0.028934631 0.029786244 -0.0031029794 0.0026584265 -0.0032757146 -0.013302125 0.0048932303 0.0
0.0 0.0 0.0196087 -0.0050653312 -0.0017551174 -0.037629098 0.0 0.0
0.0106127 -0.0056087133 -0.0018605335 0.019757431 -0.010604271 0.012506055 -0.00040630138 0.034676943
0.0 0.0 0.010051191 0.0 0.009849581 0.0 0.010455 0.0
0.034858476 0.009106223 -0.0042483457 -0.008086634 0.017666705 -0.0034843911 -0.02250234 -0.0002603609
0.0 -0.015099974 0.0 0.0 0.049205333 0.0 0.053243335 0.067302175
-0.000864963 0.0 -0.004415544 0.0077017546 -0.0048628007 0.011206151 0.0 -0.004051764
0.013371764 0.078138694 0.019592818 0.02029006 0.025385164 0.0 0.02405264 0.01598039
0.04169678 0.0 -9.282998e-05 0.0 0.0 0.0024192142 -0.00078541297 0.026752176

Block1.1.running_mean f4 [128]
00000000: 0000 0000 0000 0000 ae8a 7d3b 0000 0000
00000010: 0000 0000 0000 0000 0000 0000 0000 0000
00000020: 2fda cb3a 0000 0000 8f89 2d3c 0000 0000
00000030: c86b efbb 5b38 123c e592 1b3c 07d8 86ba
00000040: 69e4 d23b f044 a9b7 77a4 0637 daf1 6eba
00000050: a830 493c 0000 0000 0000 0000 dfce 263c
00000060: 0400 0080 0000 0000 0000 0000 3042 a6bb
00000070: 11bc fd3b fd8b 293c 0400 0080 bf61 9c3b
00000080: c96d 08bc 573b e93c 0000 0000 6d8c 173b
00000090: 0000 0000 0000 0000 8ec7 123c 3db4 403c
000000a0: 0000 0000 0400 0080 d240 0f35 d80a 8898
000000b0: 4e45 8abc d436 82bc 0000 0000 9e4e cebc
000000c0: 0000 0000 0400 0000 0400 0000 53b5 45bc
000000d0: 22e2 dbb7 a199 2637 0000 0000 e09f a13a
000000e0: 1600 4cbc 0a20 d3bb 0400 0080 54d1 c53b
000000f0: 0400 0080 1fc8 fbbb 598a 753b 0000 0000
00000100: 0000 0000 0000 0000 921d a83c 8cd6 c6bc
00000110: 0400 0000 af8a 6b3c 0000 0000 0000 0000
00000120: f6d9 e83b 0400 0080 bd8a 89b7 9796 99b7
00000130: 28c8 a7bc bb31 66bc 0400 0080 daa2 763c
00000140: 0000 0000 0000 0000 0acb c1bb 0000 0000
00000150: 0400 0080 0000 0000 9abf c6bc 0000 0000
00000160: 7cc3 6fbc 1c05 3dba 49a6 513c 4356 393c
00000170: 633c 8cbc 9df6 413d 54d2 e73b 0400 0080
00000180: 0000 0000 6ff2 72bb 0000 0000 0000 0000
00000190: 038b 9cbc 0000 0000 5da5 f0bb 305f 4abc
000001a0: 0400 0080 0000 0000 0400 0080 46db c1bb
000001b0: 0400 0000 33e3 b63b 0000 0000 de6a 413c
000001c0: 3a36 a73b 2843 993c 111e db3b 25bd b7b9
000001d0: 2444 8bbc 0000 0000 0400 0000 3582 7c3c
000001e0: 2636 c83b 0000 0000 0400 0080 0000 0000
000001f0: 0000 0000 995e a53b 9c7c a1bc 0983 e63b
0.0 0.0 0.0038687396 0.0 0.0 0.0 0.0 0.0
0.0015552695 0.0 0.010591879 0.0 -0.0073065497 0.008924569 0.009495472 -0.001028777
0.00643592 -2.0178471e-05 8.025315e-06 -0.0009115018 0.012279667 0.0 0.0 0.010181158
-6e-45 0.0 0.0 -0.005073808 0.0077433665 0.010348317 -6e-45 0.0047723944
-0.008326956 0.028470678 0.0 0.0023124472 0.0 0.0 0.00895871 0.011761722
0.0 -6e-45 5.336598e-07 -3.5166125e-24 -0.01687875 -0.015895285 0.0 -0.025183972
0.0 6e-45 6e-45 -0.012067157 -2.6212136e-05 9.930141e-06 0.0 0.0012330972
-0.012451192 -0.0064430283 -6e-45 0.0060369167 -6e-45 -0.0076837684 0.0037466495 0.0
0.0 0.0 0.020521913 -0.024272226 6e-45 0.014376326 0.0 0.0
0.007106061 -6e-45 -1.6396278e-05 -1.8309145e-05 -0.020481184 -0.014049943 -6e-45 0.015053475
0.0 0.0 -0.0059140967 0.0 -6e-45 0.0 -0.024261285 0.0
-0.014634009 -0.0007210539 0.012795993 0.01131207 -0.017118638 0.04735433 0.0070746336 -6e-45
0.0 -0.0037070771 0.0 0.0 -0.019109255 0.0 -0.0073439316 -0.012351796
-6e-45 0.0 -6e-45 -0.005916032 6e-45 0.0055812835 0.0 0.011805264
0.0051029 0.01870878 0.006686934 -0.00035045404 -0.017000265 0.0 6e-45 0.015411903
0.0061099706 0.0 -6e-45 0.0 0.0 0.0050466773 -0.019712739 0.0070346636

Block1.1.running_var f4 [128]
00000000: 0400 0000 0400 0000 e3b8 5438 0400 0000
00000010: 0400 0000 0400 0000 0400 0000 0400 0000
00000020: 11d8 b136 0400 0000 a580 7339 0400 0000
00000030: af77 b738 7130 4739 fb4b 7a39 10be 8f32
00000040: 3e9b 3139 0686 e22c 42c3 0e2b e7ed bd37
00000050: bd4c 4f39 0400 0000 0400 0000 6f7b 6238
00000060: 0400 0000 0400 0000 0400 0000 6501 dc38
00000070: 124d d838 2e74 3e39 0400 0000 0181 4f38
00000080: 3d91 f338 c9b8 e53a 0400 0000 5ba9 ea36
00000090: 0400 0000 0400 0000 0181 b938 b8d4 8e39
000000a0: 0400 0000 0400 0000 87b0 9230 138f 020e
000000b0: 90fc f839 17f0 a739 0400 0000 87ee 3239
000000c0: 0400 0000 0400 0000 0400 0000 42e0 2e39
000000d0: 531f 3f2d 4f93 5a2b 0400 0000 e07f ce32
000000e0: f7a9 8c39 d93e e438 0400 0000 4043 4439
000000f0: 0400 0000 0177 a939 c0f3 0738 0400 0000
00000100: 0400 0000 0400 0000 9070 1c3a 990a 2a3a
00000110: 0400 0000 53fc 9239 0400 0000 0400 0000
00000120: 6425 8438 0400 0000 bcb3 2c17 607f ba2c
00000130: cd1d 3c3a b84c e739 0400 0000 0b03 3c39
00000140: 0400 0000 0400 0000 4888 a738 0400 0000
00000150: 0400 0000 0400 0000 263e 383a 0400 0000
00000160: ea64 ea39 725a 9436 43d7 b639 eeb3 1a39
00000170: 9b31 2d3a 267d 373b 5244 8a38 0400 0000
00000180: 0400 0000 0481 583a 0400 0000 0400 0000
00000190: 3769 163a 0400 0000 74e2 fb38 c062 d439
000001a0: 0400 0000 0400 0000 0400 0000 7743 0e3a
000001b0: 0400 0000 ea86 9a39 0400 0000 e80e 2139
000001c0: 1b2c 7738 ab49 bc39 894a 9e38 6928 9030
000001d0: 156d bc39 0400 0000 0400 0000 5888 8c39
000001e0: 6561 fc39 0400 0000 0400 0000 0400 0000
000001f0: 0400 0000 c619 8538 1e8f e939 fca7 1039
6e-45 6e-45 5.0716928e-05 6e-45 6e-45 6e-45 6e-45 6e-45
5.3001645e-06 6e-45 0.0002322221 6e-45 8.748413e-05 0.00018996165 0.00023870163 1.6733821e-08
0.00016937868 6.438186e-12 5.071951e-13 2.2641338e-05 0.00019769646 6e-45 6e-45 5.3997555e-05
6e-45 6e-45 6e-45 0.00010490677 0.00010314038 0.00018163092 6e-45 4.947279e-05
0.00011614196 0.0017526384 6e-45 6.993459e-06 6e-45 6e-45 8.845516e-05 0.00027242838
6e-45 6e-45 1.067307e-09 1.6092625e-30 0.0004749042 0.00032031603 6e-45 0.00017064261
6e-45 6e-45 6e-45 0.00016677476 1.0864048e-11 7.765359e-13 6e-45 2.4039707e-08
0.00026829515 0.000108835935 6e-45 0.00018717069 6e-45 0.00032322857 3.2413518e-05 6e-45
6e-45 6e-45 0.0005967701 0.00064865645 6e-45 0.00028035286 6e-45 6e-45
6.301215e-05 6e-45 5.5803054e-25 5.3005794e-12 0.00071760715 0.00044116913 6e-45 0.00017930211
6e-45 6e-45 7.988565e-05 6e-45 6e-45 6e-45 0.0007028304 6e-45
0.00044707145 4.421273e-06 0.00034874128 0.00014753614 0.0006606818 0.0027998178 6.5930784e-05 6e-45
6e-45 0.0008258971 6e-45 6e-45 0.0005737724 6e-45 0.00012010793 0.00040509365
6e-45 6e-45 6e-45 0.0005426923 6e-45 0.00029473688 6e-45 0.0001535971
5.8930465e-05 0.0003591304 7.54791e-05 1.0488864e-09 0.00035939427 6e-45 6e-45 0.00026804465
0.0004813775 6e-45 6e-45 6e-45 6e-45 6.346735e-05 0.00044547854 0.00013795489

Block1.3.weight f4 [2259]
00000000: 29de 563b e456 e4bc b29f e9bc 2162 753c
00000010: ea6e e5bc a535 5c3c 242f f13c 6907 bb3c
00000020: 7b6d d3bc cd6c a83a ea86 a53a 5c28 b03a
00000030: 8d71 993a b7e9 053c 2bfc eabc a2df 6abc
00000040: 55b8 b0bc 6328 98bb 17d6 aebc 0717 93bc
00000050: dc3b 04bd 332e a8bc 620d a4bc 10b6 d73c
00000060: 8236 d13c 8c00 d8bc 9b05 8fbc 5e34 ccbc
00000070: 26f8 b53c 1415 41bc aa00 af3c b397 2c3d
00000080: 979f ad3c 9443 3bbc 60dd 15bc 59eb b23c
00000090: 8dc0 0c3d ac80 d5bb 2dc8 1cbc a9c6 89bc
000000a0: 251d 7fbc 5fb8 e7bb b706 67bc 21e9 313c
000000b0: 99f0 eebb da9e 2ebc 89f2 1abc bbb2 4f3c
000000c0: 0d3f 993c 9137 ee3c 5552 b8bc 7b72 003c
000000d0: 32e8 d03b 90d8 ee3c 0316 24bc efa3 98bc
000000e0: 7b75 8bbc d97a b6bc 5f66 aabc fc71 ed3c
000000f0: 2b71 b63c 3aad 493c cda1 3a3c b1c4 9cbb
00000100: e366 67bc 4a66 a8bc 5cc2 e63c 50c6 5cbc
00000110: 2729 a73c 14ec 103d b86b f7bb d4b0 46bc
00000120: 9533 3e3c db76 d43b f8d1 9d3b e9ec 99ba
00000130: 3989 e5bc 6cf2 eebb 89af 603c 040e a53c
00000140: 8b15 bb3c 5610 5c3c 4a9a 933c 7263 aa3c
00000150: 4d83 4a3c 6791 e7bb 51f0 a93c dbdd 273c
00000160: 219a c1bc 3603 d33c b9b7 5bbc 28b5 17bd
00000170: 5747 79bc 9d5b d63c a702 f63b a8cb e3bb
00000180: 2711 e03c 1990 83bc 32cf 883c daa9 adbb
00000190: ab23 f43c c3fd 543c 40f7 bfbc a7cb 383c
000001a0: ac84 e9bc d371 893b d3af 9dbb b75d c4bb
000001b0: e05f afbc ceaf 933c 49a5 50bc eba9 e5bc
000001c0: 7d9f 72bc d54a 153c 7347 fe3c e264 c0bc
000001d0: e94e e03c db96 f0bb 3116 c83c 48bd 083c
000001e0: 4bcd 723c 5e10 663c 97ad dcbc 493c bdbc
000001f0: 4fcb 3cbc 3a78 213c 64b7 913a 28d9 b43a
00000200: 90b0 bb3a 5399 b23a 6e86 c03a ba53 cc3a
00000210: c2e9 97bc 0936 3d3c 50fb a3bb cb00 3cbc
00000220: c2ba 913a 4616 933a c014 f93b d3d1 a53b
00000230: b2ab ba3b 4ce9 a83c ae62 a13b e86a 28bc
00000240: 9537 7e3c 15ca 0b3d 84cd 5c3c aafb abbc
00000250: 4a7d 51bb de13 583b f6a3 d43a ee2d 40bc
00000260: a2e7 b03c 128c 383b 9adb c53c d834 f6bc
00000270: a94a 123c 29ff ff3b 1164 d5bc 1370 f9bb
00000280: abe1 85bc 035d 09bc 5f3d 31bc 24f0 d03c
00000290: 7776 e03c ec20 2dbc 9e23 be3c 94a1 43bc
000002a0: e0fc 6fbc 8ce4 b23b ec39 0cbc 973c d0bc
000002b0: 8553 8fbc c8df c73c 58ef cf3c e399 e13c
000002c0: 0e9b 963c f0ab b83c 67c1 0fbc afba 64bc
000002d0: 8ea7 92bc 79f4 58bc 347f 04bd c5bc bcbc
000002e0: 6237 0e3d 3b85 963c 4f54 8dbc a5ec 7a3c
000002f0: eb61 93bc 9e70 c73c 6588 a7bc 954a d03c
00000300: f41b b33c 3fcf b73c c46c 52bc 3981 77bb
00000310: 4465 9ebc b14b 963a 5665 9f3a dc6e d13c
00000320: 2b65 e3bc 3086 d43c 2c4e d7bc 335c 093c
00000330: cc49 b93c 8564 543b 9051 f9bb e649 d9bc
00000340: 9d79 c6bc 93d2 b43c 68ec c03c 0082 c7bc
00000350: 0c05 87bc f560 a1bc b7c0 07bd e258 b6bc
00000360: 57c8 9fbc 64fa b83c a676 ac3b bee7 063c
00000370: f0e8 a63c 2425 503c 4d34 dc3c 9dbb b1bc
00000380: 1221 04bc 77b0 9e3a 304a 913a 0882 82bc
00000390: 40c6 e6bc a2d4 bbbc b55d 5ebc e38a bbbc
000003a0: fdb1 a9bc eb27 96bc 88b7 d13b 08c0 92bc
000003b0: e694 3cbc dca1 bb3c 3fda b13c 146a 5fbc
000003c0: 7899 973c 0c4d 8c3c 56f4 b63c 106f fa3c
000003d0: 882e dfbc e9a8 1a3c f55f ba3b 60dc a4bc
000003e0: 20da 8c3b 6baf 2a3d 9422 b03c 3e7b 1ebd
000003f0: cf0e 44bc 0c38 90bb e6ee cfbb 7f57 bfbc
0.0032786226 -0.027873464 -0.028518531 0.014977009 -0.02800699 0.013440524 0.029441424 0.022830682
-0.02580904 0.0012849808 0.0012628709 0.0013439762 0.0011706814 0.008173398 -0.028684696 -0.014335545
-0.021572271 -0.0046434863 -0.02134232 -0.017955316 -0.03228365 -0.020529842 -0.020025913 0.026331931
0.025538687 -0.026367448 -0.017458728 -0.024927314 0.022213053 -0.011784811 0.021362621 0.04213686
0.021194262 -0.011429686 -0.009147018 0.021840738 0.03436332 -0.006515583 -0.00956921 -0.016818361
-0.015570913 -0.0070715393 -0.014100722 0.010858805 -0.007291865 -0.01065799 -0.009457239 0.01267689
0.018706823 0.02907923 -0.022500196 0.007839794 0.006375336 0.029156 -0.010015014 -0.018632857
-0.017023792 -0.022275375 -0.020800767 0.028985016 0.02227076 0.012309367 0.011391115 -0.0047841896
-0.014123651 -0.020556588 0.02816885 -0.013475016 0.020405365 0.03538139 -0.007550683 -0.01212712
0.011608978 0.0064838952 0.00481629 -0.0011743578 -0.028019534 -0.0072920825 0.013713726 0.020148285
0.02283742 0.013431629 0.018017907 0.020799372 0.012360406 -0.007066894 0.020744475 0.010245766
-0.023633065 0.025758367 -0.013410502 -0.037038 -0.015214763 0.026166731 0.0075076404 -0.006951768
0.027351929 -0.016059922 0.01670036 -0.005299789 0.029802164 0.012999955 -0.023433328 0.011279023
-0.028505646 0.004194477 -0.0048122196 -0.005992617 -0.021408021 0.018028166 -0.01273472 -0.028035125
-0.014808533 0.00911208 0.031039929 -0.023485605 0.027381377 -0.007342202 0.024424644 0.008345909
0.0148194535 0.014041988 -0.026938243 -0.023100035 -0.011523082 0.009855324 0.0011117277 0.0013797628
0.0014319587 0.0013626016 0.0014688501 0.0015588917 -0.018544082 0.0115485275 -0.005004324 -0.011474798
0.001111828 0.0011221848 0.0076013505 0.0050604134 0.005696737 0.020619057 0.0049250936 -0.010279395
0.0155161815 0.034128267 0.013476733 -0.020994026 -0.0031965547 0.0032970826 0.001622318 -0.0117297005
0.021594826 0.002815966 0.024152566 -0.030054495 0.008928933 0.0078124 -0.026048692 -0.0076122372
-0.016342958 -0.008383992 -0.010817855 0.025505133 0.027400238 -0.010566931 0.023210343 -0.011940379
-0.014647692 0.005459374 -0.0085587315 -0.025419516 -0.01749588 0.0243987 0.025382683 0.0275392
0.018384483 0.022542924 -0.008774138 -0.013960524 -0.017902162 -0.013241881 -0.032347873 -0.023039231
0.034720786 0.018374076 -0.017252116 0.0153152095 -0.017991027 0.024345692 -0.02045078 0.025426188
0.021863915 0.02243769 -0.012843315 -0.0037766232 -0.019335397 0.001146665 0.0012160938 0.025565557
-0.027758202 0.025942892 -0.026282392 0.008383798 0.022618197 0.0032408547 -0.0076086 -0.026524495
-0.024227912 0.022073066 0.023550227 -0.024353981 -0.016481899 -0.019699553 -0.03314277 -0.02225918
-0.01950471 0.022580333 0.0052631674 0.008233963 0.020374745 0.0127041675 0.026880408 -0.021695906
-0.008064525 0.0012107034 0.0011084732 -0.015931144 -0.028170705 -0.02292854 -0.013572146 -0.022893375
-0.020714754 -0.018329581 0.0064000525 -0.017913833 -0.0115101095 0.022904329 0.021710513 -0.013636131
0.018505797 0.017126583 0.022333305 0.030570537 -0.027243868 0.009439685 0.0056877085 -0.020124614
0.0042984635 0.041671198 0.021500863 -0.03869175 -0.011966421 -0.0044012126 -0.0063456176 -0.023357151

Block1.4.weight f4 [196]
00000000: 9f57 7f3f a7e7 7d3f 0775 7d3f 1f21 813f
00000010: 788c 823f 6662 813f bc05 813f 6241 803f
00000020: cf75 7f3f 4ed5 7c3f 6f42 823f 3521 823f
00000030: 527e 7e3f 26dd 7c3f 4af3 823f 638a 7f3f
00000040: 1358 7d3f 5d1d 813f e8e1 7e3f 80b4 803f
00000050: 3097 7c3f e511 7e3f 3cc4 7a3f dc5b 813f
00000060: a712 803f 9392 7c3f 2b61 7f3f e2f1 813f
00000070: 1ffb 7e3f 5989 803f 595c 813f a41e 7f3f
00000080: 887d 7d3f 710c 7c3f ecd0 803f 4772 803f
00000090: 9ac9 843f 719e 803f a56b 803f 55f4 833f
000000a0: 45bd 803f a5ce 7e3f 7944 7c3f 29db 7f3f
000000b0: 187b 813f 6046 803f ea9f 813f fb70 803f
000000c0: e4c5 7c3f 6f4d 7c3f bbdb 7e3f 38e8 803f
000000d0: d651 803f 6053 813f 2679 843f 3b94 813f
000000e0: ddf9 803f cbae 7c3f cf92 803f cc56 7f3f
000000f0: 74b1 7e3f 6f52 7f3f 8610 803f ab90 7e3f
00000100: 7c5f 7c3f 11cf 803f 20af 833f 1725 7c3f
00000110: ac9e 7f3f fd55 7f3f 4081 803f b61e 813f
00000120: 6c63 823f eeb8 803f d541 803f a6b6 7e3f
00000130: 9007 803f 3e36 7f3f c2fa 7d3f 461a 7f3f
00000140: 5999 7d3f f010 7b3f b500 813f 8265 7e3f
00000150: 3259 7e3f a26f 823f f7b5 803f 90f7 7d3f
00000160: 2a55 783f 0246 813f 5582 7c3f b83b 7e3f
00000170: 628f 7e3f 4ab4 843f eba3 823f 8622 7d3f
00000180: dfb3 7d3f 3c85 7c3f 372a 803f aec9 873f
00000190: 2d26 7e3f 1e5b 7e3f 7937 823f 105e 7e3f
000001a0: c665 853f e09f 803f 3028 803f 8313 813f
000001b0: b172 803f 6c26 7e3f 27e0 7f3f ee1c 7f3f
000001c0: 02a5 833f a8e3 803f 0308 823f a070 803f
000001d0: d837 7d3f a3c9 7c3f 7d9f 7d3f f15a 803f
000001e0: a940 7e3f b359 7f3f b072 813f bd92 813f
000001f0: dff6 813f b99d 7c3f 4059 803f 27d3 7e3f
00000200: e93c 823f 7f83 823f a251 7b3f de05 843f
00000210: 676d 7e3f 9296 7f3f 8c4e 803f 07f7 833f
00000220: 6872 7d3f 2054 813f eb7b 7f3f d9aa 803f
00000230: d81c 803f 6a57 7f3f b786 7d3f bd2c 813f
00000240: 1146 813f 6006 7b3f 7504 7c3f 0aac 813f
00000250: aac6 813f a98e 7c3f 4336 813f 4cb5 823f
00000260: 8d1f 833f b015 813f 7e91 7c3f 4b81 7e3f
00000270: 6b07 813f 600f 7e3f 2e88 7d3f 56b3 793f
00000280: d783 803f 3b6e 7d3f e271 7d3f a0db 803f
00000290: 32af 7d3f 7654 7f3f 49fe 7b3f f884 7f3f
000002a0: 846a 813f 39eb 7c3f a399 7d3f 2df5 7d3f
000002b0: 3025 7f3f 86c1 833f fdde 7c3f bee6 7e3f
000002c0: d395 7e3f 9928 813f 828b 7e3f 5cd3 7e3f
000002d0: 2c6c 853f 36d5 813f cfea 803f 5d95 7f3f
000002e0: 220c 803f 815b 7f3f 8573 803f 2001 813f
000002f0: 59d0 7f3f 97c9 7d3f 412d 813f cee3 7c3f
00000300: 1582 813f ae30 803f baff 803f 941e 823f
0.99743074 0.991816 0.99006695 1.0088233 1.0199118 1.0108154 1.0079875 1.0019953
0.99789137 0.9876298 1.0176524 1.0166384 0.994115 0.98774946 1.0230496 0.99820536
0.98962516 1.0087086 0.99563456 1.0055084 0.98668194 0.99246055 0.9795568 1.0106158
1.0005692 0.98661155 0.9975764 1.0151942 0.9960193 1.0041915 1.0106307 0.9965613
0.9901967 0.98456484 1.0063758 1.0034875 1.0374024 1.0048352 1.003285 1.0308939
1.005776 0.99534065 0.9854198 0.99943787 1.011569 1.0021477 1.0126927 1.0034479
0.9873946 0.98555654 0.9955403 1.0070868 1.0024974 1.0103569 1.0349472 1.0123361
1.0076252 0.9870421 1.0044802 0.99741817 0.9948952 0.9973516 1.0005043 0.99439496
0.985832 1.0063192 1.0287819 0.98494095 0.9985149 0.9974058 1.0039444 1.0087497
1.0186591 1.0056436 1.002009 0.9949745 1.0002308 0.9969214 0.9921075 0.99649465
0.99062115 0.9807272 1.0078341 0.9937364 0.9935485 1.0190318 1.0055531 0.99205875
0.9700495 1.009949 0.9863637 0.99309874 0.99437535 1.036752 1.0206274 0.98880804
0.99102587 0.986408 1.0012883 1.0608423 0.99277 0.99357784 1.0173179 0.9936228
1.0421684 1.004879 1.0012264 1.008408 1.0035001 0.9927738 0.99951404 0.9965352
1.0284731 1.0069475 1.0158695 1.003437 0.98913336 0.98745173 0.99071485 1.0027753
0.99317414 0.99746245 1.0113125 1.0122906 1.0153464 0.98678166 1.0027237 0.9954094
1.0174838 1.019638 0.98171437 1.031429 0.99385685 0.9983913 1.0023971 1.0309762
0.99002695 1.0103798 0.9979846 1.0052139 1.0008802 0.9974276 0.99033684 1.0091778
1.0099508 0.980566 0.984443 1.0130627 1.0138752 0.9865518 1.0094684 1.0211577
1.0244004 1.0084743 0.98659503 0.99416035 1.0080389 0.9924221 0.9903592 0.9753927
1.0040234 0.98996323 0.99001896 1.0067024 0.9909545 0.9973825 0.98434883 0.9981227
1.0110631 0.9879642 0.99062556 0.99202234 0.9966612 1.0293434 0.98777753 0.99570835
0.99447364 1.0090514 0.9943162 0.9954126 1.0423636 1.0143192 1.0071658 0.99837285
1.0003703 0.99749 1.0035254 1.0078468 0.9992729 0.99135727 1.0091935 0.987851
1.0117823 1.0014856 1.0078042 1.0165582

Block1.4.bias f4 [196]
00000000: e8f0 953c e616 593b a88b 243c d67e ff3c
00000010: 2d15 073c 4979 193c 0dc4 d43c d3ac 2e3c
00000020: e48b 8fbb 39f1 25bd 1e6c 9d3c 320a 0b3d
00000030: 45da 953b bb5e 8a3c f04f d93c 025d 30bd
00000040: a561 0e3c 3833 a03d 359d 4fba a355 953c
00000050: 86ff 59bb acd0 28bc c2e3 53bd ff76 6a3c
00000060: 4d9b c03b 3395 9bbc c6d7 89bc d64c ba3b
00000070: b208 003d 1ed1 443d dd87 bc3b 49b0 cd3c
00000080: 09cf e3bc 29b7 19bc d717 d139 6bb1 cbbc
00000090: 8a0c 3d3b 1ab7 8e3c 57f3 d63b b5b4 913c
000000a0: a09e 3dbb bd3f 943c 0274 86bd b7c7 26bd
000000b0: 2842 6abc 3fbb 8c3c a255 713c 404d eabc
000000c0: 2164 dabc 6c51 7d3c 98e4 1bbc 245a dd3c
000000d0: 0f9e 08bc 4a9b eaba b03b 0b3d c467 80bc
000000e0: f9c9 f83b e256 2e3b af20 383c 32ad 20b9
000000f0: 9298 6ebc 4e2f 9abb ae07 2a3c 0fd5 29bc
00000100: 597f 303c 24b0 273c 38f0 0d3d 5db9 183d
00000110: 7147 52bb d085 f23b 9722 61bb 0719 e73c
00000120: d8c0 bd3c d11b 9d3c 1c51 1cba ce5d 333c
00000130: ac86 f43c d6fd bdbb dd22 563b b550 6b3b
00000140: 98c6 31bc c5c3 8f39 0124 90ba f620 403c
00000150: f11b 5ebc 0ce4 96bc f470 353d 9412 29bb
00000160: 5b93 2ebd 2672 e03b eb05 fbba ef82 0f3d
00000170: a4de 5dbc 92a1 ee3c d98d 483d 766f b1bc
00000180: f405 9bbc b605 45bc 461e b23c 2f1c 58bd
00000190: 7123 75bc 3fa6 fc3c c806 bb3c 7c24 f5bb
000001a0: 4023 eb3c 8026 673c 526f 6c3c f60c 1b3d
000001b0: 8643 cd3c ecaf 343d 8f89 693a 783d 9a3c
000001c0: 37ce aa3c 768c 1f3c 090a 1b3d 8e9f afbc
000001d0: 7ec5 e0bc e201 f2ba bd63 a4bc 104f e73c
000001e0: 9db1 943c 19df 1f3d ff5a 41bb c6f7 623c
000001f0: 5c96 113d 5880 473d 5524 90bb 94f1 ebbc
00000200: ebe8 0d3d 8baa 593c 9ef6 77bc 067f 393d
00000210: edc6 163a 64c6 1f3d 7722 de3c c1bb 023d
00000220: 1d92 dabb c960 523c 4292 82bc 2d9d fe3b
00000230: 3f94 47bc 507b e5b9 1923 ad3c 24bf 5d3c
00000240: 2148 edbc cca3 ba3a 3802 d2bc d556 293d
00000250: f2d9 f6b9 7b88 8bbc c918 b3bb 294c bd3c
00000260: 9656 b73b c6f8 8f3d 8bf4 acbc af00 84b5
00000270: cc8b 403c 6820 b03b e667 93bc 6374 20bd
00000280: 544b 763d fa9a eabb 0559 543c 4c7f b7bc
00000290: 42d8 e1bb 9140 b73c 6a1a a3ba b85f e3bb
000002a0: d1f3 13bb 8e7e 32bc 1ec6 8b3c 55fc 45bc
000002b0: 3f66 a13c 903e 3e3d 1175 9cbc 7e21 cb3c
000002c0: a01e 01bc c7fe 8ebc 81fc 533c 3467 84ba
000002d0: a255 80bd 02a2 0fbd 5b79 e2b9 be6f 03bc
000002e0: c8f0 71bc 7779 b73c 4f6b 893c 5332 fc3b
000002f0: 0ec5 eabc 0e28 a03b ed6e 5f3c fcbf 943c
00000300: 13d3 533d d386 8c3b 7e83 88bc fad9 b03c
0.01830335 0.003312522 0.010043062 0.03118841 0.008244795 0.009367296 0.02597239 0.010661322
-0.00438069 -0.04051325 0.019216593 0.03394527 0.004573139 0.016890874 0.026527375 -0.04305745
0.008690272 0.07822269 -0.0007919849 0.018229311 -0.0033263876 -0.0103036575 -0.05173088 0.014310597
0.0058778883 -0.018992042 -0.016826522 0.005685429 0.031258292 0.048050992 0.005753501 0.025108473
-0.027808683 -0.009382048 0.00039881348 -0.024864873 0.0028846585 0.017421294 0.00655977 0.017786363
-0.002893366 0.018096799 -0.065650955 -0.040717807 -0.014297999 0.01717913 0.014729889 -0.028601289
-0.026659073 0.015461307 -0.00951495 0.027020521 -0.008338465 -0.0017899063 0.03399247 -0.01567448
0.0075924364 0.002660208 0.011238261 -0.0001532331 -0.014562743 -0.004705346 0.010377808 -0.0103657385
0.01077255 0.010234866 0.03465292 0.03728615 -0.003208604 0.0074012056 -0.0034352893 0.028210176
0.023163244 0.019178303 -0.0005963014 0.010947658 0.029849373 -0.005798082 0.0032674589 0.003590626
-0.010850571 0.00027420945 -0.0010997058 0.0117266085 -0.013556466 -0.018419288 0.044297174 -0.0025798427
-0.042620998 0.006849545 -0.0019151544 0.035036977 -0.013541851 0.029129777 0.0489634 -0.021659594
-0.018923737 -0.012025287 0.021742951 -0.052761253 -0.014962063 0.030840991 0.022830382 -0.007481156
0.028703332 0.0141083 0.014430838 0.037854157 0.025056612 0.044113085 0.00089087425 0.018828139
0.020850284 0.009738078 0.037851367 -0.021438386 -0.027437922 -0.0018463696 -0.02006709 0.028235942
0.018151099 0.039031122 -0.00295037 0.013853019 0.035543784 0.048706383 -0.0043988624 -0.028801717
0.034645956 0.0132852895 -0.015134482 0.045287155 0.0005751688 0.03900756 0.027116043 0.031917337
-0.00667025 0.012840458 -0.015938882 0.0077702017 -0.012181341 -0.0004377016 0.0211349 0.013534341
-0.028965058 0.0014239489 -0.025635824 0.041342575 -0.00047083158 -0.017032852 -0.005465601 0.023107605
0.0055950386 0.07029872 -0.0211127 -9.834965e-07 0.01175208 0.005374957 -0.017993879 -0.039173495
0.060130432 -0.007159588 0.012960677 -0.022399567 -0.006892235 0.022369655 -0.0012443785 -0.006938901
-0.0022575746 -0.010894431 0.017062243 -0.012084086 0.019702075 0.046446383 -0.01909879 0.024796244
-0.007880837 -0.017455472 0.01293862 -0.0010101558 -0.06266333 -0.035066612 -0.00043196496 -0.008022247
-0.014766879 0.022396786 0.016774802 0.007696429 -0.028658416 0.0048875874 0.013637287 0.018157952
0.051714968 0.0042885332 -0.016664263 0.021588314

Block1.4.running_mean f4 [196]
00000000: 97f1 67bc d0f7 85bc b8d0 a0bc db74 033d
00000010: f68e 9bbb 2682 a3bb 4ee9 07bc 60cc 1d3d
00000020: 813d 29ba ba68 7c3c efca 73bc 160c 50bc
00000030: 9e8f cb2e 1d08 ae3c 068c c4bb b94b 04bb
00000040: b9a2 22bc 08b3 c43c cdc7 86bc 85ee c339
00000050: d134 6fbb 4cc4 97bc cac2 833c 9b16 3bbc
00000060: bf4f 2ebc 2f1a 6a3c cbd2 873c 039f 68bc
00000070: 2f9e c23c e0e5 2a3b 670d 90bc 5a2f cb39
00000080: b138 d6ba 6ccb 323c 5312 2ebb 7e0a 873c
00000090: ada3 d03b 3f0f 103d 496a d7bb d95b 123d
000000a0: b3be a43c cb97 853c c176 a33c 99e4 4a3b
000000b0: 0e4a 20bb b897 0b3d 9d8c 903c cb15 89b9
000000c0: d4ff 27bc 4b98 e63a a02d b13b 4bc6 333c
000000d0: 580a 23bc 4429 85bc d57b 9abb 9c9b b7bb
000000e0: b51c 783c a709 463c 3390 5039 e922 ab39
000000f0: 0d86 0cbd c63e 03bb 0148 eabb 6c75 e23b
00000100: 6f3d e3b9 08ed d73b 5f4c 81bb d53f 5abb
00000110: 9b47 4cbc ff71 473b 055c 83bc f552 963c
00000120: ee16 21bc ad7b 3e3c 7301 7d3b 3e19 ccbc
00000130: 6975 853b 99fd 11bd 0d1c 52bc 0e25 3cbc
00000140: 5c6c b23a 610d 0ebb 3313 44bb 1297 81bc
00000150: 199b 86ba f20f 553c c4aa 283c 89a8 41ba
00000160: 6042 573b bda1 1bbd a9ed df3b d56b 61bd
00000170: b9bf 913b bc61 2f3c f457 46bc 41ef 783a
00000180: 222c 0739 c9e0 523b 0530 edbb adcc 47bb
00000190: bf19 76bc d0ca b83c 3aaf dabc e4b6 c7b9
000001a0: af90 e5bc 89b1 a0bc 1632 403c 0f3c 15bd
000001b0: daad 4e3c 9de7 e0bb 1acf febb 162c 3a3c
000001c0: 6b9b 9f3c ce2d 103c 2c71 81b7 21a0 c73b
000001d0: c842 03bd 9a9b 02bb 5ee0 da3c 2c3b 9839
000001e0: b298 8e3c 5ade febb 1395 12bc 3918 3fbc
000001f0: cfb2 a33c cfd3 b13a 14f9 5e3c 0d02 48bc
00000200: 6e4d b7bc 0525 133b a928 0d3c b559 783c
00000210: ed17 95bc 7159 50bc 7f73 493d 02ff 9e3c
00000220: 636f 13bc 554d 6fbc 7497 40bb faa8 3d3b
00000230: 4b0b b3bc 7f61 c9bc def7 a0bc b863 583c
00000240: 0824 1f3d 0f54 8e3a 4881 e6bc 026b 803c
00000250: d2af 13bc b58c cfb9 b532 923c b7df c73b
00000260: 9586 2f3a 62ce 54bc 9bdb dbbb 509a bbbc
00000270: ae26 2dbc 9f5b 3abc d0fe 3fbc c8b3 7fba
00000280: e0f0 24bd b6db 263a 2af5 e83c b43a a43c
00000290: 10d3 853c 0442 aa3c 60c7 1d3c df87 16bc
000002a0: 2c8e d83b 1765 bf3b b02f 1dbc 9245 81bc
000002b0: 5b37 c33b 2ade b03b e4f4 dbba 6879 babb
000002c0: d3f3 1fbc a19d fc3b 8216 963c 0500 23bc
000002d0: df7a 523c 3866 1cbb 6387 3bbc cefa bdbc
000002e0: 2496 343c d7c1 023c 97cd 90bc 230d 963c
000002f0: 3f8f 753b b0a2 a43b 283d 933c f506 1c3b
00000300: 55b8 a93c 3727 da3b d8df f93b 3cf4 7d3c
-0.014156721 -0.016353518 -0.019630775 0.032093864 -0.004747267 -0.00498988 -0.00829537 0.038524985
-0.0006456003 0.015405828 -0.014879926 -0.012698194 9.256883e-11 0.021244103 -0.0059981374 -0.0020186736
-0.009926491 0.02401115 -0.016452694 0.0003737101 -0.0036499987 -0.018526219 0.016084094 -0.011418964
-0.01063913 0.014288469 0.016580006 -0.014198068 0.023757068 0.0026076958 -0.017584516 0.00038754457
-0.00163438 0.010912757 -0.0026561215 0.016484495 0.006367168 0.03517079 -0.0065739495 0.035732124
0.020110464 0.016307732 0.019954087 0.0030959009 -0.0024458203 0.034080237 0.017645175 -0.00026146913
-0.010253865 0.0017592994 0.0054070503 0.01097257 -0.009951197 -0.016255029 -0.004714469 -0.005603267
0.015143563 0.012087262 0.00019890144 0.00032641672 -0.03430753 -0.002002643 -0.007149697 0.0069109704
-0.00043342586 0.0065895356 -0.0039458717 -0.0033302207 -0.012468244 0.0030432937 -0.01603509 0.018350104
-0.009832127 0.011626166 0.00386056 -0.02491438 0.0040728343 -0.03564224 -0.012824071 -0.011483444
0.0013612616 -0.0021675455 -0.002991867 -0.015819106 -0.0010269611 0.01300429 0.01029462 -0.00073874794
0.003284596 -0.037996043 0.006833751 -0.055034477 0.004447904 0.010704454 -0.012105931 0.0009496101
0.00012891044 0.003217744 -0.0072383904 -0.0030486987 -0.015020787 0.022557646 -0.026694883 -0.00038092502
-0.028023092 -0.019615905 0.011730691 -0.03643423 0.012614692 -0.006863548 -0.0077761533 0.01136305
0.019483289 0.008799983 -1.5430698e-05 0.006092087 -0.03204611 -0.0019929172 0.026718315 0.00029035786
0.017406795 -0.007777971 -0.008946675 -0.01166349 0.019982724 0.0013567152 0.01360919 -0.01220752
-0.022375789 0.0022452485 0.008615651 0.015158107 -0.018199885 -0.012716637 0.04918241 0.019408707
-0.008998725 -0.01460584 -0.0029387148 0.002893983 -0.02185597 -0.024582623 -0.019649442 0.013207369
0.03885272 0.0010858792 -0.028137818 0.015676025 -0.009014087 -0.00039586952 0.017846445 0.006099667
0.00066957745 -0.012988659 -0.0067095286 -0.02290073 -0.010568304 -0.011374383 -0.011718467 -0.00097542675
-0.04026878 0.0006365137 0.028437216 0.020047523 0.016335994 0.020783432 0.009630054 -0.009187668
0.006608745 0.0058409083 -0.009593889 -0.015780244 0.0059575266 0.005397578 -0.0016781357 -0.0056907423
-0.009762722 0.0077092205 0.01832128 -0.009948735 0.012846678 -0.0023864638 -0.011445853 -0.023190882
0.011022124 0.007980785 -0.017676158 0.018316811 0.0037469415 0.0050242767 0.017973498 0.0023807858
0.02071778 0.006657507 0.007625561 0.015500125

Block1.4.running_var f4 [196]
00000000: 129f 113a 607d 2439 27bd e638 71c0 fe3a
00000010: 6dc5 ce38 f602 5a39 778c 8a38 d6af 743a
00000020: f03c 9e3a 3d3d e339 7aac 0a39 c1fc 0b3a
00000030: 0a6a 0b23 bcd8 0e3a d3f0 043a 3335 193a
00000040: 9151 4a39 ea06 7b3a 337a 5a39 4bb0 b339
00000050: 670c ad3a fd5b 7939 f927 f839 055f 283b
00000060: 33b7 9239 ae82 1839 9a6b 1e3a 53dc 2f3a
00000070: 0d4c db39 705a 953a df4f ca39 d2a5 8739
00000080: cf0e 013a ace7 5c3a 55a0 b339 9a58 e538
00000090: e0b4 2339 139e 313a 8174 9e38 5bef b838
000000a0: 0cde 3f39 6707 f838 bd16 523a c3e4 a539
000000b0: 4403 7039 7237 4a3a 57d8 b739 52f5 af38
000000c0: 636c b038 304f 5b39 d372 4139 7cd7 8839
000000d0: 7d29 3f3a fda2 8239 1dfd c13a 048d 923a
000000e0: f4d7 c039 10aa 2e39 0765 2939 88c5 5939
000000f0: fa23 943a db19 d039 cc23 143a 34b3 e13a
00000100: 6c22 b939 b5ca 0739 a0dd a939 04c8 6739
00000110: f2aa 8739 4477 4539 622f 943a f5b6 0d3a
00000120: 543b 8c39 85a5 1c3a 13d9 9a38 2d2c bb3a
00000130: 9451 7b39 393e b23a 35df b23a f41a d338
00000140: f55c 6338 acb9 d139 58a8 a039 b673 de38
00000150: 8195 bb3a defe 583a 3cf6 093a 1f3d 1432
00000160: b7a2 e339 e728 fb3a f20a 533a c25f 4e3a
00000170: 735e 793a c08e d339 bd83 9239 2f70 2539
00000180: ab1a 8d39 2d2d 4e3a 3836 a738 e9cc ca38
00000190: 6a0d 3a38 b601 7139 2d2c c73a a4ab 1d31
000001a0: 320b 3e3a 64b6 0d3a 75ac a739 85c7 853a
000001b0: 1bb4 1d3a 132e 113a 2b65 6c3a 07dd 9439
000001c0: 90ac 7e3a fbe8 693a 515c da3a 94a2 9939
000001d0: f362 4239 cd6c a53a 1594 0d39 ae39 bb39
000001e0: 16e7 1738 abd8 9139 4fd8 2039 9e64 a839
000001f0: dbf7 0b3a 28ec 1438 d5b7 4b37 d56f d539
00000200: bc03 d938 35e6 9d39 b3d0 a739 b11c 6b39
00000210: b84e 983a d02a 8a39 968e 8939 2432 a439
00000220: bb15 e639 7e88 ca37 6778 9138 b54f 0f3b
00000230: d224 a139 1894 283a 8d83 2b39 ea9f 3139
00000240: 74bb 5a39 9196 803a 3374 e139 993c 0839
00000250: baf1 ca39 efc3 8539 37cf 7439 4d49 7939
00000260: ec4f 6339 6578 2839 2407 7039 8d91 2f3a
00000270: 7b31 ea39 beaf 8238 4eda ac39 b5e7 8f39
00000280: 316d 2b3a 5219 dc31 e896 063a b823 ae3a
00000290: 8c21 8839 9605 b239 43b7 cb38 98c5 5539
000002a0: 2050 953a 97be 0c3a 40d6 a639 6ea6 7539
000002b0: a86e b338 02d7 df39 3cfa 1037 e2ee 6439
000002c0: d9cd 813a afde 0939 4271 ae39 e046 8e39
000002d0: 950e d839 dd37 9539 ca92 f137 b98a 133a
000002e0: 4f4f 553a 56f7 d639 2383 e23a 6ac2 2938
000002f0: 71c2 0138 8594 b438 c3d7 4b3a daeb 7c3a
00000300: 369d 273a 2f94 2339 b275 0439 8a33 9e39
0.00055550144 0.00015686965 0.00011002487 0.0019436014 9.859619e-05 0.00020791203 6.6065164e-05 0.0009334063
0.0012072604 0.0004334244 0.00013224958 0.00053400925 7.55766e-18 0.0005449166 0.0005071286 0.0005844414
0.00019294607 0.00095759204 0.00020835623 0.0003427289 0.0013202549 0.00023780759 0.00047332028 0.0025691402
0.00027983784 0.00014544532 0.00060432556 0.0006708551 0.00041827597 0.001139475 0.0003858795 0.00025872752
0.0004923166 0.0008426856 0.00034260997 0.00010936074 0.00015612273 0.0006775569 7.555728e-05 8.818387e-05
0.00018297898 0.0001182694 0.00080142525 0.00031641693 0.000228894 0.00077139505 0.00035065666 8.390345e-05
8.4125226e-05 0.00020914967 0.0001844869 0.0002610049 0.0007292254 0.00024916968 0.0014800165 0.0011180942
0.0003678199 0.00016657286 0.00016154732 0.00020768319 0.0011302226 0.00039692115 0.0005651086 0.0017219544
0.00035311596 0.00012950118 0.00032399315 0.00022104388 0.0002587657 0.00018831814 0.0011305625 0.0005405986
0.00026747084 0.0005975592 7.3837255e-05 0.0014280133 0.00023967616 0.0013598866 0.0013646843 0.000100662844
5.420759e-05 0.00040001923 0.00030643004 0.00010607338 0.0014311523 0.0008277724 0.0005262827 8.628631e-09
0.00043418046 0.001916197 0.0008050642 0.00078725454 0.000951267 0.00040351413 0.00027945443 0.00015777418
0.00026913485 0.0007865008 7.9732796e-05 9.670278e-05 4.435835e-05 0.00022984188 0.001519566 2.2944073e-09
0.0007249593 0.00054059015 0.00031981213 0.0010206556 0.00060159125 0.00055381766 0.0009017761 0.00028393438
0.0009715045 0.00089229614 0.0016659593 0.00029303564 0.00018538143 0.0012620926 0.00013501973 0.00035710394
3.621642e-05 0.00027817985 0.0001533937 0.00032118423 0.00053393625 3.5505887e-05 1.2142545e-05 0.00040709847
0.00010348062 0.0003011689 0.00032008215 0.00022422035 0.001162014 0.0002635331 0.0002623691 0.00031317875
0.0004388521 2.4143836e-05 6.9365655e-05 0.0021867577 0.00030735746 0.0006430759 0.00016356837 0.00016939608
0.00020859932 0.0009810497 0.0004300192 0.00012992545 0.00038708543 0.0002551372 0.00023346847 0.00023773797
0.0002167818 0.00016066579 0.00022890844 0.0006697409 0.00044668824 6.2316176e-05 0.00032969046 0.0002744772
0.0006539403 6.4057213e-09 0.0005134181 0.0013285792 0.00025964936 0.00033954968 9.7139295e-05 0.00020386872
0.0011391677 0.0005368976 0.00031821616 0.0002342702 8.5559965e-05 0.00042694068 8.641331e-06 0.00021832765
0.0009903266 0.00013148294 0.0003327225 0.00027137157 0.00041209595 0.00028461116 2.8797793e-05 0.0005628276
0.0008137123 0.0004100154 0.0017281513 4.0473802e-05 3.0937084e-05 8.610733e-05 0.00077759865 0.0009648182
0.00063939707 0.00015600094 0.00012632346 0.00030174508
