checkpoint/student_1/casia/client/student_6.pt (torch, 253477 bytes, 50 tensors)

torch.sparse_coo f4 [17]
-0.14642973 0.09576288 0.09065035 -0.003615916 -0.011469839 -0.098144464 -0.1973336 -0.00051222235
-0.00012921134 -0.09394047 0.033290703 0.086646825 0.019586287 -0.03549728 -0.15650631 -0.033838958
0.13201794
00000000: adf1 15be 541f c43d e4a6 b93d 01f9 6cbb
00000010: feeb 3bbc f7ff c8bd d211 4abe a946 06ba
00000020: e87c 07b9 dc63 c0bd d55b 083d e473 b13d
00000030: 6c73 a03c 9965 11bd 3143 20be b89a 0abd
00000040: b62f 073e

conv1.1.weight f4 [64]
0.9950802 0.9948427 1.0 1.0 1.0 0.9890341 1.004446 1.0
1.0 1.0 0.99937993 1.0 1.0 1.0 1.0 1.0
1.0 1.0 1.0 1.0 1.0 1.0 1.0 1.0
1.0 1.0 1.0 1.0 1.0 1.0 1.0 1.0
1.0 1.0 1.0 1.0 1.0 1.0134941 0.9992471 1.0
0.97669286 1.0035965 1.0 1.0 1.0 1.0 1.0 1.0
1.0 1.0124313 0.9863631 0.9875823 1.0 1.0 1.0 1.0
1.0 1.0 1.0 0.99912405 1.0 1.0 1.0 1.0
00000000: 93bd 7e3f 03ae 7e3f 0000 803f 0000 803f
00000010: 0000 803f 5731 7d3f b091 803f 0000 803f
00000020: 0000 803f 0000 803f 5dd7 7f3f 0000 803f
00000030: 0000 803f 0000 803f 0000 803f 0000 803f
00000040: 0000 803f 0000 803f 0000 803f 0000 803f
00000050: 0000 803f 0000 803f 0000 803f 0000 803f
00000060: 0000 803f 0000 803f 0000 803f 0000 803f
00000070: 0000 803f 0000 803f 0000 803f 0000 803f
00000080: 0000 803f 0000 803f 0000 803f 0000 803f
00000090: 0000 803f 2dba 813f a8ce 7f3f 0000 803f
000000a0: 8b08 7a3f da75 803f 0000 803f 0000 803f
000000b0: 0000 803f 0000 803f 0000 803f 0000 803f
000000c0: 0000 803f 5997 813f 4b82 7c3f 32d2 7c3f
000000d0: 0000 803f 0000 803f 0000 803f 0000 803f
000000e0: 0000 803f 0000 803f 0000 803f 98c6 7f3f
000000f0: 0000 803f 0000 803f 0000 803f 0000 803f

conv1.1.bias f4 [64]
0.038651023 0.05309448 0.0 0.0 0.0 0.014464757 0.022512507 0.0
0.0 0.0 -0.002258392 0.0 0.0 0.0 0.0 0.0
0.0 0.0 0.0 0.0 0.0 0.0 0.0 0.0
0.0 0.0 0.0 0.0 0.0 0.0 0.0 0.0
0.0 0.0 0.0 0.0 0.0 0.0077178422 0.011196108 0.0
0.076099016 -0.0011637723 0.0 0.0 0.0 0.0 0.0 0.0
0.0 0.025135659 -0.0110636 -0.030986853 0.0 0.0 0.0 0.0
0.0 0.0 0.0 0.054887667 0.0 0.0 0.0 0.0
00000000: 8950 1e3d 9979 593d 0000 0000 0000 0000
00000010: 0000 0000 97fd 6c3c 266c b83c 0000 0000
00000020: 0000 0000 0000 0000 8801 14bb 0000 0000
00000030: 0000 0000 0000 0000 0000 0000 0000 0000
00000040: 0000 0000 0000 0000 0000 0000 0000 0000
00000050: 0000 0000 0000 0000 0000 0000 0000 0000
00000060: 0000 0000 0000 0000 0000 0000 0000 0000
00000070: 0000 0000 0000 0000 0000 0000 0000 0000
00000080: 0000 0000 0000 0000 0000 0000 0000 0000
00000090: 0000 0000 f4e5 fc3b e16f 373c 0000 0000
000000a0: cdd9 9b3d b889 98ba 0000 0000 0000 0000
000000b0: 0000 0000 0000 0000 0000 0000 0000 0000
000000c0: 0000 0000 4ce9 cd3c 1a44 35bc 24d8 fdbc
000000d0: 0000 0000 0000 0000 0000 0000 0000 0000
000000e0: 0000 0000 0000 0000 0000 0000 e4d1 603d
000000f0: 0000 0000 0000 0000 0000 0000 0000 0000

conv1.1.running_mean f4 [64]
-0.0028463684 -6e-45 0.0 0.0 0.0 -0.0022140513 -0.016134005 0.0
0.0 0.0 -6e-45 0.0 0.0 0.0 0.0 0.0
0.0 0.0 0.0 0.0 0.0 0.0 0.0 0.0
0.0 0.0 0.0 0.0 0.0 0.0 0.0 0.0
0.0 0.0 0.0 0.0 0.0 0.0042532897 0.002205495 0.0
0.0046902047 6e-45 0.0 0.0 0.0 0.0 0.0 0.0
0.0 -6.2874395e-05 0.009322795 0.0021090382 0.0 0.0 0.0 0.0
0.0 0.0 0.0 -0.0028329329 0.0 0.0 0.0 0.0
00000000: 238a 3abb 0400 0080 0000 0000 0000 0000
00000010: 0000 0000 9e19 11bb 762b 84bc 0000 0000
00000020: 0000 0000 0000 0000 0400 0080 0000 0000
00000030: 0000 0000 0000 0000 0000 0000 0000 0000
00000040: 0000 0000 0000 0000 0000 0000 0000 0000
00000050: 0000 0000 0000 0000 0000 0000 0000 0000
00000060: 0000 0000 0000 0000 0000 0000 0000 0000
00000070: 0000 0000 0000 0000 0000 0000 0000 0000
00000080: 0000 0000 0000 0000 0000 0000 0000 0000
00000090: 0000 0000 2e5f 8b3b 118a 103b 0000 0000
000000a0: 4ab0 993b 0400 0000 0000 0000 0000 0000
000000b0: 0000 0000 0000 0000 0000 0000 0000 0000
000000c0: 0000 0000 6fdb 83b8 a3be 183c ca37 0a3b
000000d0: 0000 0000 0000 0000 0000 0000 0000 0000
000000e0: 0000 0000 0000 0000 0000 0000 baa8 39bb
000000f0: 0000 0000 0000 0000 0000 0000 0000 0000

conv1.1.running_var f4 [64]
0.0007405425 6e-45 6e-45 6e-45 6e-45 0.0018164293 0.0023731554 6e-45
6e-45 6e-45 6e-45 6e-45 6e-45 6e-45 6e-45 6e-45
6e-45 6e-45 6e-45 6e-45 6e-45 6e-45 6e-45 6e-45
6e-45 6e-45 6e-45 6e-45 6e-45 6e-45 6e-45 6e-45
6e-45 6e-45 6e-45 6e-45 6e-45 0.0087257605 0.0019338044 6e-45
0.00020848685 6e-45 6e-45 6e-45 6e-45 6e-45 6e-45 6e-45
6e-45 0.0011491016 0.0055073733 0.00025607413 6e-45 6e-45 6e-45 6e-45
6e-45 6e-45 6e-45 0.0038874326 6e-45 6e-45 6e-45 6e-45
00000000: f720 423a 0400 0000 0400 0000 0400 0000
00000010: 0400 0000 4115 ee3a f186 1b3b 0400 0000
00000020: 0400 0000 0400 0000 0400 0000 0400 0000
00000030: 0400 0000 0400 0000 0400 0000 0400 0000
00000040: 0400 0000 0400 0000 0400 0000 0400 0000
00000050: 0400 0000 0400 0000 0400 0000 0400 0000
00000060: 0400 0000 0400 0000 0400 0000 0400 0000
00000070: 0400 0000 0400 0000 0400 0000 0400 0000
00000080: 0400 0000 0400 0000 0400 0000 0400 0000
00000090: 0400 0000 7ef6 0e3c b577 fd3a 0400 0000
000000a0: 439d 5a39 0400 0000 0400 0000 0400 0000
000000b0: 0400 0000 0400 0000 0400 0000 0400 0000
000000c0: 0400 0000 749d 963a 3277 b43b b041 8639
000000d0: 0400 0000 0400 0000 0400 0000 0400 0000
000000e0: 0400 0000 0400 0000 0400 0000 4cc4 7e3b
000000f0: 0400 0000 0400 0000 0400 0000 0400 0000

Block1.0.weight f4 [737]
-0.013127049 0.038785428 0.01872845 -0.020704558 -0.038895883 -0.037858173 -0.028028037 -0.029025337
-0.032869667 -0.04086527 -0.03247186 0.014008721 0.022839835 -0.035137743 -0.016435862 0.033447973
0.034905337 -0.019694917 0.021339074 -0.020518228 -0.011275714 -0.03988257 0.010396903 0.017290857
-0.018321365 0.015975084 0.039591964 -0.009866625 0.026312228 0.019248392 0.03967104 -0.032278426
0.020730507 -0.019193541 -0.023243498 -0.021791821 0.008855075 -0.0103878435 0.00046474658 -0.032162737
0.022642225 -0.03786675 0.015523172 0.03091995 0.00044112199 0.00066702307 -0.0008829996 -0.00097336015
0.0053966832 -0.0001163669 -0.037717026 0.025396502 0.00024572117 -0.0002947806 0.0002766559 -0.00025475875
-3.341991e-06 -0.00036896093 0.0001416818 0.0002416678 0.0002529725 0.0005087285 -0.009126858 0.0081114685
0.00011611029 2.8351382e-05 0.00010900525 -0.00010921583 -0.0002727723 -0.00041817478 6.59729e-05 5.2756855e-05
-0.0003144197 0.02167182 0.024973085 -0.041450582 0.010703286 -0.036702197 0.02064912 0.016788727
-0.0118028745 -0.037550315 0.0077750683 0.02611215 -0.018076545 -0.014360419 0.0035389217 -0.023733735
0.023057124 0.025009662 -0.0021055562 -0.0063755144 0.027424024 0.027480066 0.031231485 0.030096918
-0.021406587 0.010889441 0.010125563 -0.019790994 -0.020608872 -0.026707834 -0.00027270452 -4.9163053e-05
0.00077626895 0.031822708 -0.022872731 0.009588992 -0.024075206 0.039563414 -0.00015450187 -0.0005921478
-0.00027402636 -0.027575772 -0.003032593 0.04070697 0.0041263355 0.028034946 -0.0054770005 -0.010556065
-0.03346885 -0.010920088 -0.027926302 0.033806756 0.016062519 0.041298177 0.0006699798 0.018625483
0.035436474 0.021618722 -0.0189863 0.03535464 0.028788498 0.032337543 0.0051078107 0.0063972464
0.041621543 0.008042624 -0.02395169 0.00040522421 0.017792344 0.011659358 -0.041264962 -0.009333055
-0.026588812 0.035591953 -0.025718711 0.03529855 -0.02191922 0.01232703 0.011813477 -0.017214295
0.008214757 -0.031766515 0.024682885 -0.011692311 -0.026047489 -0.040253237 0.00060558587 0.017568031
-0.0044379663 -0.023802962 0.010741726 -0.02676259 0.04027879 0.027935525 -0.0078978 0.022468468
0.004814672 -0.010626985 -0.023240235 -0.035242938 -0.017255997 -0.02505229 0.007792632 0.016972687
0.01692154 -0.0035940027 -0.04059942 -0.025358051 0.0328724 0.009894128 -0.018162077 0.034652866
-0.0016120833 -0.0023231832 -0.027299812 -0.01897724 -0.0047666896 0.035280116 -0.005528208 0.0360481
-0.01708091 0.03819186 0.015300662 0.016229486 0.008186753 0.033206612 0.03560034 0.020604087
-0.01747409 -0.031135466 -0.028844027 0.027633559 -0.026348364 0.0058812853 0.013877406 0.024677893
0.011405662 -0.038256954 0.035879146 -0.026341107 0.030278688 -0.03377545 0.008345331 0.033986688
0.021683073 -0.03512674 -0.016793162 -0.039487075 2.1309657e-05 6.262198e-05 -0.00023080393 -0.00059899926
0.013831186 -0.00021297002 0.001023068 0.030920032 0.030137932 0.012325004 0.014917567 0.023725068
0.02305381 0.033476945 0.011764358 -0.044816483 -0.0296092 0.019482618 -0.02318969 -0.011702716
0.040298115 -0.034342706 0.01640667 0.041234262 -0.011727179 -0.019381102 -0.025712758 0.041513734
-0.027740996 0.038818426 -0.036850974 0.023491487 -0.03380627 0.015247375 0.039305594 -0.0095218215
00000000: d612 57bc 78dd 1e3d 686c 993c 9b9c a9bc
00000010: 4a51 1fbd 2c11 1bbd 0e9b e5bc 8bc6 edbc
00000020: 58a2 06bd 5762 27bd 3701 05bd d684 653c
00000030: 9b1a bb3c 98ec 0fbd 80a4 86bc be00 093d
00000040: e6f8 0e3d 3c57 a1bc 48cf ae3c d815 a8bc
00000050: c6bd 38bc e85b 23bd c657 2a3c 8ea5 8d3c
00000060: b016 96bc 2ede 823c 2f2b 223d a0a7 21bc
00000070: be8c d73c ceae 9d3c 1a7e 223d 6236 04bd
00000080: 06d3 a93c c63b 9dbc 2669 bebc c384 b2bc
00000090: e014 113c c631 2abc 3ba9 f339 13bd 03bd
000000a0: 307c b93c 2a1a 1bbd e754 7e3c d64b fd3c
000000b0: 6446 e739 29db 2e3a 1a79 67ba 1829 7fba
000000c0: a9d6 b03b 010a f4b8 2b7d 1abd 530c d03c
000000d0: 23d4 8039 c88c 9ab9 200c 9139 2491 85b9
000000e0: f846 60b6 1971 c1b9 6b90 1439 3568 7d39
000000f0: 65a1 8439 315c 053a d188 15bc f7e5 043c
00000100: 3d80 f338 21d4 ed37 bf99 e438 cd0a e5b8
00000110: e102 8fb9 783e dbb9 ee5a 8a38 3e47 5d38
00000120: b3d8 a4b9 1a89 b13c 5b94 cc3c 16c8 29bd
00000130: d65c 2f3c 0b55 16bd 5828 a93c 8388 893c
00000140: d860 41bc 5cce 19bd 00c6 fe3b 26e9 d53c
00000150: 4315 94bc f647 6bbc 41ed 673b 406d c2bc
00000160: 4be2 bc3c 10e1 cc3c 5ffd 09bb b1e9 d0bb
00000170: 59a8 e03c e01d e13c 2cd9 ff3c d08d f63c
00000180: de5c afbc a069 323c b0e5 253c b920 a2bc
00000190: f0d3 a8bc 63ca dabc c8f9 8eb9 6d34 4eb8
000001a0: 877e 4b3a 8758 023d 985f bbbc 261b 1d3c
000001b0: 5e39 c5bc 3f0d 223d c801 22b9 5e3a 1bba
000001c0: 32ab 8fb9 96e6 e1bc 78be 46bb 5abc 263d
000001d0: 3636 873b 8ba9 e53c 6978 b3bb 58f3 2cbc
000001e0: a216 09bd 2bea 32bc b3c5 e4bc f478 0a3d
000001f0: 8b95 833c 4728 293d 95a1 2f3a 7894 983c
00000200: d625 113d bf19 b13c 2889 9bbc 07d0 103d
00000210: dbd5 eb3c 5f74 043d 6c5f a73b fe9f d13b
00000220: 5a7b 2a3d 36c5 033c 5636 c4bc 4674 d439
00000230: 40c1 913c e406 3f3c 7305 29bd abe9 18bc
00000240: c8d0 d9bc dec8 113d 0cb0 d2bc 3695 103d
00000250: f08f b3bc 50f7 493c 508d 413c fe04 8dbc
00000260: 3097 063c 9b1d 02bd c333 ca3c 1b91 3fbc
00000270: 8b61 d5bc 94e0 24bd 2ec0 1e3a d5ea 8f3c
00000280: 5c6c 91bb 6efe c2bc 10fe 2f3c 383d dbbc
00000290: 5ffb 243d 0bd9 e43c c665 01bc cb0f b83c
000002a0: 65c4 9d3b ce1c 2ebc 4e62 bebc e65a 10bd
000002b0: 735c 8dbc 763a cdbc 5659 ff3b 4e0a 8b3c
000002c0: 0b9f 8a3c 5c89 6bbb 944b 26bd b0bb cfbc
000002d0: 36a5 063d fb1a 223c a3c8 94bc 2af0 0d3d
000002e0: 8a4c d3ba 8c40 18bb dba3 dfbc 2876 9bbc
000002f0: e431 9cbb e281 103d f825 b5bb 2ca7 133d
00000300: 44ed 8bbc 116f 1c3d a1af 7a3c b3f3 843c
00000310: bb21 063c a803 083d aad1 113d e7c9 a83c
00000320: d325 8fbc ce0f ffbc 4f4a ecbc c65f e23c
00000330: 86d8 d7bc ccb7 c03b 0f5e 633c 4b29 ca3c
00000340: d0de 3a3c 53b3 1cbd 03f6 123d 4ec9 d7bc
00000350: 030b f83c 2058 0abd dbba 083c a035 0b3d
00000360: b3a0 b13c 0ee1 0fbd d091 89bc 33bd 21bd
00000370: 24c2 b237 eb53 8338 f503 72b9 2906 1dba
00000380: 339c 623c b450 5fb9 7718 863a 024c fd3c
00000390: d3e3 f63c d0ee 493c d068 743c 135b c23c
000003a0: 58db bc3c 1f1f 093d 4bbf 403c 7d91 37bd
000003b0: fe8e f2bc 039a 9f3c 4ef8 bdbc c0bc 3fbc
000003c0: a30f 253d f0aa 0cbd 4867 863c 42e5 283d
000003d0: 5b23 40bc 1ec5 9ebc 90a3 d2bc 4e0a 2a3d
000003e0: 1641 e3bc 1200 1f3d 0cf1 16bd 3871 c03c
000003f0: 7278 0abd 20d0 793c e7fe 203d 6a01 1cbc

Block1.1.weight f4 [128]
1.0 1.0 1.0079032 1.0 1.0 1.0 1.0 1.0
0.9958684 1.0 0.99497795 1.0 1.005597 0.9942288 0.99418527 0.9996894
1.0102724 0.99661434 0.9946634 1.0017697 1.0152408 1.0 1.0 0.98354125
1.0041305 1.0 1.0 0.9782581 1.0052696 0.98610365 0.99792564 0.9962296
1.0069711 1.0063463 1.0 1.0004842 1.0 1.0 0.99368143 0.9879192
1.0 0.9972717 0.99471736 0.99973035 1.0037187 1.0045456 1.0 1.0114592
1.0 0.9962662 0.9962772 1.0046765 1.0241543 0.9945185 1.0 0.9970948
0.9883637 1.0127023 0.9980311 1.0110462 0.99803394 0.9917501 0.9819228 1.0
1.0 1.0 1.003917 1.0076658 0.99583685 0.9882136 1.0 1.0
0.99443763 0.99904764 0.991601 0.99947804 1.0017486 1.0017976 0.9929923 1.0063637
1.0 1.0 1.0008253 1.0 1.0004351 1.0 0.9950776 1.0
0.9893901 0.99683917 0.99159825 1.0025834 1.0131686 1.0007778 0.9942623 0.99630505
1.0 0.9869144 1.0 1.0 1.0171369 1.0 1.0022149 1.0188395
0.99927944 1.0 0.9949722 1.0002326 0.9976161 0.99847806 1.0 0.9973436
1.0037307 1.0257026 0.999927 0.99877626 1.0035194 1.0 0.99728674 1.0034751
0.99704576 1.0 0.99813706 1.0 1.0 1.0100552 1.000514 1.0001528
00000000: 0000 803f 0000 803f f902 813f 0000 803f
00000010: 0000 803f 0000 803f 0000 803f 0000 803f
00000020: 3bf1 7e3f 0000 803f e0b6 7e3f 0000 803f
00000030: 67b7 803f c785 7e3f ed82 7e3f a5eb 7f3f
00000040: 9b50 813f 1e22 7f3f 43a2 7e3f fd39 803f
00000050: 69f3 813f 0000 803f 0000 803f 5cc9 7b3f
00000060: 5987 803f 0000 803f 0000 803f 1f6f 7a3f
00000070: adac 803f 4a71 7c3f 0e78 7f3f e708 7f3f
00000080: 6ee4 803f f5cf 803f 0000 803f de0f 803f
00000090: 0000 803f 0000 803f e861 7e3f 46e8 7c3f
000000a0: 0000 803f 334d 7f3f cca5 7e3f 54ee 7f3f
000000b0: db79 803f f394 803f 0000 803f 7f77 813f
000000c0: 0000 803f 4d0b 7f3f 060c 7f3f 3d99 803f
000000d0: 7d17 833f c498 7e3f 0000 803f 9b41 7f3f
000000e0: 6705 7d3f 3ba0 813f f77e 7f3f f669 813f
000000f0: 277f 7f3f 56e3 7d3f 4b5f 7b3f 0000 803f
00000100: 0000 803f 0000 803f 5a80 803f 31fb 803f
00000110: 2aef 7e3f 91fb 7c3f 0000 803f 0000 803f
00000120: 7793 7e3f 96c1 7f3f 90d9 7d3f cbdd 7f3f
00000130: 4c39 803f e73a 803f be34 7e3f 87d0 803f
00000140: 0000 803f 0000 803f 0b1b 803f 0000 803f
00000150: 420e 803f 0000 803f 68bd 7e3f 0000 803f
00000160: ab48 7d3f da30 7f3f 62d9 7d3f a754 803f
00000170: 82af 813f 7d19 803f f987 7e3f d90d 7f3f
00000180: 0000 803f 6ca6 7c3f 0000 803f 0000 803f
00000190: 8b31 823f 0000 803f 9448 803f 5569 823f
000001a0: c7d0 7f3f 0000 803f 80b6 7e3f 9f07 803f
000001b0: c563 7f3f 429c 7f3f 0000 803f e951 7f3f
000001c0: 3f7a 803f 394a 833f 37fb 7f3f cdaf 7f3f
000001d0: 5373 803f 0000 803f 2f4e 7f3f df71 803f
000001e0: 643e 7f3f 0000 803f e985 7f3f 0000 803f
000001f0: 0000 803f 7d49 813f d810 803f 0205 803f

Block1.1.bias f4 [128]
0.0 0.0 0.023828337 0.0 0.0 0.0 0.0 0.0
0.058552586 0.0 0.00032611052 0.0 0.025414446 0.0012747841 0.047102842 -5.4897733e-05
0.025675382 0.010276978 -0.0019190364 0.026432322 -0.042659584 0.0 0.0 0.009824251
0.02613459 0.0 0.0 -0.0042401482 0.01964807 0.043552727 -0.0035147727 0.03437101
0.012936235 0.006610256 0.0 0.047488194 0.0 0.0 -0.02176574 -0.008669674
0.0 -5.100806e-05 -0.0034483585 -0.0013446991 0.01570001 0.02254582 0.0 0.046998035
0.0 -0.0015950829 -0.007733254 0.002931171 0.020006355 -0.0050430843 0.0 -0.0025801284
-0.0038434735 0.040040288 -0.001317668 0.028469842 -0.0031799858 -0.0028887345 0.038366165 0.0
0.0 0.0 0.000253371 0.028589197 -0.0002002571 -0.04513492 0.0 0.0
0.0049017626 -1.8275012e-05 -0.00599732 0.0046874145 0.016009206 0.017908383 0.01801461 0.026342621
0.0 0.0 -0.0024049631 0.0 0.0176464 0.0 0.058422588 0.0
0.009713101 0.00629786 0.024082992 0.005007819 0.0076631033 0.029833572 -0.029023238 -0.0030906855
0.0 -0.016705226 0.0 0.0 0.042480357 0.0 0.04142145 0.061340187
-0.002853571 0.0 -0.007301607 0.016512766 -0.0048337975 -2.5516241e-05 0.0 -0.041944124
0.028611459 -0.0016390763 0.04390662 -0.011587644 0.00026714455 0.0 -9.941973e-05 0.020992734
-0.012870655 0.0 -0.00362798 0.0 0.0 0.016605072 0.0059826015 0.023598751
00000000: 0000 0000 0000 0000 a533 c33c 0000 0000
00000010: 0000 0000 0000 0000 0000 0000 0000 0000
00000020: d6d4 6f3d 0000 0000 d0f9 aa39 0000 0000
00000030: f531 d03c a816 a73a e9ee 403d fe41 66b8
00000040: 2e55 d23c c560 283c 2d88 fbba 9988 d83c
00000050: d1bb 2ebd 0000 0000 0000 0000 e5f5 203c
00000060: 3518 d63c 0000 0000 0000 0000 f1f0 8abb
00000070: fdf4 a03c 5864 323d 1a58 66bb 9ec8 0c3d
00000080: 81f2 533c d99a d83b 0000 0000 fb82 423d
00000090: 0000 0000 0000 0000 114e b2bc 400b 0ebc
000000a0: 0000 0000 7df1 55b8 dbfd 61bb 9d40 b0ba
000000b0: 4f9d 803c 03b2 b83c 0000 0000 0381 403d
000000c0: 0000 0000 1a12 d1ba 3d67 fdbb e418 403b
000000d0: 5ee4 a33c 7540 a5bb 0000 0000 5f17 29bb
000000e0: c9e2 7bbb 4901 243d 9ab5 acba 9639 e93c
000000f0: 4f67 50bb ec50 3dbb d725 1d3d 0000 0000
00000100: 0000 0000 0000 0000 e1d6 8439 e433 ea3c
00000110: 1bfc 51b9 65df 38bd 0000 0000 0000 0000
00000120: f79e a03b 4a4d 99b7 2b85 c4bb e298 993b
00000130: bd25 833c 9ab4 923c 6093 933c 7bcc d73c
00000140: 0000 0000 0000 0000 969c 1dbb 0000 0000
00000150: 2f8f 903c 0000 0000 864c 6f3d 0000 0000
00000160: b323 1f3c 475e ce3b b249 c53c a118 a43b
00000170: c51a fb3b 8965 f43c 24c2 edbc 198d 4abb
00000180: 0000 0000 66d9 88bc 0000 0000 0000 0000
00000190: e2ff 2d3d 0000 0000 8aa9 293d d93f 7b3d
000001a0: fa02 3bbb 0000 0000 5242 efbb c845 873c
000001b0: d564 9ebb b60b d6b7 0000 0000 9acd 2bbd
000001c0: 9462 ea3c 46d6 d6ba 6ed7 333d 1ada 3dbc
000001d0: 890f 8c39 0000 0000 907f d0b8 f4f8 ab3c
000001e0: 71df 52bc 0000 0000 67c3 6dbb 0000 0000
000001f0: 0000 0000 5c07 883c b309 c43b 2b52 c13c

Block1.1.running_mean f4 [128]
0.0 0.0 0.0008956214 0.0 0.0 0.0 0.0 0.0
0.006899067 0.0 0.011006411 0.0 -0.004875591 0.009799024 0.013664559 -6e-45
0.0056364588 -0.004637715 -6e-45 0.001467481 0.018402152 0.0 0.0 0.0050616735
-6e-45 0.0 0.0 -0.010976141 0.005396106 0.006687549 6e-45 0.0039061517
-0.011857465 0.030955624 0.0 0.0067749578 0.0 0.0 0.0052044215 0.020795902
0.0 -4.067601e-38 -6e-45 -6e-45 -0.022528687 -0.014007756 0.0 -0.02483566
0.0 6e-45 -6e-45 -0.010810018 -0.0068857768 -6.7958406e-22 0.0 6e-45
-0.017441053 -0.0043117176 -6e-45 0.005082536 -6e-45 -0.013417173 0.0075614783 0.0
0.0 0.0 0.009081347 -0.015794694 -6e-45 0.018988429 0.0 0.0
0.0059759202 -6e-45 -0.0010388469 -0.0011805261 -0.014600865 -0.0070698624 3.8581646e-29 0.019995833
0.0 0.0 -6e-45 0.0 -0.0071531693 0.0 -0.00793749 0.0
-0.012100058 -0.012690459 0.02252296 0.006145384 -0.01584484 0.028920803 0.0064225513 -8.4e-43
0.0 -0.0049018213 0.0 0.0 -0.017082546 0.0 -0.012230685 -0.012256676
-6e-45 0.0 -6e-45 -0.0055510644 6e-45 0.006833425 0.0 0.008366359
0.0083369585 0.025347587 0.008846793 0.0012535917 -0.0123666525 0.0 -6e-45 0.010591375
0.016013004 0.0 6e-45 0.0 0.0 0.009986904 -0.011756373 0.00079142425
00000000: 0000 0000 0000 0000 22c8 6a3a 0000 0000
00000010: 0000 0000 0000 0000 0000 0000 0000 0000
00000020: 9211 e23b 0000 0000 3c54 343c 0000 0000
00000030: 6cc3 9fbb 168c 203c 51e1 5f3c 0400 0080
00000040: 0bb2 b83b f9f7 97bb 0400 0080 7e58 c03a
00000050: 1cc0 963c 0000 0000 0000 0000 65dc a53b
00000060: 0400 0080 0000 0000 0000 0000 46d5 33bc
00000070: d1d1 b03b 3a23 db3b 0400 0000 5afe 7f3b
00000080: d045 42bc a696 fd3c 0000 0000 7700 de3b
00000090: 0000 0000 0000 0000 da89 aa3b 2b5c aa3c
000000a0: 0000 0000 1576 5d81 0400 0080 0400 0080
000000b0: 158e b8bc c980 65bc 0000 0000 2774 cbbc
000000c0: 0000 0000 0400 0000 0400 0080 801c 31bc
000000d0: 15a2 e1bb 4564 4d9c 0000 0000 0400 0000
000000e0: 8ae0 8ebc 4f49 8dbb 0400 0080 678b a63b
000000f0: 0400 0080 b4d3 5bbc 47c6 f73b 0000 0000
00000100: 0000 0000 0000 0000 eec9 143c e063 81bc
00000110: 0400 0080 9f8d 9b3c 0000 0000 0000 0000
00000120: a7d1 c33b 0400 0080 eb29 88ba e2bb 9aba
00000130: 7738 6fbc 4eaa e7bb d7a1 4310 4dce a33c
00000140: 0000 0000 0000 0000 0400 0080 0000 0000
00000150: 2265 eabb 0000 0000 3f0c 02bc 0000 0000
00000160: 523f 46bc a5eb 4fbc 1282 b83c 385f c93b
00000170: 0acd 81bc 52eb ec3c 4474 d23b 5702 0080
00000180: 0000 0000 759f a0bb 0000 0000 0000 0000
00000190: b2f0 8bbc 0000 0000 3663 48bc 3ad0 48bc
000001a0: 0400 0080 0000 0000 0400 0080 b4e5 b5bb
000001b0: 0400 0000 ecea df3b 0000 0000 0e13 093c
000001c0: bd97 083c bea5 cf3c 24f2 103c 8f4f a43a
000001d0: 809d 4abc 0000 0000 0400 0080 7287 2d3c
000001e0: b42d 833c 0000 0000 0400 0000 0000 0000
000001f0: 0000 0000 1da0 233c cd9d 40bc 9577 4f3a

Block1.1.running_var f4 [128]
6e-45 6e-45 4.2338806e-06 6e-45 6e-45 6e-45 6e-45 6e-45
8.133626e-05 6e-45 0.00014270325 6e-45 5.1891417e-05 0.00017887642 0.00035346046 6e-45
0.00027651232 3.783015e-05 6e-45 3.430746e-05 0.00023734976 6e-45 6e-45 3.9382823e-05
6e-45 6e-45 6e-45 0.00022600307 7.101667e-05 4.1940497e-05 6e-45 7.8940866e-05
0.00025278298 0.0018379599 6e-45 0.00011902821 6e-45 6e-45 5.236685e-05 0.0006312219
6e-45 4.287e-42 6e-45 6e-45 0.0010675264 0.00034603677 6e-45 0.00030566502
6e-45 6e-45 6e-45 0.0002232856 7.4966437e-07 5.234662e-26 6e-45 6e-45
0.00051974907 5.2244442e-05 6e-45 0.00033182625 6e-45 0.00035057156 0.00010823414 6e-45
6e-45 6e-45 0.00016867356 0.000390797 6e-45 0.0006134951 6e-45 6e-45
6.311511e-05 6e-45 2.0887504e-21 2.2044674e-08 0.00036848045 0.00010960764 1.3359643e-32 0.00025481565
6e-45 6e-45 6e-45 6e-45 9.6529184e-05 6e-45 0.00011548535 6e-45
0.0003332109 0.00027974014 0.0007871664 0.00010472968 0.00047804386 0.0020727126 6.0662456e-05 6e-45
6e-45 0.00052254886 6e-45 6e-45 0.00063491106 6e-45 0.0003500717 0.0005859621
6e-45 6e-45 6e-45 0.0005310856 6e-45 0.00010679046 6e-45 0.00011176313
0.0001325785 0.00042789924 0.00017357909 2.4846246e-08 0.0002786756 6e-45 6e-45 0.00017960617
0.0004518943 6e-45 6e-45 6e-45 6e-45 0.0001251955 0.00022947755 0.00010001038
00000000: 0400 0000 0400 0000 c210 8e36 0400 0000
00000010: 0400 0000 0400 0000 0400 0000 0400 0000
00000020: 1293 aa38 0400 0000 9da2 1539 0400 0000
00000030: fca5 5938 c690 3b39 a950 b939 0400 0000
00000040: dbf8 9039 d0ab 1e38 0400 0000 5be5 0f38
00000050: 17e1 7839 0400 0000 0400 0000 fc2e 2538
00000060: 0400 0000 0400 0000 0400 0000 3dfb 6c39
00000070: c9ee 9438 44e9 2f38 0400 0000 0e8d a538
00000080: f587 8439 b3e7 f03a 0400 0000 c99e f938
00000090: 0400 0000 0400 0000 7aa4 5b38 9678 253a
000000a0: 0400 0000 f30b 0000 0400 0000 0400 0000
000000b0: 3eec 8b3a 456c b539 0400 0000 aa41 a039
000000c0: 0400 0000 0400 0000 0400 0000 c621 6a39
000000d0: 8b3c 4935 9d9a 8115 0400 0000 0400 0000
000000e0: c53f 083a 0b21 5b38 0400 0000 f7f8 ad39
000000f0: 0400 0000 ebcc b739 c3fb e238 0400 0000
00000100: 0400 0000 0400 0000 f7dd 3039 e3e3 cc39
00000110: 0400 0000 f6d2 203a 0400 0000 0400 0000
00000120: ab5c 8438 0400 0000 4fd2 1d1d c05c bd32
00000130: 9c30 c139 27dd e538 06bc 8a0a c798 8539
00000140: 0400 0000 0400 0000 0400 0000 0400 0000
00000150: b66f ca38 0400 0000 ba30 f238 0400 0000
00000160: cfb2 ae39 16aa 9239 d859 4e3a 52a2 db38
00000170: f6a1 fa39 59d6 073b d16f 7e38 0400 0000
00000180: 0400 0000 a9fb 083a 0400 0000 0400 0000
00000190: 2970 263a 0400 0000 d489 b739 409b 193a
000001a0: 0400 0000 0400 0000 0400 0000 8d38 0b3a
000001b0: 0400 0000 b1f4 df38 0400 0000 6062 ea38
000001c0: c504 0b39 aa57 e039 c802 3639 796d d532
000001d0: 351b 9239 0400 0000 0400 0000 aa54 3c39
000001e0: 3aec ec39 0400 0000 0400 0000 0400 0000
000001f0: 0400 0000 e946 0339 e99f 7039 aabc d138

Block1.3.weight f4 [2259]
-0.000619275 0.0002801418 -0.014021834 -0.0006430042 0.0018185101 0.0018111386 0.005654904 -0.0055299695
-0.000256534 0.0007567176 -0.021578962 0.01883108 0.01107488 -0.00085349847 -0.00081809214 -0.008307747
0.00014914668 -0.00085534976 -0.00039298998 -0.00016033927 0.0011932944 -4.8832107e-06 0.0014608118 0.0007877797
-0.0006454765 -0.00042027136 -0.029750928 0.0011521536 0.0012316911 -8.161629e-05 0.00037069203 0.013440524
0.02598161 0.019057278 -0.02580904 0.008173398 -0.028684696 -0.013910072 -0.015133267 -0.018016595
-0.02134232 0.009030122 -0.034727562 -0.010183104 -0.020529842 -0.019760074 0.0005461151 5.0787505e-05
0.0022399824 0.012763633 0.0146486405 0.025538687 -0.022916866 -0.017458728 0.02013163 -0.024927314
0.021020763 -0.006423859 0.021362621 0.026806049 0.01292725 -0.0075797588 -0.009147018 0.040815946
0.0056072683 -0.006515583 -0.00956921 -0.025975348 -0.009730801 -0.020891238 -0.019036371 0.0092233345
-0.007291865 -0.020176314 -0.009247143 0.004355461 0.018706823 0.026240032 -0.022500196 0.006623121
0.006874684 0.006375336 0.029156 -0.03871431 -0.011914807 -0.022275375 0.028985016 0.02227076
0.017321013 -0.009189312 0.011653507 -0.020556588 0.025785215 0.020405365 0.020051219 -0.01212712
0.010753204 0.004413636 0.00088415114 0.006255691 -0.028019534 -0.00024798996 0.00042277577 0.0004860288
-0.0074834563 0.013903144 0.036695912 0.02283742 -0.0048622517 -0.004914297 0.036919266 0.02679398
0.012360406 -0.022003524 -0.0058661895 0.010245766 -0.020092981 0.026317585 -0.013478847 0.026593633
-0.007571966 -0.016520064 -0.015214763 0.026633093 0.009597661 -0.0076456293 -0.0074694986 -0.006951768
0.027351929 -0.017427437 0.013512629 0.019236756 -0.038353406 -0.0003368071 0.0002852381 0.0005513798
-0.0212434 -0.009449877 0.0005449291 0.00028429873 0.005113172 -0.023433328 0.011279023 -0.01938155
-0.038031165 -0.017571721 0.018028166 -0.01273472 -0.028035125 -0.020916378 0.014842185 0.03088879
-0.024232717 -0.007342202 0.023811072 0.0148194535 0.014041988 -0.022347888 -0.023100035 0.009855324
-0.019934362 0.0064055673 -0.014232386 0.01232689 -0.012057644 -0.011096582 -0.011214541 0.0043432927
0.020619057 0.02138038 0.027322132 0.013354507 -0.020994026 0.013678644 0.021009581 0.0031520033
0.013382198 -0.003984696 0.0014381973 0.0076045953 0.015806321 -0.0063711386 -0.009800716 -0.010616111
-0.006509682 0.0016034984 -0.02461398 -0.0031271204 0.019180266 -0.0071726246 -0.013446169 0.008928933
0.015818657 -0.026048692 -0.015428791 -0.00921094 0.025505133 -0.010597388 0.019476734 -0.010566931
-0.0012465979 -0.0030583171 -0.020799294 0.010525754 -0.010960956 -0.0072730947 -0.009990822 -0.025419516
-0.028499175 0.017291037 0.024736019 0.027160363 0.018384483 0.022542924 -0.008774138 -0.017902162
-0.011639639 -0.029990993 -0.023039231 0.03666281 0.018374076 0.0023095969 -0.0025866474 0.001621038
-0.03625118 0.01690116 -0.00918666 0.010432393 -0.009104671 0.024648385 0.018017061 0.02243769
-0.01336886 -0.011961214 0.026626322 -0.0287879 0.025942892 -0.026282392 0.014395377 -0.0058911433
-0.016576074 0.016397657 -0.013448796 -0.020758128 0.015403326 0.0337321 0.010758491 -0.024353981
-0.0042364947 -0.019699553 -0.04276025 -0.02225918 -0.009338784 0.022580333 0.006661207 0.008233963
00000000: d756 22ba ffdf 9239 d6bb 65bc 488f 28ba
00000010: 135b ee3a ba63 ed3a c64c b93b bf34 b5bb
00000020: 697f 86b9 755e 463a 5dc6 b0bc a343 9a3c
00000030: 6a73 353c 50bd 5fba 3c75 56ba 371d 08bc
00000040: 4264 1c39 8d39 60ba 390a ceb9 bf20 28b9
00000050: 5168 9c3a 76da a3b6 b678 bf3a 0083 4e3a
00000060: 3235 29ba de57 dcb9 38b8 f3bc dc03 973a
00000070: b270 a13a 6929 abb8 7159 c239 a535 5c3c
00000080: 63d7 d43c 021e 9c3c 7b6d d3bc b7e9 053c
00000090: 2bfc eabc 12e7 63bc 86f1 77bc 8a97 93bc
000000a0: 17d6 aebc 14f3 133c 7d3e 0ebd 09d7 26bc
000000b0: 332e a8bc e1df a1bc 2a29 0f3a ab04 5538
000000c0: abcc 123b 8f1e 513c da00 703c 8236 d13c
000000d0: 27bc bbbc 9b05 8fbc 17eb a43c 5e34 ccbc
000000e0: bc33 ac3c 3c7f d2bb aa00 af3c 5c98 db3c
000000f0: d1cc 533c a05f f8bb 60dd 15bc 9f2e 273d
00000100: 2dbd b73b ac80 d5bb 2dc8 1cbc 41ca d4bc
00000110: f06d 1fbc 1a24 abbc 2af2 9bbc 781d 173c
00000120: 99f0 eebb cc48 a5bc 5481 17bc 41b8 8e3b
00000130: 0d3f 993c 56f5 d63c 5552 b8bc c406 d93b
00000140: 0745 e13b 32e8 d03b 90d8 ee3c e592 1ebd
00000150: 5336 43bc d97a b6bc fc71 ed3c 2b71 b63c
00000160: cce4 8d3c c58e 16bc 5aee 3e3c 4a66 a8bc
00000170: 843b d33c 2729 a73c 7442 a43c d4b0 46bc
00000180: 352e 303c 43a0 903b 61c6 673a 8afc cc3b
00000190: 3989 e5bc a604 82b9 01a8 dd39 aed1 fe39
000001a0: c837 f5bb 03ca 633c 744e 163d 8b15 bb3c
000001b0: 8653 9fbb 1c08 a1bb a838 173d 0c7f db3c
000001c0: 4d83 4a3c bc40 b4bc 2a39 c0bb dbdd 273c
000001d0: 099a a4bc fa97 d73c 62d6 5cbc e4da d93c
000001e0: 411e f8bb 1655 87bc 5747 79bc a52d da3c
000001f0: 823f 1d3c 3088 fabb b2c2 f4bb a8cb e3bb
00000200: 2711 e03c fcc3 8ebc 1364 5d3c 6796 9d3c
00000210: 7618 1dbd 7c95 b0b9 028c 9539 798a 103a
00000220: a406 aebc a8d3 1abc 93d9 0e3a ee0d 9539
00000230: 658c a73b 40f7 bfbc a7cb 383c 0ec6 9ebc
00000240: 91c6 1bbd 92f2 8fbc ceaf 933c 49a5 50bc
00000250: eba9 e5bc d358 abbc a32c 733c 7d0a fd3c
00000260: b183 c6bc db96 f0bb 700f c33c 4bcd 723c
00000270: 5e10 663c eb12 b7bc 493c bdbc 3a78 213c
00000280: 634d a3bc cbe5 d13b f42e 69bc b9f6 493c
00000290: 6d8d 45bc 70ce 35bc 32bd 37bc 2e52 8e3b
000002a0: 4ce9 a83c e825 af3c aad2 df3c ddcc 5a3c
000002b0: aafb abbc 641c 603c 491c ac3c d791 4e3b
000002c0: 0241 5b3c 0e92 82bb e581 bc3a f82f f93b
000002d0: 427c 813c fcc4 d0bb 2f93 20bc 32ef 2dbc
000002e0: 2c4f d5bb 7a2c d23a 42a3 c9bc 60f0 4cbb
000002f0: ef1f 9d3c 5608 ebbb 524d 5cbc a94a 123c
00000300: 2196 813c 1164 d5bc 0ac9 7cbc 7ce9 16bc
00000310: 24f0 d03c aba0 2dbc ac8d 9f3c ec20 2dbc
00000320: e264 a3ba 0c6e 48bb 4863 aabc 3674 2c3c
00000330: 9595 33bc 2453 eebb 8bb0 23bc 973c d0bc
00000340: 1a77 e9bc efa5 8d3c 31a3 ca3c 697f de3c
00000350: 0e9b 963c f0ab b83c 67c1 0fbc 8ea7 92bc
00000360: 2fb4 3ebc acaf f5bc c5bc bcbc be2b 163d
00000370: 3b85 963c 9b5c 173b be84 29bb 0279 d43a
00000380: 1e7c 14bd 4d74 8a3c a583 16bc a1ec 2a3c
00000390: c22b 15bc 69eb c93c 8498 933c 3fcf b73c
000003a0: 1009 5bbc f8f8 43bc 721f da3c 9ad4 ebbc
000003b0: 3086 d43c 2c4e d7bc 96da 6b3c 7e0a c1bb
000003c0: 8cca 87bc 6154 863c 5758 5cbc f30c aabc
000003d0: 3b5e 7c3c ac2a 0a3d 6244 303c 0082 c7bc
000003e0: 4bd2 8abb f560 a1bc 5f25 2fbd e258 b6bc
000003f0: b301 19bc 64fa b83c 4146 da3b bee7 063c

Block1.4.weight f4 [196]
1.0060742 0.99257207 1.0056952 0.9978969 0.9967592 1.0018181 1.0094925 1.0097004
0.9940397 0.9917808 1.0026464 0.99244297 0.9977596 0.9768333 1.013236 1.0049049
0.9829357 0.99485594 0.99195045 0.9937286 0.9818256 0.98477095 0.98576915 1.0053638
0.98243386 1.0033505 1.0025357 1.0022086 0.997906 1.0036563 1.0112873 1.0123395
0.9817186 0.98881495 0.99905 1.026809 1.0039827 0.98661196 1.0100068 1.0181627
0.9955342 0.9924166 0.98951405 1.0198761 1.0146737 1.0326484 0.99991465 0.99609697
0.9895794 0.98312885 1.0027493 1.0155773 1.0074562 1.0025532 1.0060437 1.0335168
1.0348189 0.99500585 0.99569505 0.9953604 0.99667186 1.0090233 1.0103635 0.9983474
0.9910987 0.994414 1.0207685 0.98667467 0.9907117 1.0063977 0.9973378 1.0003428
0.98576957 1.0046979 0.9868164 1.0046315 1.0051937 0.9881251 0.98881584 0.9858426
0.99075556 0.9788824 1.0041395 0.9860621 0.99353063 1.0093855 0.99777734 0.9914737
0.98401177 1.0075881 0.994423 1.008997 0.990207 1.0312963 1.0066031 0.99307215
1.0005616 0.9857585 0.9944226 1.0412847 1.0019921 0.9912248 1.0096278 0.9858637
1.0097036 0.99941015 1.0327966 0.9993413 1.0152291 0.9876071 0.991991 0.99912935
1.0623155 0.9999736 1.0038517 0.99637187 0.99297905 0.99537414 0.98357 1.0025042
0.9990842 1.0056305 1.0452204 1.0097414 0.997666 0.99279964 1.0024936 0.993553
1.0361075 1.0018286 0.99952465 1.0323472 0.99428815 1.0165459 0.97913843 1.0472537
1.0054427 0.9979611 0.99732316 1.004324 1.0134135 0.99748707 0.984171 1.0189037
0.9971444 0.9889128 0.99928325 1.0239613 1.0032235 0.9837275 1.0002826 1.0130132
1.0069413 1.0114014 0.9940646 1.0000122 0.9980976 0.99100137 1.0216025 0.98342913
0.9960225 1.0072236 0.99116665 1.0045563 0.9857238 0.99416196 0.993499 0.9875663
0.9917332 0.993689 0.9956834 1.0131983 0.9910111 0.99802953 0.9952811 0.99912727
0.9903784 0.9898715 1.0172856 1.0067331 0.98601407 0.9896384 1.0026606 0.9928178
1.0087998 1.0000618 0.9972637 1.0495868 0.9985455 0.98258233 0.9923446 1.0036273
1.0179132 0.99547493 1.0029458 1.0037904
00000000: 0ac7 803f 3419 7e3f 9fba 803f 2c76 7f3f
00000010: 9c2b 7f3f 933b 803f 0d37 813f dd3d 813f
00000020: 6379 7e3f 59e5 7d3f b856 803f be10 7e3f
00000030: 2c6d 7f3f bf11 7a3f b8b1 813f b9a0 803f
00000040: ada1 7b3f e1ae 7e3f 77f0 7d3f ff64 7e3f
00000050: ec58 7b3f f319 7c3f 5e5b 7c3f c3af 803f
00000060: c980 7b3f ca6d 803f 1753 803f 5f48 803f
00000070: c576 7f3f cf77 803f dd71 813f 5794 813f
00000080: e951 7b3f fa22 7d3f bec1 7f3f 7a6e 833f
00000090: 8182 803f 9a92 7c3f e747 813f 2853 823f
000000a0: 54db 7e3f 040f 7e3f cb50 7d3f 4d8b 823f
000000b0: d4e0 813f d32d 843f 68fa 7f3f 3600 7f3f
000000c0: 1355 7d3f 55ae 7b3f 175a 803f 70fe 813f
000000d0: 53f4 803f aa53 803f 0ac6 803f 474a 843f
000000e0: f274 843f b4b8 7e3f dfe5 7e3f f0cf 7e3f
000000f0: e325 7f3f ad27 813f 9753 813f b293 7f3f
00000100: a5b8 7d3f ea91 7e3f 8ba8 823f b696 7c3f
00000110: 489f 7d3f a4d1 803f 8851 7f3f 3c0b 803f
00000120: 655b 7c3f f199 803f 00a0 7c3f c497 803f
00000130: 30aa 803f c4f5 7c3f 0923 7d3f 2e60 7c3f
00000140: 28a2 7d3f 0998 7a3f a587 803f 916e 7c3f
00000150: 0658 7e3f 8b33 813f 566e 7f3f 38d1 7d3f
00000160: 32e8 7b3f a6f8 803f 8192 7e3f d026 813f
00000170: 357e 7d3f 8401 843f 5fd8 803f fa39 7e3f
00000180: 6712 803f ab5a 7c3f 7b92 7e3f d148 853f
00000190: 4741 803f e9c0 7d3f 7c3b 813f 9061 7c3f
000001a0: f83d 813f 58d9 7f3f ae32 843f d5d4 7f3f
000001b0: 07f3 813f d2d3 7c3f 1ff3 7d3f f1c6 7f3f
000001c0: f4f9 873f 45fe 7f3f 367e 803f 3a12 7f3f
000001d0: e033 7e3f d7d0 7e3f 3ecb 7b3f 0f52 803f
000001e0: fbc3 7f3f 80b8 803f c8c9 853f 353f 813f
000001f0: 0a67 7f3f 1e28 7e3f b651 803f 7d59 7e3f
00000200: 2c9f 843f eb3b 803f d9e0 7f3f f423 843f
00000210: ab89 7e3f 2d1e 823f d1a8 7a3f 690c 863f
00000220: 59b2 803f 617a 7f3f 9250 7f3f b08d 803f
00000230: 89b7 813f 505b 7f3f a1f2 7b3f 706b 823f
00000240: db44 7f3f 6429 7d3f 07d1 7f3f 2a11 833f
00000250: a169 803f 91d5 7b3f 4309 803f 6baa 813f
00000260: 74e3 803f 9a75 813f 057b 7e3f 6600 803f
00000270: 5383 7f3f 44b2 7d3f dfc3 823f 03c2 7b3f
00000280: 55fb 7e3f b4ec 803f 19bd 7d3f 4d95 803f
00000290: 6558 7c3f 6681 7e3f f355 7e3f 25d1 7c3f
000002a0: 3ae2 7d3f 6762 7e3f 1be5 7e3f 7bb0 813f
000002b0: e7b2 7d3f dd7e 7f3f beca 7e3f cec6 7f3f
000002c0: 7089 7d3f 3868 7d3f 6a36 823f a1dc 803f
000002d0: 6b6b 7c3f f158 7d3f 2f57 803f 4f29 7e3f
000002e0: 5a20 813f 0602 803f ad4c 7f3f dc58 863f
000002f0: aea0 7f3f 848a 7b3f 4c0a 7e3f dc76 803f
00000300: fb4a 823f 72d7 7e3f 8760 803f 347c 803f

Block1.4.bias f4 [196]
0.061998513 0.040024515 0.06482506 -0.00038368994 0.020939302 0.008055684 -0.008825575 0.025496999
-0.007647865 0.0011051414 0.0054919366 -0.008148211 -0.0006467927 -0.010293941 0.022480065 0.01804329
-0.016388565 -0.016024599 -0.025126122 0.0016439512 -0.018544294 -0.012886503 -0.022571575 0.011622977
0.0089839855 0.018855946 -0.021742145 0.0061807455 -0.00579142 -0.01257608 0.024947563 0.0066283843
0.0048960675 -0.012034144 0.0068465318 -0.032213636 -0.013840226 -0.0053193793 -0.0030635407 0.01492149
-0.010851045 0.03159769 -0.028660215 0.03027932 0.023995947 -0.021245582 -0.0045546424 0.005471101
0.019299261 0.0010780569 -0.020247815 -0.008025879 0.005974802 0.011816164 0.0047247084 0.009626215
0.055644453 0.01409418 0.003614375 -0.0021575394 0.013892841 0.047950685 0.038226884 0.01683322
0.0037509967 -0.02362306 -0.0154658025 -0.0043530376 0.0012618426 0.020086553 0.0040464196 0.025324797
-0.022702184 -0.007217728 -0.013887418 0.0715156 0.019347368 -0.012242043 -0.016180864 -0.016339313
0.009359511 -0.0058739516 0.014274772 0.0038160954 0.0015273859 0.0028648265 0.01233896 -0.003301576
-0.02608467 0.01509487 0.0063749156 0.034024037 -0.010917254 -0.0044643506 0.04645461 0.01691047
0.006739228 -0.03138709 0.0032710738 0.009191602 0.0003302744 -0.016376875 0.013194596 -0.009017592
-0.023939824 0.004049035 0.011309364 0.0026853113 0.00033240445 0.031210864 0.011152633 0.0038195117
-0.003689831 0.019252257 0.024434831 -0.019571848 -0.0217133 -0.008131787 -0.005019448 0.011002056
0.008765086 -0.0015200196 0.044104252 0.004296897 0.02388928 0.014082294 -0.006478245 -0.0005297683
0.047837105 -0.0046560857 0.031137047 0.026322238 0.040858388 0.024038473 0.02540438 0.04127061
0.0113374805 0.0025114897 0.021818258 -0.0061008097 0.0013730681 0.039599545 -0.015147068 0.022081489
-0.0019145622 -0.019057896 -0.043380093 -0.02202635 -0.009258086 0.006656267 -0.022406342 -0.007199033
-0.016649602 0.02893724 -0.033813942 0.04092906 -0.0018373505 -0.0047691874 0.035379663 -0.034839533
0.07931213 0.01707649 -0.02045764 -0.027922757 0.0035904879 0.015183705 0.015041575 -0.028310757
-0.013576191 0.004035796 0.01576294 0.020989772 -0.010617902 0.034453914 -0.010993528 0.040069774
0.029186843 0.019725725 0.049566243 0.016176965 -0.023828639 -0.027289912 -0.014746709 0.0052404273
-0.0016903921 0.023547247 0.0015410066 0.0368946 -0.0019961419 0.011409092 0.005997017 0.033365645
0.020538904 -0.023818811 -0.024349112 0.10136038
00000000: 27f2 7d3d bff0 233d 00c3 843d fe29 c9b9
00000010: e688 ab3c fdfb 033c 2599 10bc 15df d03c
00000020: f19a fabb 64da 903a b4f5 b33b 1380 05bc
00000030: 868d 29ba eba7 28bc 1d28 b83c 86cf 933c
00000040: 5041 86bc 0546 83bc 4cd5 cdbc d979 d73a
00000050: 34ea 97bc e921 53bc 06e8 b8bc 4d6e 3e3c
00000060: 9131 133c c977 9a3c 951c b2bc da87 ca3b
00000070: f4c5 bdbb e70b 4ebc d55e cc3c eb32 d93b
00000080: 316f a03b dc2a 45bc df58 e03b 72f2 03bd
00000090: 1ec2 62bc 304e aebb afc5 48bb 4479 743c
000000a0: 95c8 31bc 946c 013d d4c8 eabc 560c f83c
000000b0: 2693 c43c 370b aebc 1c3f 95bb ec46 b33b
000000c0: 7c19 9e3c 964d 8d3a bfde a5bc fa7e 03bc
000000d0: 46c8 c33b 9598 413c bad1 9a3b 46b7 1d3c
000000e0: 70eb 633d 47eb 663c 26df 6c3b 8165 0dbb
000000f0: cc9e 633c f067 443d cb93 1c3d d2e5 893c
00000100: 48d3 753b 2685 c1bc 4764 7dbc eda3 8ebb
00000110: 6964 a53a 8e8c a43c d497 843b f375 cf3c
00000120: eef9 b9bc b182 ecbb 0e88 63bc c576 923d
00000130: 5f7e 9e3c da92 48bc bb8d 84bc 06da 85bc
00000140: a258 193c 477a c0bb bce0 693c 7517 7a3b
00000150: 9132 c83a d0bf 3b3b 5929 4a3c 415f 58bb
00000160: 85af d5bc 7950 773c abe4 d03b ca5c 0b3d
00000170: 48de 32bc b049 92bb 3047 3e3d d387 8a3c
00000180: bed4 dc3b c08f 00bd 835f 563b 5f98 163c
00000190: ae28 ad39 cc28 86bc 262e 583c 86be 13bc
000001a0: 731d c4bc c4ad 843b e94a 393c 0cfc 2f3b
000001b0: 9246 ae39 edad ff3c 88b9 363c c650 7a3b
000001c0: 17d1 71bb e9b6 9d3c 8e2b c83c 2455 a0bc
000001d0: 17e0 b1bc 303b 05bc 2f7a a4bb f841 343c
000001e0: 6f9b 0f3c 653b c7ba a9a6 343d fccc 8c3b
000001f0: 74b3 c33c 6cb9 663c 7547 d4bb 26e0 0aba
00000200: d7f0 433d 1492 98bb 1f13 ff3c bca1 d73c
00000210: 205b 273d 55ec c43c d91c d03c 5f0b 293d
00000220: d7c0 393c ce97 243b 34bc b23c 4de9 c7bb
00000230: 85f8 b33a 2233 223d 682b 78bc 3de4 b43c
00000240: 0cf2 faba 4e1f 9cbc 53af 31bd 9b70 b4bc
00000250: 3aaf 17bc d11c da3b 818d b7bc dee5 ebbb
00000260: bf64 88bc ca0d ed3c 7d80 0abd 3ba5 273d
00000270: 41d3 f0ba d846 9cbb 44ea 103d e6b3 0ebd
00000280: 666e a23d ffe3 8b3c c896 a7bc 44be e4bc
00000290: 644e 6b3b 13c5 783c f070 763c f6eb e7bc
000002a0: ac6e 5ebc b63e 843b 4821 813c bef2 ab3c
000002b0: b5f6 2dbc 8c1f 0d3d 331e 34bc 3420 243d
000002c0: 3f19 ef3c d897 a13c f905 4b3d 8e85 843c
000002d0: 4734 c3bc 188f dfbc 2e9c 71bc e4b7 ab3b
000002e0: 2690 ddba 28e6 c03c 9afb c93a cb1e 173d
000002f0: b4d1 02bb 33ed 3a3c a082 c43b 6aaa 083d
00000300: 3441 a83c ab1f c3bc ca77 c7bc 0896 cf3d

Block1.4.running_mean f4 [196]
-0.0076708263 -0.019125465 -0.0040486967 0.02966252 -0.03097834 -0.0010495875 0.018425949 0.049102068
0.0013761035 -0.009346651 -0.025837265 -0.0092213545 6e-45 0.020782411 -0.0046673785 -0.013608624
-0.009141131 0.024373394 -0.010872673 -0.0020833954 0.0074490756 -0.016045136 0.020729015 -0.016083065
-0.018313121 0.027337255 -0.0014708951 -0.018516334 0.026067883 0.00451516 -0.017285064 -0.01785758
-0.0070655593 0.028348053 -0.0060289325 0.010515783 -0.008265967 0.020376775 -0.018580867 0.033486865
0.02903616 -0.003985692 0.0019413762 -0.016910123 0.0024076954 0.008782701 0.015456653 0.0073798164
-0.014671257 0.000364936 0.0048644785 0.008597608 -0.004281977 -0.00999787 -0.03392636 0.006535736
-0.024362363 0.009744704 0.0075050625 0.00034086022 -0.011417404 -0.011586269 -0.018169047 0.00474606
0.0020983955 0.011711283 0.012103566 -0.0065923445 -0.008359176 -0.0069252853 -0.027083166 0.00992867
-0.0073591513 0.02080742 0.010814678 -0.021489527 0.009720138 -0.03823827 0.0031723022 -0.010154302
0.00078885624 0.010288575 -0.00012199531 0.003877857 0.001294572 0.022451678 0.011065029 -0.0006128906
0.014434749 -0.045661185 -0.019655373 -0.017746037 -0.0033775182 0.005633822 0.0056168656 0.01866236
0.014103268 0.010953911 -0.01241238 0.0016062579 -0.015578645 0.022238502 -0.030221768 -0.0012042254
-0.0029241075 -0.005029477 0.0019330776 -0.025243886 2.6930617e-05 -0.0024917815 -0.014706206 0.008744683
0.03156769 0.009621171 -0.0022199212 0.0040205005 -0.03155069 0.009258068 0.027563915 -0.010621136
0.0042544147 -0.0073804175 0.009057686 -0.0011784107 0.017610874 0.0016723702 0.008571143 -0.0041270903
-0.042312987 -0.009909507 -0.0074255043 0.0057217707 -0.008078843 -0.001474178 0.045806453 0.013716546
-0.0036586274 -0.008069171 0.008257908 0.012560529 -0.02346924 -0.0042706523 -0.01741222 0.015568832
0.03735863 0.00052611646 -0.039715618 0.022573786 0.0003030311 -0.0087605985 0.021616297 -0.016481245
-0.00029291754 -0.0029327322 0.010651786 -0.023955025 -0.03561953 -0.00015918592 -0.022453537 0.013478975
-0.020520087 -0.006814424 0.022447743 0.022135153 0.01724178 0.02303303 0.008710613 -0.0033451866
0.026360014 0.01573805 -0.017353842 -0.0012776213 0.01029606 0.006539978 -0.005862863 -0.009377285
-0.022954468 0.009982344 0.0010307194 0.0022798958 -0.00081383996 0.0006631009 0.003515554 -0.02599336
0.016553989 0.019976623 -0.023525983 0.01494927 6e-45 -4.294685e-05 -0.014416302 0.024558116
0.011908481 -0.0012129694 0.0064623076 0.01359682
00000000: 8e5b fbbb 02ad 9cbc eeaa 84bb d0fe f23c
00000010: 4ac6 fdbc 5092 89ba 04f2 963c 401f 493d
00000020: 5f5e b43a b222 19bc aca8 d3bc 2a15 17bc
00000030: 0400 0000 e03f aa3c cff0 98bb b5f6 5ebc
00000040: afc4 15bc b6aa c73c 4c23 32bc 9389 08bb
00000050: 6017 f43b 1771 83bc e5cf a93c a2c0 83bc
00000060: 6605 96bc 61f2 df3c 0dcb c0ba 91af 97bc
00000070: 508c d53c e8f3 933b 6899 8dbc 0f4a 92bc
00000080: 3586 e7bb 2d3a e83c 5a8e c5bb 644a 2c3c
00000090: fa6d 07bc 32ed a63c e736 98bc 8629 093d
000000a0: 3edd ed3c 689a 82bb c775 fe3a 1987 8abc
000000b0: 6dca 1d3b 51e5 0f3c e73d 7d3c 63d2 f13b
000000c0: b65f 70bc e154 bf39 3466 9f3b fbdc 0c3c
000000d0: d44f 8cbb 1bce 23bc 5ef6 0abd ba29 d63b
000000e0: 9493 c7bc 40a8 1f3c 07ed f53b 7cb5 b239
000000f0: 1010 3bbc 56d4 3dbc 41d7 94bc d684 9b3b
00000100: 3c85 093b aee0 3f3c 094e 463c 9804 d8bb
00000110: edf4 08bc 81ed e2bb 84dd ddbc dcab 223c
00000120: 0925 f1bb 5374 aa3c 0c30 313c ce0a b0bc
00000130: 3741 1f3c bb9f 1cbd 66e6 4f3b 3b5e 26bc
00000140: 3fcb 4e3a 6991 283c bcd7 ffb8 a523 7e3b
00000150: a1ae a93a 95ec b73c 184a 353c 64aa 20ba
00000160: ba7f 6c3c 3907 3bbd 4e04 a1bc 2360 91bc
00000170: 5a59 5dbb ed9b b83b af0d b83b cee1 983c
00000180: 6511 673c 0878 333c 4c5d 4bbc 1289 d23a
00000190: 933d 7fbc 852d b63c a493 f7bc 19d7 9dba
000001a0: 62a2 3fbb 50ce a4bb 525f fd3a 44cc cebc
000001b0: 0fe9 e137 284d 23bb 4cf2 70bc dc45 0f3c
000001c0: 1f4d 013d 1ea2 1d3c 197c 11bb 67be 833b
000001d0: 4c3b 01bd 27af 173c b8cd e13c 4604 2ebc
000001e0: 9e68 8b3b 6ed7 f1bb b066 143c e774 9aba
000001f0: ae44 903c 6f33 db3a fb6d 0c3c 8b3c 87bb
00000200: 6250 2dbd 7c5b 22bc a551 f3bb b17d bb3b
00000210: 205d 04bc 3539 c1ba 8c9f 3b3d 5dbb 603c
00000220: 95c5 6fbb 8e34 04bc 2d4c 073c adca 4d3c
00000230: 9042 c0bc d4f0 8bbb 12a4 8ebc 6a14 7f3c
00000240: 5d05 193d 14eb 093a d8ac 22bd a9ec b83c
00000250: 25e0 9e39 9d88 0fbc a914 b13c ad03 87bc
00000260: ba92 99b9 1533 40bb d484 2e3c 543d c4bc
00000270: c9e5 11bd 25eb 26b9 7bf0 b7bc ebd6 5c3c
00000280: be19 a8bc 884b dfbb 54e4 b73c c854 b53c
00000290: a23e 8d3c c4af bc3c f5b6 0e3c eb3a 5bbb
000002a0: f5f0 d73c 15ed 803c a529 8ebc db75 a7ba
000002b0: ceb0 283c 504d d63b 421d c0bb 2fa3 19bc
000002c0: 020b bcbc fc8c 233c 3419 873a 4e6a 153b
000002d0: e057 55ba f3d3 2d3a 3565 663b 07f0 d4bc
000002e0: 3b9c 873c 04a6 a33c 90b9 c0bc c8ed 743c
000002f0: 0400 0000 d421 34b8 5a32 6cbc 1a2e c93c
00000300: ca1b 433c 80fc 9eba c4c1 d33b 32c5 5e3c

Block1.4.running_var f4 [196]
0.00028353865 0.00045551744 0.00024212548 0.0024028772 0.00019699874 0.00038458788 7.7916375e-05 0.0012998551
0.00045814435 0.00041519123 0.0008331517 0.00027335045 6e-45 0.0005288516 0.00029948034 0.00067906687
0.00015511691 0.0011377132 0.00016871594 0.00016663266 0.0022354228 0.00055103493 0.0007613441 0.002088249
0.00057964586 0.0002013307 0.0002896214 0.0017186477 0.00036467094 0.0012627244 0.00055769086 0.00041925703
0.00093163067 0.00082966906 0.00044964897 0.00014048899 0.00012894678 0.00068550964 0.00024251049 8.599339e-05
0.00027768515 0.0007665674 6.4535765e-05 0.0014982328 0.00023281708 0.00066837884 0.00041409789 0.00015272388
9.0047346e-05 0.00018414384 0.0004937736 0.00022993369 0.00066669396 0.00018263445 0.0008713673 0.0004491612
0.0011394373 0.00015017498 7.7278644e-05 0.00022934879 0.0018571366 0.00024196648 0.0012659908 0.0014321165
0.0001976535 0.00042853132 0.00067704055 0.00024220783 0.00021241487 0.000276426 0.0012241764 0.00023142905
0.00015453047 0.0012063304 0.00014095177 0.00043801914 0.0003172822 0.0019618124 0.0010189693 6.7979214e-05
8.940995e-05 0.00036573107 0.0001620954 4.2637592e-05 0.0013653964 0.0008904714 0.00020901581 5.9393988e-09
0.0003743068 0.0029740746 0.00070407207 0.0005236459 0.0009979957 0.0004403371 0.00053824193 0.00025719387
0.000121425444 0.00045068245 0.00012884398 8.549463e-05 0.000105056264 0.0006670532 0.0012264744 4.3421132e-06
0.000106966785 0.00026712136 0.0003259345 0.0006963015 0.00055341143 0.00026563683 0.00038629794 7.7757744e-05
0.0006780574 0.0015615321 0.0013956871 0.0001336215 0.0006550171 0.0009244279 0.00021337652 0.00016719328
6.0885406e-05 0.0002112752 4.3808173e-05 0.00031218363 0.00018703894 6.578521e-05 6.663315e-06 0.0003587797
0.00025177453 0.00035825282 0.00023169043 0.00033049306 0.00017866859 0.0002743899 0.0003096454 0.00025616869
0.0006152396 5.947088e-05 9.1899965e-05 0.002253085 0.00037608529 0.0005527889 0.00031083307 0.00018155665
0.000424202 0.0006766911 0.00028198992 0.0006337355 0.0001631108 0.00040807718 0.00057090784 0.00017426952
0.00029612883 0.0001246274 0.0006086004 0.00030885817 0.00059024995 8.076256e-05 0.0009439146 5.0904993e-05
0.00060777355 0.00014263071 0.0007564518 0.0010063325 0.00020910543 0.0003698671 0.00014081741 0.0002481199
0.0008557411 0.0006084697 0.00041399838 0.0002788397 0.00029276207 0.00026631163 0.00011093641 0.00034758952
0.0018009389 0.00018647042 0.0007271392 0.0002559356 0.000995115 0.00010593691 0.00014083528 0.0013425559
0.000365249 0.00045738844 0.0012623748 5.146243e-05 6e-45 2.413353e-07 0.0004969689 0.0008385633
0.00056790205 0.00019301179 0.00012908016 0.00015174029
00000000: eaa7 9439 84d2 ee39 10e3 7d39 9779 1d3b
00000010: 7291 4e39 83a2 c939 0967 a338 e65f aa3a
00000020: 1833 f039 06ae d939 dd67 5a3a 7a50 8f39
00000030: 0400 0000 a1a2 0a3a 9203 9d39 6803 323a
00000040: e1a6 2239 521f 953a 57e9 3039 1dba 2e39
00000050: 2c80 123b 5473 103a f094 473a 01db 083b
00000060: 60f3 173a 4c1c 5339 54d8 9739 3f44 e13a
00000070: 4e31 bf39 0082 a53a 0032 123a bacf db39
00000080: ad38 743a 267e 593a ddbe eb39 3a50 1339
00000090: e335 0739 c6b3 333a 6a4a 7e39 5a57 b438
000000a0: 4596 9139 78f3 483a 6057 8738 5a60 c43a
000000b0: 5c20 7439 2536 2f3a 471b d939 8124 2039
000000c0: cdd7 bc38 bc16 4139 9670 013a 5b1a 7139
000000d0: 13c5 2e3a 9081 3f39 786c 643a 657d eb39
000000e0: 2c59 953a 4a78 1d39 a810 a238 597d 7039
000000f0: 2a6b f33a 62b8 7d39 9aef a53a dbb5 bb3a
00000100: 3541 4f39 80ac e039 6c7b 313a 2bf9 7d39
00000110: afbb 5e39 45ed 9039 8b74 a03a c3ab 7239
00000120: 7509 2239 bb1d 9e3a 74cc 1339 efa5 e539
00000130: e558 a639 c091 003b f08e 853a 1090 8e38
00000140: 9a81 bb38 98bf bf39 27f8 2939 c4d5 3238
00000150: 1af7 b23a 866e 693a 412b 5b39 8113 cc31
00000160: 9c3e c439 b1e8 423b 7a91 383a 4845 093a
00000170: 2ecf 823a 0cdd e639 ce18 0d3a fad7 8639
00000180: caa5 fe38 9349 ec39 4b1a 0739 944b b338
00000190: a751 dc38 2fdd 2e3a a7c1 a03a 78b2 9136
000001a0: 5b53 e038 6c0c 8c39 30e2 aa39 0188 363a
000001b0: d012 113a 2c45 8b39 0888 ca39 df11 a338
000001c0: a9bf 313a 53ac cc3a 7def b63a c01c 0c39
000001d0: 74b5 2b3a 4e55 723a d3bd 5f39 9b50 2f39
000001e0: 355f 7f38 c189 5d39 abbe 3738 94ac a339
000001f0: e21f 4439 2af6 8938 7195 df36 991a bc39
00000200: 9b00 8439 e1d3 bb39 edf1 7239 0746 ad39
00000210: fc58 3b39 fddb 8f39 e757 a239 614e 8639
00000220: 0848 213a 5f70 7938 6bba c038 7ea8 133b
00000230: 502d c539 09e9 103a 4ff7 a239 3e60 3e39
00000240: 6e67 de39 f963 313a 0cd8 9339 4521 263a
00000250: b908 2b39 31f3 d539 faa8 153a 1ebc 3639
00000260: bd41 9b39 6aae 0239 7b8a 1f3a 3eee a139
00000270: 01bb 1a3a 125f a938 0971 773a d282 5538
00000280: fe52 1f3a 248f 1539 9f4c 463a eae6 833a
00000290: 5043 5b39 b9ea c139 63a8 1339 1716 8239
000002a0: d053 603a b681 1f3a ec0d d939 3b31 9239
000002b0: dc7d 9939 be9f 8b39 88a6 e838 ad3c b639
000002c0: 7b0d ec3a 4687 4339 7c9d 3e3a 182f 8639
000002d0: 856e 823a 722a de38 2fad 1339 b3f8 af3a
000002e0: e47e bf39 a3cd ef39 4576 a53a 5dd9 5738
000002f0: 0400 0000 df90 8134 0547 023a 08d3 5b3a
00000300: 43df 143a 3563 4a39 b159 0739 791c 1f39
