checkpoint/student_1/casia/client/student_2.pt (torch, 253477 bytes, 50 tensors)

torch.sparse_coo f4 [17]
000000 9b 37 14 be b9 bb c7 3d 04 70 a7 39 c2 83 86 3d
       -0.14474337 0.09752602 0.0003193618 0.065680996
000010 d2 cf ee bd 84 4b 40 be bc ce d7 bd 60 85 1a 3d
       -0.11660732 -0.18778807 -0.10537478 0.037724853
000020 b4 58 23 bc ce 3b c2 bb 27 bc d6 3d 9d 64 f9 3a
       -0.009969879 -0.0059275394 0.10485106 0.0019027177
000030 d6 12 c9 bc 08 ca 68 bb ed 61 29 be ef 9e 1e bd
       -0.024545114 -0.003552081 -0.16541262 -0.03872579
000040 32 c3 f8 3d
       0.121466056

conv1.1.weight f4 [64]
000000 9f 81 7e 3f e1 2c 7f 3f 00 00 80 3f 00 00 80 3f
       0.99416536 0.99677855 1.0 1.0
000010 00 00 80 3f 4b 2c 7c 3f 3b 7b 81 3f 00 00 80 3f
       1.0 0.98505086 1.0115732 1.0
000020 00 00 80 3f 00 00 80 3f fb 2c 80 3f 00 00 80 3f
       1.0 1.0 1.0013727 1.0
000030 00 00 80 3f 00 00 80 3f 00 00 80 3f 00 00 80 3f
       1.0 1.0 1.0 1.0
000040 00 00 80 3f 00 00 80 3f 00 00 80 3f 00 00 80 3f
       1.0 1.0 1.0 1.0
000050 00 00 80 3f 00 00 80 3f 00 00 80 3f 00 00 80 3f
       1.0 1.0 1.0 1.0
000060 00 00 80 3f 00 00 80 3f 00 00 80 3f 00 00 80 3f
       1.0 1.0 1.0 1.0
000070 00 00 80 3f 00 00 80 3f 00 00 80 3f 00 00 80 3f
       1.0 1.0 1.0 1.0
000080 00 00 80 3f 00 00 80 3f 00 00 80 3f 00 00 80 3f
       1.0 1.0 1.0 1.0
000090 00 00 80 3f 59 2d 80 3f 18 1c 7f 3f 00 00 80 3f
       1.0 1.0013839 0.9965224 1.0
0000a0 2a 69 7b 3f a2 4f 80 3f 00 00 80 3f 00 00 80 3f
       0.9820734 1.0024302 1.0 1.0
0000b0 00 00 80 3f 00 00 80 3f 00 00 80 3f 00 00 80 3f
       1.0 1.0 1.0 1.0
0000c0 00 00 80 3f 21 20 80 3f 63 94 7e 3f dc c2 7e 3f
       1.0 1.0009805 0.9944517 0.9951608
0000d0 00 00 80 3f 00 00 80 3f 00 00 80 3f 00 00 80 3f
       1.0 1.0 1.0 1.0
0000e0 00 00 80 3f 00 00 80 3f 00 00 80 3f ea 20 80 3f
       1.0 1.0 1.0 1.0010045
0000f0 00 00 80 3f 00 00 80 3f 00 00 80 3f 00 00 80 3f
       1.0 1.0 1.0 1.0

conv1.1.bias f4 [64]
000000 6e 90 b4 3d 6d a7 30 3c 00 00 00 00 00 00 00 00
       0.0881661 0.010782105 0.0 0.0
000010 00 00 00 00 ec 29 1b 3d 8b ac 2e bc 00 00 00 00
       0.0 0.037881777 -0.010661255 0.0
000020 00 00 00 00 00 00 00 00 71 c7 ee ba 00 00 00 00
       0.0 0.0 -0.0018217397 0.0
000030 00 00 00 00 00 00 00 00 00 00 00 00 00 00 00 00
       0.0 0.0 0.0 0.0
000040 00 00 00 00 00 00 00 00 00 00 00 00 00 00 00 00
       0.0 0.0 0.0 0.0
000050 00 00 00 00 00 00 00 00 00 00 00 00 00 00 00 00
       0.0 0.0 0.0 0.0
000060 00 00 00 00 00 00 00 00 00 00 00 00 00 00 00 00
       0.0 0.0 0.0 0.0
000070 00 00 00 00 00 00 00 00 00 00 00 00 00 00 00 00
       0.0 0.0 0.0 0.0
000080 00 00 00 00 00 00 00 00 00 00 00 00 00 00 00 00
       0.0 0.0 0.0 0.0
000090 00 00 00 00 83 a9 6e 3d aa 98 2f bb 00 00 00 00
       0.0 0.058267128 -0.0026793876 0.0
0000a0 43 9f b7 3d f7 84 98 3d 00 00 00 00 00 00 00 00
       0.08965924 0.07447236 0.0 0.0
0000b0 00 00 00 00 00 00 00 00 00 00 00 00 00 00 00 00
       0.0 0.0 0.0 0.0
0000c0 00 00 00 00 68 01 72 3d 4c 5d 2d 3d 28 2f 0c 3c
       0.0 0.059083372 0.042325303 0.008556165
0000d0 00 00 00 00 00 00 00 00 00 00 00 00 00 00 00 00
       0.0 0.0 0.0 0.0
0000e0 00 00 00 00 00 00 00 00 00 00 00 00 8d 1a 57 3d
       0.0 0.0 0.0 0.052515555
0000f0 00 00 00 00 00 00 00 00 00 00 00 00 00 00 00 00
       0.0 0.0 0.0 0.0

conv1.1.running_mean f4 [64]
000000 b5 1b f6 39 04 00 00 80 00 00 00 00 00 00 00 00
       0.0004694142 -6e-45 0.0 0.0
000010 00 00 00 00 8b 36 b9 bb bc 43 02 bc 00 00 00 00
       0.0 -0.005652254 -0.007950719 0.0
000020 00 00 00 00 00 00 00 00 04 00 00 80 00 00 00 00
       0.0 0.0 -6e-45 0.0
000030 00 00 00 00 00 00 00 00 00 00 00 00 00 00 00 00
       0.0 0.0 0.0 0.0
000040 00 00 00 00 00 00 00 00 00 00 00 00 00 00 00 00
       0.0 0.0 0.0 0.0
000050 00 00 00 00 00 00 00 00 00 00 00 00 00 00 00 00
       0.0 0.0 0.0 0.0
000060 00 00 00 00 00 00 00 00 00 00 00 00 00 00 00 00
       0.0 0.0 0.0 0.0
000070 00 00 00 00 00 00 00 00 00 00 00 00 00 00 00 00
       0.0 0.0 0.0 0.0
000080 00 00 00 00 00 00 00 00 00 00 00 00 00 00 00 00
       0.0 0.0 0.0 0.0
000090 00 00 00 00 33 a7 7e 3c cd 9d 12 3c 00 00 00 00
       0.0 0.015542793 0.008948755 0.0
0000a0 18 ea 6c 3b 04 00 00 00 00 00 00 00 00 00 00 00
       0.0036150273 6e-45 0.0 0.0
0000b0 00 00 00 00 00 00 00 00 00 00 00 00 00 00 00 00
       0.0 0.0 0.0 0.0
0000c0 00 00 00 00 e9 95 c1 bb 74 6c 9c 3c 9c f1 95 3b
       0.0 -0.0059077633 0.019094683 0.004575921
0000d0 00 00 00 00 00 00 00 00 00 00 00 00 00 00 00 00
       0.0 0.0 0.0 0.0
0000e0 00 00 00 00 00 00 00 00 00 00 00 00 68 ae 24 bc
       0.0 0.0 0.0 -0.010051347
0000f0 00 00 00 00 00 00 00 00 00 00 00 00 00 00 00 00
       0.0 0.0 0.0 0.0

conv1.1.running_var f4 [64]
000000 53 00 6d 3a 04 00 00 00 04 00 00 00 04 00 00 00
       0.0009040881 6e-45 6e-45 6e-45
000010 04 00 00 00 bc 9f 9a 3a e1 b3 53 3b 04 00 00 00
       6e-45 0.0011796872 0.003230326 6e-45
000020 04 00 00 00 04 00 00 00 04 00 00 00 04 00 00 00
       6e-45 6e-45 6e-45 6e-45
000030 04 00 00 00 04 00 00 00 04 00 00 00 04 00 00 00
       6e-45 6e-45 6e-45 6e-45
000040 04 00 00 00 04 00 00 00 04 00 00 00 04 00 00 00
       6e-45 6e-45 6e-45 6e-45
000050 04 00 00 00 04 00 00 00 04 00 00 00 04 00 00 00
       6e-45 6e-45 6e-45 6e-45
000060 04 00 00 00 04 00 00 00 04 00 00 00 04 00 00 00
       6e-45 6e-45 6e-45 6e-45
000070 04 00 00 00 04 00 00 00 04 00 00 00 04 00 00 00
       6e-45 6e-45 6e-45 6e-45
000080 04 00 00 00 04 00 00 00 04 00 00 00 04 00 00 00
       6e-45 6e-45 6e-45 6e-45
000090 04 00 00 00 ee 49 1f 3c 30 09 44 3b 04 00 00 00
       6e-45 0.009722216 0.0029912703 6e-45
0000a0 d0 e1 50 39 04 00 00 00 04 00 00 00 04 00 00 00
       0.00019920547 6e-45 6e-45 6e-45
0000b0 04 00 00 00 04 00 00 00 04 00 00 00 04 00 00 00
       6e-45 6e-45 6e-45 6e-45
0000c0 04 00 00 00 16 35 c9 3a 76 1b eb 3b 0e 63 cb 39
       6e-45 0.0015350904 0.0071749045 0.0003879298
0000d0 04 00 00 00 04 00 00 00 04 00 00 00 04 00 00 00
       6e-45 6e-45 6e-45 6e-45
0000e0 04 00 00 00 04 00 00 00 04 00 00 00 2b 3b 85 3b
       6e-45 6e-45 6e-45 0.0040658913
0000f0 04 00 00 00 04 00 00 00 04 00 00 00 04 00 00 00
       6e-45 6e-45 6e-45 6e-45

Block1.0.weight f4 [737]
000000 d6 12 57 bc 79 dd 1e 3d 68 6c 99 3c 9b 9c a9 bc
       -0.013127049 0.03878543 0.01872845 -0.020704558
000010 4a 51 1f bd 2c 11 1b bd 0e 9b e5 bc 8b c6 ed bc
       -0.038895883 -0.037858173 -0.028028037 -0.029025337
000020 58 a2 06 bd 57 62 27 bd 37 01 05 bd d4 84 65 3c
       -0.032869667 -0.04086527 -0.03247186 0.0140087195
000030 9a 1a bb 3c 98 ec 0f bd ff c4 a1 bb 80 a4 86 bc
       0.022839833 -0.035137743 -0.004936814 -0.016435862
000040 bd 00 09 3d e5 f8 0e 3d 1f 1c 3d 3c 95 26 c5 3b
       0.03344797 0.034905333 0.011542349 0.006016562
000050 84 52 03 3c d8 15 a8 bc c6 bd 38 bc e8 5b 23 bd
       0.008015279 -0.020518228 -0.011275714 -0.03988257
000060 c4 57 2a 3c 8e a5 8d 3c b0 16 96 bc 2e de 82 3c
       0.0103969015 0.017290857 -0.018321365 0.015975084
000070 2f 2b 22 3d a0 a7 21 bc be 8c d7 3c ce ae 9d 3c
       0.039591964 -0.009866625 0.026312228 0.019248392
000080 19 7e 22 3d 62 36 04 bd 06 d3 a9 3c c6 3b 9d bc
       0.039671037 -0.032278426 0.020730507 -0.019193541
000090 26 69 be bc c3 84 b2 bc e0 14 11 3c c4 31 2a bc
       -0.023243498 -0.021791821 0.008855075 -0.010387842
0000a0 13 bd 03 bd 32 7c b9 3c 2a 1a 1b bd ec 32 56 ba
       -0.032162737 0.022642229 -0.03786675 -0.000817104
0000b0 69 7d 8c b9 66 9b e5 39 6b 59 90 3c d6 4b fd 3c
       -0.0002679632 0.00043794065 0.017620763 0.03091995
0000c0 2b 7d 1a bd 52 0c d0 3c d4 69 b8 bb 1a 47 f0 3c
       -0.037717026 0.0253965 -0.00562785 0.029330779
0000d0 5a 94 cc 3c 16 c8 29 bd d4 5c 2f 3c 0b 55 16 bd
       0.024973083 -0.041450582 0.010703284 -0.036702197
0000e0 58 28 a9 3c 82 88 89 3c e1 3a 9d bc 58 99 03 3b
       0.02064912 0.016788725 -0.019193115 0.0020080414
0000f0 5c ce 19 bd 26 e9 d5 3c 43 15 94 bc f6 47 6b bc
       -0.037550315 0.02611215 -0.018076545 -0.014360419
000100 71 51 68 ba 7b dd 45 3a 62 fd 38 b9 40 6d c2 bc
       -0.00088622334 0.0007547957 -0.00017642 -0.023733735
000110 4a e2 bc 3c 12 e1 cc 3c 27 45 cf bb 04 89 76 ba
       0.023057122 0.025009666 -0.0063253823 -0.0009404572
000120 3b fc 9a b9 fb 71 2e 3a 8b 74 14 ba 9b 17 1e 39
       -0.00029561095 0.00066545577 -0.0005663118 0.00015076848
000130 dd 8e 18 39 de 34 82 38 4d 04 1f 3a 87 ef ed b9
       0.0001454907 6.20873e-05 0.00060660095 -0.00045382624
000140 d0 00 56 ba 57 38 17 3a d2 20 a0 37 3d d2 e7 3c
       -0.0008163573 0.0005768588 1.908877e-05 0.028298492
000150 a8 5d 3e bb e2 1d e1 3c ee 3a bc 3c 5e 99 83 3c
       -0.0029047523 0.02748007 0.022977319 0.016064342
000160 d2 8d f6 3c de 5c af bc a0 69 32 3c b0 e5 25 3c
       0.030096922 -0.021406587 0.010889441 0.010125563
000170 8b 02 9e bc f0 d3 a8 bc 0f 0c 47 bc 02 b6 06 bd
       -0.019288322 -0.020608872 -0.012148871 -0.03288842
000180 87 58 02 3d 98 5f bb bc 24 1b 1d 3c 5e 39 c5 bc
       0.031822708 -0.022872731 0.00958899 -0.024075206
000190 f8 6d 10 3d 96 e6 e1 bc 59 bc 26 3d b8 ad b9 b8
       0.035261124 -0.027575772 0.040706966 -8.853845e-05
0001a0 cb 54 ac 3a 0c 70 45 3c 8a a9 e5 3c 3f 33 70 ba
       0.0013147829 0.01205064 0.028034944 -0.00091629097
0001b0 74 74 57 3a c8 97 b0 bc 1a c7 25 3c a2 16 09 bd
       0.0008218952 -0.02155675 0.01011827 -0.03346885
0001c0 2c ea 32 bc b3 c5 e4 bc f5 78 0a 3d 8a 95 83 3c
       -0.010920089 -0.027926302 0.03380676 0.016062517
0001d0 47 28 29 3d 78 94 98 3c d5 25 11 3d d8 5e b2 3c
       0.041298177 0.018625483 0.03543647 0.02177374
0001e0 41 29 83 bc 07 d0 10 3d da d5 eb 3c 5a 11 ae 3b
       -0.016010882 0.03535464 0.028788496 0.005312127
0001f0 ec 07 9c 3b fe 93 44 3d 59 7b 2a 3d b7 85 98 bb
       0.0047616865 0.0479927 0.04162154 -0.004654612
000200 34 c5 03 3c 56 36 c4 bc 40 c1 91 3c 55 7c 56 3c
       0.008042622 -0.02395169 0.017792344 0.0130911665
000210 73 05 29 bd ac e9 18 bc c8 d0 d9 bc dd c8 11 3d
       -0.041264962 -0.0093330555 -0.026588812 0.03559195
000220 30 d8 df bc 35 95 10 3d f0 8f b3 bc 50 f7 49 3c
       -0.027324766 0.035298545 -0.02191922 0.01232703
000230 50 8d 41 3c fe 04 8d bc 30 97 06 3c 9b 1d 02 bd
       0.011813477 -0.017214295 0.008214757 -0.031766515
000240 c2 33 ca 3c 1c 91 3f bc e0 af b4 3b 6f ed 2f 3b
       0.024682883 -0.011692312 0.00551413 0.0026844402
000250 e0 89 f9 bc 69 fb d6 3b 94 e0 24 bd 12 ff ad 3c
       -0.030461252 0.006560732 -0.040253237 0.021239791
000260 6e fe c2 bc 10 fe 2f 3c 38 3d db bc 5f fb 24 3d
       -0.023802962 0.010741726 -0.02676259 0.04027879
000270 7d 77 22 bc 7c ad f5 3c a0 ed 0c bb 83 60 b9 3c
       -0.009916184 0.02998995 -0.002150394 0.022629028
000280 4e 62 be bc e6 5a 10 bd 73 5c 8d bc 76 3a cd bc
       -0.023240235 -0.035242938 -0.017255997 -0.02505229
000290 4e 0a 8b 3c 7c c4 1e b9 e3 26 90 3c 94 4b 26 bd
       0.016972687 -0.0001514125 0.017596668 -0.04059942
0002a0 b0 bb cf bc 35 a5 06 3d fc 1a 22 3c a3 c8 94 bc
       -0.025358051 0.032872397 0.009894129 -0.018162077
0002b0 63 1b ce 38 ca 0a 58 39 13 b2 7f b7 9a 36 72 b9
       9.8279466e-05 0.00020603384 -1.5240646e-05 -0.00023099259
0002c0 07 24 2e ba da d3 07 ba 53 e8 83 b9 29 f0 0d 3d
       -0.0006642942 -0.00051814097 -0.00025159362 0.034652863
0002d0 db a3 df bc 28 76 9b bc 39 8c 9a ba c9 24 85 bc
       -0.027299812 -0.01897724 -0.0011791057 -0.016252892
0002e0 e1 81 10 3d 2d a7 13 3d a4 64 be bb b4 4a af b8
       0.035280112 0.036048103 -0.005810337 -8.358565e-05
0002f0 3b 74 27 3d f4 24 ac 3c b2 f3 84 3c bc 21 06 3c
       0.04088233 0.021013714 0.016229484 0.008186754
000300 a9 03 08 3d a9 d1 11 3d 69 76 c2 bb d3 25 8f bc
       0.033206616 0.035600338 -0.0059345257 -0.01747409
000310 ce 0f ff bc 25 9d 02 3a 8e e4 ec bc c6 5f e2 3c
       -0.031135466 0.0004982523 -0.028917577 0.027633559
000320 86 d8 d7 bc ee 5f d5 3b 4a 29 ca 3c 78 b8 86 b9
       -0.026348364 0.00651168 0.024677891 -0.00025695912
000330 fd 1a 0b 3a ac b9 df b8 ac f3 a0 b9 d0 de 3a 3c
       0.0005306451 -0.00010668053 -0.00030699128 0.011405662
000340 53 b3 1c bd 03 f6 12 3d 4e c9 d7 bc 02 0b f8 3c
       -0.038256954 0.035879146 -0.026341107 0.030278686
000350 20 58 0a bd dc ba 08 3c a1 35 0b 3d b2 a0 b1 3c
       -0.03377545 0.008345332 0.03398669 0.02168307
000360 0e e1 0f bd d0 91 89 bc 33 bd 21 bd 06 6b cf 3c
       -0.03512674 -0.016793162 -0.039487075 0.025319587
000370 a8 4f 23 bc 2a 48 03 3d d2 e3 f6 3c d0 ee 49 3c
       -0.009967722 0.032051243 0.03013793 0.012325004
000380 d0 68 74 3c 12 5b c2 3c 5a db bc 3c 32 03 1d 3d
       0.014917567 0.023725066 0.023053814 0.038333125
000390 1d 7b e6 39 fa 96 3f ba 0f 5a d0 b9 22 01 14 ba
       0.00043960745 -0.0007308569 -0.0003973995 -0.0005645921
0003a0 92 eb 9f b8 9c fc 06 3a 48 4d 22 ba 61 20 f9 b8
       -7.625589e-05 0.0005149336 -0.00061913254 -0.00011879276
0003b0 25 c5 23 bd b3 dc 88 bb fe 8e f2 bc 02 9a 9f 3c
       -0.039982934 -0.0041767 -0.0296092 0.019482616
0003c0 4e f8 bd bc c0 bc 3f bc a3 0f 25 3d f0 aa 0c bd
       -0.02318969 -0.011702716 0.040298115 -0.034342706
0003d0 48 67 86 3c 41 e5 28 3d 5c 23 40 bc 1e c5 9e bc
       0.01640667 0.04123426 -0.01172718 -0.019381102
0003e0 90 a3 d2 bc 4d 0a 2a 3d 16 41 e3 bc 11 00 1f 3d
       -0.025712758 0.04151373 -0.027740996 0.038818423
0003f0 0c f1 16 bd 3a 71 c0 3c 72 78 0a bd 20 d0 79 3c
       -0.036850974 0.02349149 -0.03380627 0.015247375

Block1.1.weight f4 [128]
000000 00 00 80 3f 00 00 80 3f 5d 33 80 3f 00 00 80 3f
       1.0 1.0 1.0015675 1.0
000010 00 00 80 3f 00 00 80 3f 00 00 80 3f 00 00 80 3f
       1.0 1.0 1.0 1.0
000020 89 87 7e 3f 00 00 80 3f 48 f4 7e 3f 00 00 80 3f
       0.9942556 1.0 0.99591494 1.0
000030 25 8d 81 3f 9b d7 7d 3f 17 37 7e 3f 59 3d 80 3f
       1.0121199 0.9915711 0.9930281 1.0018722
000040 6d 2f 80 3f ac e8 7f 3f c4 a8 7e 3f 02 55 7f 3f
       1.0014473 0.99964404 0.99476266 0.99739087
000050 1d 05 83 3f 00 00 80 3f 00 00 80 3f b8 1a 7c 3f
       1.0235935 1.0 1.0 0.9847827
000060 bf 31 7e 3f 00 00 80 3f 00 00 80 3f fe 5b 7c 3f
       0.99294657 1.0 1.0 0.9857787
000070 ad 09 81 3f a7 27 7b 3f 08 86 7f 3f 33 04 7e 3f
       1.0081078 0.9810738 0.9981389 0.9922516
000080 63 f8 7d 3f a8 72 80 3f 00 00 80 3f 1d 13 7e 3f
       0.99207133 1.003499 1.0 0.99247915
000090 00 00 80 3f 00 00 80 3f 36 a0 80 3f 68 aa 7d 3f
       1.0 1.0 1.0048892 0.99088144
0000a0 00 00 80 3f 01 63 80 3f 53 30 80 3f a0 34 7e 3f
       1.0 1.0030214 1.0014747 0.9929905
0000b0 cf 6d 7f 3f 51 90 81 3f 00 00 80 3f 8b a5 80 3f
       0.9977693 1.0122167 1.0 1.005052
0000c0 00 00 80 3f 8d 69 7f 3f 67 02 80 3f 92 f9 80 3f
       1.0 0.9977043 1.0000733 1.0076163
0000d0 50 35 80 3f 03 80 7f 3f 00 00 80 3f ef 13 7d 3f
       1.001627 0.99804705 1.0 0.9885854
0000e0 6c 40 7c 3f 1f 8b 81 3f ee 77 7f 3f 34 1e 83 3f
       0.985358 1.0120581 0.99792373 1.0243592
0000f0 4a 74 7f 3f cd 8d 80 3f 0a a6 7b 3f 00 00 80 3f
       0.9978682 1.0043274 0.9830023 1.0
000100 00 00 80 3f 00 00 80 3f 84 c5 81 3f dc db 7c 3f
       1.0 1.0 1.0138402 0.9877298
000110 db 16 7f 3f 7c 5e 7c 3f 00 00 80 3f 00 00 80 3f
       0.9964425 0.9858167 1.0 1.0
000120 bb d0 7e 3f d2 5d 7f 3f 0a db 7f 3f b8 76 80 3f
       0.9953725 0.99752533 0.999436 1.003623
000130 82 44 80 3f a2 e0 7f 3f ec bc 7f 3f 05 2b 7f 3f
       1.0020907 0.9995214 0.99897647 0.9967502
000140 00 00 80 3f 00 00 80 3f 15 09 80 3f 00 00 80 3f
       1.0 1.0 1.0002772 1.0
000150 d0 9b 80 3f 00 00 80 3f 74 c7 7e 3f 00 00 80 3f
       1.004755 1.0 0.9952309 1.0
000160 07 ba 80 3f df e0 7c 3f a4 71 80 3f 20 51 7f 3f
       1.0056771 0.98780626 1.003468 0.9973316
000170 f0 05 82 3f 6a 1d 80 3f 8d f3 7c 3f 12 1b 80 3f
       1.0158062 1.0008976 0.9880913 1.0008261
000180 00 00 80 3f 44 0a 7f 3f 00 00 80 3f 00 00 80 3f
       1.0 0.9962504 1.0 1.0
000190 d2 34 82 3f 00 00 80 3f 51 7f 7e 3f 81 67 81 3f
       1.017237 1.0 0.9941302 1.0109712
0001a0 ca 21 7f 3f 00 00 80 3f e9 32 80 3f 91 ee 80 3f
       0.99660933 1.0 1.0015537 1.0072805
0001b0 c2 c6 7f 3f 0d db 7f 3f 00 00 80 3f 8a 59 80 3f
       0.99912655 0.9994362 1.0 1.0027325
0001c0 35 67 80 3f ca 9a 82 3f 1e 57 7f 3f b5 2c 80 3f
       1.0031496 1.0203488 0.99742305 1.0013644
0001d0 3d 99 80 3f 00 00 80 3f 6f 50 7f 3f 38 aa 7e 3f
       1.0046765 1.0 0.99732107 0.99478483
0001e0 ee 56 7d 3f 00 00 80 3f 85 81 7f 3f 00 00 80 3f
       0.9896077 1.0 0.99807006 1.0
0001f0 00 00 80 3f 07 48 7f 3f db 7d 80 3f c7 ff 7c 3f
       1.0 0.9971928 1.0038408 0.98827785

Block1.1.bias f4 [128]
000000 00 00 00 00 00 00 00 00 6d 98 00 3c 00 00 00 00
       0.0 0.0 0.007848841 0.0
000010 00 00 00 00 00 00 00 00 00 00 00 00 00 00 00 00
       0.0 0.0 0.0 0.0
000020 a8 8c ea bc 00 00 00 00 fe 83 98 3c 00 00 00 00
       -0.028631523 0.0 0.018617626 0.0
000030 9f 29 cc 3c d8 2c 14 3d af 44 66 3d e5 61 09 3d
       0.02492219 0.03617558 0.056217846 0.033540625
000040 cd 8f 0c 3d 01 56 8d 3a 51 1f c9 3c 0e f6 08 3d
       0.034316827 0.0010783077 0.024551066 0.03343778
000050 3a b8 c4 bc 00 00 00 00 00 00 00 00 22 ba 23 3d
       -0.024013627 0.0 0.0 0.039972432
000060 00 12 b9 3c 00 00 00 00 00 00 00 00 06 99 27 bc
       0.02259159 0.0 0.0 -0.010229355
000070 90 59 81 3d 96 14 75 3d 45 38 d7 ba e0 19 1f 3d
       0.06315911 0.059834085 -0.0016419968 0.038843036
000080 e0 3b 42 3c f4 f9 c9 3c 00 00 00 00 db 7a 15 bd
       0.011855096 0.02465532 0.0 -0.036494117
000090 00 00 00 00 00 00 00 00 21 b4 f1 3b 94 d2 c0 3c
       0.0 0.0 0.0073762094 0.023537911
0000a0 00 00 00 00 23 61 57 ba 6c 64 93 ba 81 c2 1e bc
       0.0 -0.00082160736 -0.0011245138 -0.009689928
0000b0 e0 f8 8a 3c c1 5f 83 3c 00 00 00 00 a4 99 a3 3d
       0.016964376 0.01603687 0.0 0.07988289
0000c0 00 00 00 00 20 3b 1a 3d 34 97 e6 3b a1 66 11 3d
       0.0 0.037654042 0.007037068 0.035498265
0000d0 ba 62 ae 3a 0a 01 61 bb 00 00 00 00 18 22 4f bc
       0.0013304569 -0.0034332895 0.0 -0.012642406
0000e0 fd 8e ca 3c 24 77 11 3d 04 71 be bb e9 6b 1e 3d
       0.024726385 0.035514012 -0.0058118124 0.03867713
0000f0 22 12 f5 ba e7 ff 8c bb 4e b3 ac 3b 00 00 00 00
       -0.0018697421 -0.004302967 0.005270398 0.0
000100 00 00 00 00 00 00 00 00 7d a0 a7 3b 1b 53 9d 3c
       0.0 0.0 0.0051155672 0.019204667
000110 ba f1 2c bb 6b c8 11 3d 00 00 00 00 00 00 00 00
       -0.0026389197 0.035591524 0.0 0.0
000120 09 18 38 3d 22 bd 31 bb 54 e5 c1 3c 82 62 0a 3d
       0.044944797 -0.0027120789 0.023668922 0.03378535
000130 05 a6 90 3c 3e 79 9a bb 96 5b 8b bb 39 e6 9d 37
       0.01765729 -0.00471416 -0.0042528613 1.8823064e-05
000140 00 00 00 00 00 00 00 00 68 b0 25 bb 00 00 00 00
       0.0 0.0 -0.0025282148 0.0
000150 63 2a 58 3c 00 00 00 00 1d 56 28 3b 00 00 00 00
       0.0131936995 0.0 0.0025686093 0.0
000160 29 a0 8b 3c c3 2a 98 bc e7 f9 29 3d 73 df 83 b9
       0.017044144 -0.018575078 0.04149809 -0.0002515275
000170 5b fc f3 3c b5 48 7e 3d 82 b6 62 3b 67 f5 4d b9
       0.029783418 0.062081058 0.0034593646 -0.00019641743
000180 00 00 00 00 59 98 b6 ba 00 00 00 00 00 00 00 00
       0.0 -0.0013930901 0.0 0.0
000190 e5 df a2 3b 00 00 00 00 38 3a 13 3d 1a 54 72 3d
       0.004970538 0.0 0.035944194 0.059162237
0001a0 47 93 27 bb 00 00 00 00 9f 30 24 bd 17 3e 14 3d
       -0.0025569962 0.0 -0.04008543 0.036192026
0001b0 81 28 a4 ba 51 e3 c3 bb 00 00 00 00 0a 8f 3b 3c
       -0.0012524278 -0.005978026 0.0 0.011447677
0001c0 1f 8b 67 3d af 5e e2 3c aa cd 00 3d 8d 35 9c ba
       0.05652916 0.02763304 0.031446137 -0.0011917815
0001d0 90 70 f8 ba 00 00 00 00 46 67 7e ba 94 03 2b bc
       -0.0018954445 0.0 -0.000970472 -0.010437865
0001e0 71 c2 24 3d 00 00 00 00 f8 cb ce b9 00 00 00 00
       0.040224496 0.0 -0.0003944335 0.0
0001f0 00 00 00 00 bc a0 d0 3b 89 3a b9 3c 64 f3 78 3c
       0.0 0.0063668173 0.02261092 0.015194748

Block1.1.running_mean f4 [128]
000000 00 00 00 00 00 00 00 00 92 d5 19 3c 00 00 00 00
       0.0 0.0 0.009389298 0.0
000010 00 00 00 00 00 00 00 00 00 00 00 00 00 00 00 00
       0.0 0.0 0.0 0.0
000020 8a e9 fb 3b 00 00 00 00 21 d9 2e 3c 00 00 00 00
       0.007687752 0.0 0.010671885 0.0
000030 33 52 01 bc d4 8d 18 3c 11 bc 82 3c 25 af de bb
       -0.007893133 0.009311158 0.015958818 -0.006795781
000040 6e b1 dd 3b 4b 15 69 b9 89 fc dc 38 ac 82 2f 3b
       0.006765536 -0.00022228544 0.00010537456 0.0026780767
000050 8b 90 b8 3c 00 00 00 00 00 00 00 00 da 29 bb 3b
       0.022529861 0.0 0.0 0.005711776
000060 e2 7e 37 9a 00 00 00 00 00 00 00 00 3b 67 e9 bb
       -3.7946008e-23 0.0 0.0 -0.0071229017
000070 10 da cf 3b b1 20 15 3c 04 00 00 00 c0 d5 e1 3b
       0.0063431337 0.0091020325 6e-45 0.006891936
000080 a7 cb fc bb 2a f0 ad 3c 00 00 00 00 90 a9 2b 3b
       -0.007714707 0.021232683 0.0 0.0026193596
000090 00 00 00 00 00 00 00 00 a7 6c 38 3c 9e c8 cc 3b
       0.0 0.0 0.0112563735 0.0062495014
0000a0 00 00 00 00 04 00 00 80 04 00 00 80 73 b4 39 94
       0.0 -6e-45 -6e-45 -9.3757005e-27
0000b0 d7 1a 8d bc ef a4 62 bb 00 00 00 00 0d 60 a9 bc
       -0.017224712 -0.0034583171 0.0 -0.020675683
0000c0 00 00 00 00 a3 aa 98 b7 ac 32 e8 26 69 4b 7e b7
       0.0 -1.8199271e-05 1.6111968e-15 -1.5157138e-05
0000d0 34 43 8d b9 d5 04 a9 38 00 00 00 00 35 4a e2 3a
       -0.00026943686 8.059448e-05 0.0 0.0017264547
0000e0 b5 5e aa bb 97 8b e7 bb 04 00 00 00 99 58 96 3c
       -0.0051992782 -0.007066201 6e-45 0.018352794
0000f0 04 00 00 00 1c b5 3d bc 24 bb b4 3b 00 00 00 00
       6e-45 -0.011578824 0.005515473 0.0
000100 00 00 00 00 00 00 00 00 85 4b bc 3b 6f 0e 9f bc
       0.0 0.0 0.0057463073 -0.019416062
000110 04 00 00 00 57 46 5a 3c 00 00 00 00 00 00 00 00
       6e-45 0.013322434 0.0 0.0
000120 65 72 b2 3b 04 00 00 80 61 e4 26 b9 a7 0d ff b8
       0.005445766 -6e-45 -0.00015916071 -0.000121618905
000130 de 39 a3 bc 55 86 54 bc 04 00 00 00 02 ed 96 3c
       -0.019925054 -0.01297148 6e-45 0.018423561
000140 00 00 00 00 00 00 00 00 04 00 00 80 00 00 00 00
       0.0 0.0 -6e-45 0.0
000150 94 e1 13 bc 00 00 00 00 89 6c 9d bc 00 00 00 00
       -0.00902595 0.0 -0.019216793 0.0
000160 1c 7d f8 bb 13 c2 df bb cd c3 a8 3b 95 66 27 3c
       -0.0075832736 -0.0068285554 0.0051502944 0.010217329
000170 c3 2d 97 bc 78 39 7d 3d a3 82 05 3c 04 00 00 80
       -0.018454438 0.061822385 0.008148822 -6e-45
000180 00 00 00 00 85 44 c5 bb 00 00 00 00 00 00 00 00
       0.0 -0.006020131 0.0 0.0
000190 2f 8d da bc 00 00 00 00 fd b4 19 bc cd f3 70 bc
       -0.02667865 0.0 -0.00938153 -0.014706564
0001a0 04 00 00 80 00 00 00 00 15 bc bc bb 49 88 37 3a
       -6e-45 0.0 -0.005759726 0.0007001204
0001b0 04 00 00 00 f0 6b 0e 3c 00 00 00 00 12 15 28 3c
       6e-45 0.0086927265 0.0 0.01025893
0001c0 08 42 85 3b 22 3a 96 3c fe d0 0e 3c f7 63 8a 39
       0.0040667094 0.018338267 0.00871682 0.0002639589
0001d0 09 13 39 bc 00 00 00 00 eb ce a6 14 b0 cd 88 3c
       -0.011296042 0.0 1.6843331e-26 0.016699642
0001e0 69 18 6b 3c 00 00 00 00 04 00 00 00 00 00 00 00
       0.014349082 0.0 6e-45 0.0
0001f0 00 00 00 00 c6 16 61 3b d1 07 4f bc 71 d5 e3 3b
       0.0 0.003434585 -0.012636141 0.0069529344

Block1.1.running_var f4 [128]
000000 04 00 00 00 04 00 00 00 24 d1 37 39 04 00 00 00
       6e-45 6e-45 0.00017530151 6e-45
000010 04 00 00 00 04 00 00 00 04 00 00 00 04 00 00 00
       6e-45 6e-45 6e-45 6e-45
000020 4e 83 f6 38 04 00 00 00 39 b4 74 39 04 00 00 00
       0.000117546515 6e-45 0.00023336791 6e-45
000030 78 40 e3 38 27 8d bf 39 63 6b 2b 3a 05 f6 77 38
       0.00010836212 0.00036535526 0.0006539134 5.9118513e-05
000040 4d 7c 87 39 30 dd 56 30 e5 5d c0 2e 8a 3a 19 38
       0.00025841818 7.8167073e-10 8.747828e-11 3.653256e-05
000050 9e 96 46 3a 04 00 00 00 04 00 00 00 f8 74 4d 38
       0.00075755443 6e-45 6e-45 4.8984744e-05
000060 a0 63 08 16 04 00 00 00 04 00 00 00 45 c5 06 39
       1.1017429e-25 6e-45 6e-45 0.00012852724
000070 4c d1 90 38 a0 b1 01 39 04 00 00 00 c2 1c e2 38
       6.90544e-05 0.00012368569 6e-45 0.00010781876
000080 31 c8 b8 38 22 d6 ab 3a 04 00 00 00 c2 d4 52 37
       8.811092e-05 0.0013110081 6e-45 1.2566512e-05
000090 04 00 00 00 04 00 00 00 25 c3 2a 39 5d 63 6e 39
       6e-45 6e-45 0.0001628516 0.00022734464
0000a0 04 00 00 00 04 00 00 00 04 00 00 00 5f 52 06 0a
       6e-45 6e-45 6e-45 6.4673576e-33
0000b0 b8 21 06 3a 9c b5 19 38 04 00 00 00 68 b4 05 39
       0.0005116719 3.664718e-05 6e-45 0.00012751075
0000c0 04 00 00 00 0c 18 38 30 0e f2 bd 20 c1 da 80 38
       6e-45 6.697298e-10 3.2178024e-19 6.144262e-05
0000d0 b5 e7 9d 30 52 0f 61 2e 04 00 00 00 b6 84 17 33
       1.1489109e-09 5.1172684e-11 6e-45 3.5278127e-08
0000e0 ec 20 71 38 e6 75 fd 38 04 00 00 00 de 27 27 3a
       5.748954e-05 0.000120859404 6e-45 0.0006376485
0000f0 04 00 00 00 15 a5 a9 39 16 31 8d 38 04 00 00 00
       6e-45 0.00032357188 6.732547e-05 6e-45
000100 04 00 00 00 04 00 00 00 9e 19 1b 39 e9 1c fa 39
       6e-45 6e-45 0.00014791495 0.00047705256
000110 04 00 00 00 44 cf 82 39 04 00 00 00 04 00 00 00
       6e-45 0.00024949957 6e-45 6e-45
000120 e3 61 a4 38 04 00 00 00 30 63 b9 31 3e 9b 80 2f
       7.838362e-05 6e-45 5.395485e-09 2.339337e-10
000130 8e 22 1a 3a cd 2b b4 39 04 00 00 00 56 aa 6d 39
       0.0005879783 0.0003436491 6e-45 0.00022665536
000140 04 00 00 00 04 00 00 00 04 00 00 00 04 00 00 00
       6e-45 6e-45 6e-45 6e-45
000150 33 3d 2b 39 04 00 00 00 b4 49 e7 39 04 00 00 00
       0.0001633063 6e-45 0.00044114667 6e-45
000160 0d f4 0b 39 4a 24 87 38 52 b6 95 39 57 81 c3 38
       0.00013346989 6.444061e-05 0.00028555334 9.322416e-05
000170 28 e5 34 3a 85 8c 38 3b 48 d2 d1 38 04 00 00 00
       0.0006900602 0.0028159928 0.000100050645 6e-45
000180 04 00 00 00 b1 59 3d 3a 04 00 00 00 04 00 00 00
       6e-45 0.0007223143 6e-45 6e-45
000190 7f 5b 35 3a 04 00 00 00 7b 25 52 39 68 6e c9 39
       0.0006918236 6e-45 0.00020041123 0.00038419967
0001a0 04 00 00 00 04 00 00 00 33 c1 3f 38 e9 39 0d 3a
       6e-45 6e-45 4.571788e-05 0.00053873524
0001b0 04 00 00 00 f5 9c f7 38 04 00 00 00 2a d7 0d 39
       6e-45 0.00011807113 6e-45 0.00013526963
0001c0 1e 4a 17 38 c2 16 bd 39 18 12 1f 39 1a 7a 97 30
       3.6070232e-05 0.00036065845 0.00015170162 1.1021399e-09
0001d0 26 f1 2a 39 04 00 00 00 70 3c 8d 0e 94 fd bd 39
       0.00016302298 6e-45 3.4817383e-30 0.0003623782
0001e0 1d 80 9b 39 04 00 00 00 04 00 00 00 04 00 00 00
       0.00029659356 6e-45 6e-45 6e-45
0001f0 04 00 00 00 a7 32 a4 37 0d ea 5d 39 92 54 fa 38
       6e-45 1.957391e-05 0.00021163393 0.000119366814

Block1.3.weight f4 [2259]
000000 47 b4 05 bd 67 f8 02 3c da 97 e1 bc 00 e8 c8 3c
       -0.03264263 0.007993794 -0.027538229 0.024524689
000010 96 a1 62 3b 48 4e 37 bc a6 35 5c 3c 6d 40 28 3c
       0.0034581176 -0.011188097 0.013440525 0.010269267
000020 4a 88 ef 3c 7b 6d d3 bc b9 af 1a bc b6 e9 05 3c
       0.029239792 -0.02580904 -0.00944131 0.008173397
000030 2b fc ea bc 2e 57 10 bc a0 b5 af bc 18 d6 ae bc
       -0.028684696 -0.008809848 -0.02144891 -0.021342322
000040 63 d3 0e bd c8 1f 6c bc 33 2e a8 bc 67 b3 1d 3b
       -0.034869563 -0.014411874 -0.020529842 0.002406323
000050 e2 68 84 b9 df 50 d3 3b 60 4f 41 bc 16 33 b8 3a
       -0.00025255146 0.0064488496 -0.01179871 0.0014053311
000060 18 d8 82 3a 9f cf fe ba dc cd bb 3c ac 0b d9 3a
       0.0009982614 -0.0019440538 0.02292531 0.0016559265
000070 f5 83 a8 3a 81 36 d1 3c 15 bb 02 bd 9b 05 8f bc
       0.0012856709 0.025538685 -0.031916697 -0.017458728
000080 91 67 b9 b9 5e 34 cc bc ae 7a 9e 3c 88 04 91 bc
       -0.00035363113 -0.024927314 0.019345608 -0.017702356
000090 ab 00 af 3c f6 9a 0e 3d 55 c8 c8 3c 2d 44 90 bc
       0.021362623 0.03481575 0.024509588 -0.017610634
0000a0 60 dd 15 bc 81 6b ef 3b ed b8 a9 3b ac 80 d5 bb
       -0.009147018 0.0073065166 0.0051795156 -0.006515583
0000b0 2e c8 1c bc ea 75 23 bc 02 cb 36 bc 89 f2 01 bd
       -0.009569211 -0.009976843 -0.011156799 -0.03172544
0000c0 f2 62 83 bc 4f 43 6f 3b 98 f0 ee bb b7 39 10 bd
       -0.016038392 0.0036508625 -0.0072918646 -0.03521129
0000d0 0d 3f 99 3c 8c ec c6 3c ef 63 55 bc 55 52 b8 bc
       0.018706823 0.024282716 -0.013024314 -0.022500196
0000e0 34 e8 d0 3b 8f d8 ee 3c c2 d8 63 bc ce 5b c2 bc
       0.006375337 0.029155998 -0.01390666 -0.023725417
0000f0 c6 60 e6 bc d9 7a b6 bc fd 71 ed 3c 2b 71 b6 3c
       -0.028122317 -0.022275375 0.028985018 0.02227076
000100 19 d7 7b 3b cd 0f 16 3c 7e ce 47 bc 37 bf 62 bc
       0.0038427769 0.009159041 -0.012195228 -0.0138395345
000110 4a 66 a8 bc 23 05 0c 3d 27 29 a7 3c 2d b6 88 3c
       -0.020556588 0.034184586 0.020405365 0.01668843
000120 f9 0a 1f 3d d4 b0 46 bc 22 91 78 3b 35 bf 98 bb
       0.038828824 -0.01212712 0.0037928303 -0.0046614655
000130 f6 cc 82 3b f6 f5 91 ba 39 89 e5 bc 92 e3 d6 bb
       0.0039917184 -0.0011135924 -0.028019534 -0.00655789
000140 7a 9a 31 36 93 0a 28 bc ca ee a3 3c b7 6d d4 bb
       2.6464973e-06 -0.010256427 0.020011324 -0.0064828056
000150 8b 15 bb 3c 48 f9 bf b8 6c df 04 ba 7e d3 90 39
       0.02283742 -9.154022e-05 -0.0005068693 0.00027623394
000160 f5 f4 00 3a 58 b9 68 39 64 cc 05 bb 9b 88 5d 3c
       0.0004919314 0.0002219429 -0.0020416016 0.013521339
000170 ee 44 6c 3c 4e 83 4a 3c 4f 73 67 bb 70 01 08 bd
       0.014420731 0.012360407 -0.0035316532 -0.033204496
000180 da dd 27 3c 15 3f e9 bc 4d db c6 3c cf ca 4c bc
       0.010245765 -0.028472463 0.024274493 -0.012499525
000190 f2 62 2a bd 57 47 79 bc 64 f5 ca 3c 81 c0 24 3c
       -0.041598268 -0.015214763 0.024775214 0.010055662
0001a0 a8 cb e3 bb 27 11 e0 3c 7e 64 91 bc e1 a4 0d 3d
       -0.006951768 0.027351929 -0.017748114 0.03458107
0001b0 fe 37 f3 bc 51 e6 84 3c b2 0b 1c 3c e5 bf 30 bc
       -0.029689785 0.016223105 0.009524273 -0.010787939
0001c0 ce 39 e4 3b 40 f7 bf bc a6 cb 38 3c 91 5a 50 bc
       0.0069648987 -0.023433328 0.011279022 -0.012716905
0001d0 4a bf 76 bb 62 cc 1e 3c 33 06 a6 3b 33 da 93 3c
       -0.0037650638 0.009692283 0.005066657 0.018048381
0001e0 8a 46 e6 bc cf af 93 3c 48 a5 50 bc b7 f2 d4 3b
       -0.028109808 0.018028168 -0.012734719 0.0064986604
0001f0 eb a9 e5 bc dc cf e5 3b 38 a0 cf bc 09 c5 5b 3c
       -0.028035125 0.007013304 -0.025344953 0.013413676
000200 60 44 e0 3c 17 1b a2 bc 1f a6 0f 3c dc 96 f0 bb
       0.027376354 -0.019788308 0.008767634 -0.0073422026
000210 58 dc db 3c 4a cd 72 3c 5e 10 66 3c 06 e1 73 bc
       0.026838467 0.014819453 0.014041988 -0.014885193
000220 48 3c bd bc 3a 78 21 3c 6a b1 85 bc 5e 9c 12 3c
       -0.023100033 0.009855324 -0.01631995 0.008948414
000230 a1 bb 18 bc d7 a1 b5 ba 05 63 cc bc 49 74 88 3c
       -0.009322078 -0.0013857436 -0.02494956 0.016657012
000240 4b e9 a8 3c 7f 54 d5 3c 07 6b a8 3b 2f 47 26 3c
       0.020619055 0.026041267 0.005139712 0.010148807
000250 aa fb ab bc d0 d6 cc 3b 58 69 f0 3b 39 c9 d7 bb
       -0.020994026 0.0062511936 0.0073367767 -0.006585267
000260 a7 8f af b9 f2 20 50 b9 cb 8c 69 bc 2c 0a 84 3c
       -0.0003348563 -0.00019848699 -0.014254759 0.016118132
000270 0e be 95 3a b6 ef 20 ba a0 83 a4 ba c1 1c 1b ba
       0.0011424439 -0.00061392353 -0.0012551434 -0.00059170654
000280 ab 7b 3f ba f5 2f 27 3a bf f0 5e 39 8b 54 65 3b
       -0.00073045 0.00063776906 0.00021261255 0.0034993018
000290 56 c3 0f bc 7b 71 3e bc 90 8f 17 3a 54 9a 1b 3a
       -0.008774599 -0.011623736 0.00057815854 0.00059357774
0002a0 2d ba 48 ba ca 53 ef bb 7a 98 9d 3a b6 61 32 ba
       -0.0007657137 -0.0073036896 0.0012023591 -0.0006804721
0002b0 db fa 52 bc e3 56 0e bc c7 36 13 bc 1f bd 08 bc
       -0.012877191 -0.008687708 -0.008985228 -0.008345871
0002c0 40 31 d6 3c 73 cb f6 3b 1c 13 64 3c da 8d d2 3b
       0.026146531 0.0075315773 0.013920572 0.0064256014
0002d0 6b c0 12 bc 14 95 e2 ba aa 4a 12 3c a8 22 b4 3c
       -0.008957009 -0.001728686 0.008928934 0.021989182
0002e0 8e ff d6 3b 11 64 d5 bc bb 15 b7 3b 94 2c 39 3c
       0.006561226 -0.026048692 0.0055873073 0.011302132
0002f0 2a 1c 0d bc 25 f0 d0 3c d5 10 66 3b e6 df a5 3c
       -0.008612672 0.025505135 0.0035105248 0.020248365
000300 75 16 3d 3b 67 1e 81 3c a1 2a 9f 3b ec 20 2d bc
       0.0028852497 0.015761567 0.0048573767 -0.010566931
000310 ea f7 b7 3c 4f 6d 4b bc 1c 17 62 bc 4e cd b1 3c
       0.022457082 -0.012416198 -0.013799455 0.021704342
000320 f5 3b 79 bc d0 a1 37 3c 3c 2b 5c 3c 1e 5a cb bb
       -0.015212049 0.011208013 0.013438042 -0.006205811
000330 01 7f 2c 3c 8b 18 6f 3b 97 3c d0 bc 5d a3 98 bc
       0.010528327 0.0036483135 -0.025419516 -0.018632585
000340 db 3e f6 3c 3d 10 80 3b f1 d2 a6 3c 1d ff ec 3c
       0.030059269 0.0039081858 0.020364257 0.028930241
000350 0f 9b 96 3c ef ab b8 3c 66 c1 0f bc 8e a7 92 bc
       0.018384485 0.022542922 -0.008774137 -0.017902162
000360 1d cf cb bb 69 0d ee bc c5 bc bc bc 53 d8 15 3d
       -0.006219758 -0.029059129 -0.023039231 0.036583256
000370 3b 85 96 3c c6 a6 36 bd f7 f2 a7 3c f0 79 60 bc
       0.018374076 -0.04459264 0.020501597 -0.013700947
000380 8a 79 94 3c 92 c7 42 3c 63 61 5b 3c 3f cf b7 3c
       0.01812436 0.011888402 0.013389918 0.02243769
000390 fb cb 31 bc a2 8b 21 bc 76 da ff 3c e2 18 c6 bc
       -0.010851855 -0.009859951 0.0312321 -0.024181787
0003a0 31 86 d4 3c 2c 4e d7 bc 70 cc e9 3b 5e 4c 86 3c
       0.025942894 -0.026282392 0.0071349666 0.016393837
0003b0 13 15 e8 bc fd 4d a8 bc 6f 3c c1 3c a2 2f 9a 3c
       -0.028330361 -0.020545 0.023588387 0.018821541
0003c0 00 82 c7 bc cb 6c 37 bc f5 60 a1 bc 88 af bc bc
       -0.024353981 -0.011195372 -0.019699553 -0.023032919
0003d0 e2 58 b6 bc b0 72 92 bc 63 fa b8 3c d7 ce f0 3b
       -0.02225918 -0.017876953 0.022580331 0.007348876
0003e0 be e7 06 3c f1 e8 a6 3c 3b 99 37 3c 01 ca e1 3c
       0.008233963 0.020374747 0.011205967 0.027562143
0003f0 72 94 d5 bc 16 e1 2e 3a ae 58 34 3a f3 84 b6 b9
       -0.02607176 0.00066711137 0.00068796694 -0.000348128

Block1.4.weight f4 [196]
000000 e8 07 7e 3f bc 4e 7e 3f bb d5 7c 3f 55 ca 7e 3f
       0.99230814 0.9933889 0.98763627 0.99527484
000010 39 7e 80 3f 68 dc 80 3f f6 03 85 3f 3d cb 80 3f
       1.003852 1.0067263 1.0391834 1.0062023
000020 d9 3d 7c 3f 68 9c 7c 3f 7c 61 82 3f f0 2d 80 3f
       0.9853187 0.98676157 1.0186 1.0014019
000030 7a 51 7f 3f bf 4e 80 3f 92 09 84 3f a7 9b 80 3f
       0.997337 1.0024031 1.0315421 1.0047501
000040 54 a3 7b 3f b3 ee 80 3f c1 c1 82 3f 3e 9b 80 3f
       0.98296094 1.0072845 1.0215379 1.0047376
000050 fc 2d 7d 3f 50 0d 81 3f 2e 0b 83 3f 58 77 81 3f
       0.9889829 1.0082188 1.0237787 1.0114546
000060 e3 82 7e 3f 60 8c 7e 3f 5d 82 7d 3f 29 18 82 3f
       0.9941847 0.99432945 0.99027044 1.0163623
000070 eb 21 80 3f f5 25 81 3f de d5 81 3f b8 89 7d 3f
       1.0010351 1.0089709 1.0143392 0.9903827
000080 76 dc 7a 3f 7c b2 7c 3f 61 32 81 3f 0d 9b 80 3f
       0.97992647 0.98709846 1.00935 1.0047318
000090 89 35 80 3f d0 11 7c 3f e2 9a 81 3f 01 12 82 3f
       1.0016338 0.9846468 1.0125391 1.0161744
0000a0 36 c7 7f 3f 86 46 7f 3f 4b 9d 7e 3f 80 f8 80 3f
       0.99913347 0.99716985 0.9945876 1.0075836
0000b0 07 d9 82 3f 3a 3c 82 3f ed d1 7f 3f 9a cb 7f 3f
       1.0222481 1.017463 0.99929696 0.99920046
0000c0 c7 62 7c 3f 7c 39 7e 3f 2a 1f 80 3f b4 7d 81 3f
       0.9858822 0.99306464 1.000951 1.0116487
0000d0 1f 49 81 3f eb 80 82 3f cf 79 83 3f cd 80 83 3f
       1.010044 1.0195593 1.0271548 1.0273682
0000e0 e0 8b 7f 3f 77 29 7f 3f 0b 2b 7e 3f de 78 7e 3f
       0.9982281 0.99672645 0.9928443 0.9940318
0000f0 8c 52 80 3f e3 20 7c 3f 08 f7 7f 3f 5b 2d 82 3f
       1.0025191 0.9848768 0.99986315 1.0170091
000100 7b 95 80 3f 3f af 81 3f c9 73 81 3f e7 2d 7c 3f
       1.0045618 1.0131606 1.011346 0.9850754
000110 ad c1 7f 3f 27 4f 80 3f ae fc 7d 3f c2 7b 81 3f
       0.999049 1.0024155 0.99213684 1.0115893
000120 ee 35 83 3f 6e 75 7e 3f fb 0a 81 3f 05 a7 7e 3f
       1.0250833 0.99397933 1.0081476 0.994736
000130 42 67 7f 3f aa d4 79 3f 05 64 80 3f d4 7f 7e 3f
       0.99766934 0.97590125 1.0030524 0.994138
000140 6a 43 80 3f 90 71 7c 3f 77 40 80 3f 33 a5 7d 3f
       1.0020573 0.9861078 1.0019673 0.990802
000150 0f 2e 80 3f 8e f7 81 3f 99 e5 7e 3f 1e 84 7d 3f
       1.0014056 1.0153673 0.9956909 0.9902972
000160 c7 81 7c 3f 68 69 81 3f 46 e7 7c 3f 17 09 7e 3f
       0.98635525 1.0110292 0.98790395 0.9923262
000170 75 03 7b 3f 03 47 83 3f 44 11 7e 3f 4a 10 7c 3f
       0.9805215 1.0256046 0.99245095 0.98462355
000180 5b 05 7e 3f 9e e3 7d 3f b5 cb 82 3f 8d 55 83 3f
       0.9922692 0.9917544 1.0218416 1.0260483
000190 9d 08 81 3f 83 ca 7d 3f f7 d4 81 3f 54 ec 7d 3f
       1.0080754 0.99137133 1.0143117 0.99188733
0001a0 25 56 83 3f ff 7f 81 3f d2 96 81 3f 66 8d 7e 3f
       1.0260664 1.0117186 1.0124152 0.99434507
0001b0 42 fe 80 3f 01 97 7b 3f 7a ce 7c 3f a7 70 7f 3f
       1.0077593 0.9827729 0.9875256 0.9978127
0001c0 c9 49 81 3f 80 63 7d 3f 74 37 80 3f e5 f7 7b 3f
       1.0100642 0.9897995 1.0016923 0.9842513
0001d0 11 c5 80 3f 85 f2 80 3f b7 e2 7a 3f 02 f0 7d 3f
       1.006014 1.0074011 0.9800219 0.9919435
0001e0 ef 4e 7e 3f d5 8c 82 3f c4 33 81 3f 67 3c 81 3f
       0.99339193 1.0199229 1.0093923 1.0096558
0001f0 4e 55 7f 3f 27 fe 7c 3f d3 7b 7d 3f ec ba 7d 3f
       0.9973954 0.98825306 0.99017066 0.99113345
000200 11 24 82 3f e4 41 7f 3f d4 82 81 3f a9 f0 81 3f
       1.0167257 0.99709916 1.011805 1.0151569
000210 04 18 82 3f 2a ec 7f 3f fb 14 7e 3f f6 fe 80 3f
       1.0163579 0.9996973 0.99250764 1.0077808
000220 cb b7 7f 3f 11 30 7f 3f a3 a7 7e 3f 7d 00 81 3f
       0.9988982 0.9968272 0.99474543 1.0078274
000230 f2 3d 81 3f 22 34 83 3f b7 83 7e 3f 51 c2 7e 3f
       1.0097029 1.0250285 0.9941973 0.99515253
000240 59 be 80 3f 6e 6e 80 3f db 77 7d 3f 4a 6d 81 3f
       1.005809 1.00337 0.9901101 1.0111477
000250 71 c1 82 3f 95 0e 7d 3f a5 47 80 3f 5a e7 82 3f
       1.0215284 0.98850375 1.0021864 1.0226853
000260 b9 64 81 3f aa 10 84 3f ea 5b 7d 3f 2d d4 80 3f
       1.0108863 1.0317585 0.98968375 1.0064751
000270 41 b5 81 3f d8 d2 7e 3f af 54 80 3f 15 56 7c 3f
       1.0133439 0.9954047 1.0025843 0.9856885
000280 63 20 80 3f 38 e3 7e 3f 9b 17 7c 3f 58 a1 81 3f
       1.0009884 0.9956546 0.9847352 1.0127363
000290 67 14 7e 3f 1a 18 7d 3f 43 19 80 3f e4 b8 7b 3f
       0.9924988 0.988649 1.0007709 0.98328996
0002a0 e5 21 80 3f 76 8e 79 3f e7 02 7e 3f d0 b2 7f 3f
       1.0010344 0.97483003 0.9922318 0.9988222
0002b0 61 74 7d 3f 99 20 80 3f 5a 3d 7f 3f 73 00 80 3f
       0.99005705 1.0009948 0.9970299 1.0000137
0002c0 03 31 80 3f 0c c2 7e 3f aa fc 80 3f 83 05 81 3f
       1.0014957 0.9951484 1.0077107 1.0079807
0002d0 c1 4d 7e 3f 69 8c 80 3f 08 15 7d 3f 14 d7 7f 3f
       0.99337393 1.004285 0.98860216 0.9993756
0002e0 92 aa 80 3f 7d c6 80 3f f5 07 7c 3f 0f 4c 82 3f
       1.0052054 1.0060574 0.9844964 1.0179461
0002f0 11 1b 7f 3f 2a 14 7c 3f e7 26 80 3f 3c 8a 7e 3f
       0.99650675 0.9846827 1.0011872 0.9942968
000300 6a 08 81 3f b0 45 80 3f b8 df 7d 3f f1 56 7c 3f
       1.0080693 1.0021267 0.9916949 0.9857016

Block1.4.bias f4 [196]
000000 e0 10 58 3c 6f 56 09 3c 08 b0 9a bc f0 70 c0 3c
       0.013187617 0.008382424 -0.018882766 0.023491353
000010 2e bd cc 3c 42 52 90 3c 08 45 a1 3b 3d 67 aa 3c
       0.024992552 0.017617349 0.0049215592 0.020801181
000020 15 0f 5f bb 8b 18 27 bd 38 26 29 3c c9 fa 03 39
       -0.003403609 -0.04079489 0.0103240535 0.00012586558
000030 d8 98 06 b9 b2 0d 9c ba 14 94 6a 3c 77 9f 89 3c
       -0.00012836175 -0.0011905937 0.014317531 0.016799672
000040 b2 25 f3 bc ee ef ab 3c 45 43 b0 bd d8 3e e7 3c
       -0.02968106 0.02098843 -0.08606581 0.028228208
000050 39 98 a6 bc e5 95 3f 3c d8 3e 77 3d 4e 51 03 3c
       -0.020336257 0.0116934525 0.060362667 0.00801499
000060 e2 c2 b7 bb eb fa 81 3c 1e 58 37 bd 45 99 df 3c
       -0.0056079486 0.015866717 -0.04476177 0.027294764
000070 32 10 6f 3d 6b 50 91 3c f2 51 00 3d f9 10 26 bd
       0.058365054 0.017738542 0.03132815 -0.04054353
000080 32 f4 72 bc f0 6d d4 bb 72 83 ae ba 0a d9 23 bd
       -0.0148287285 -0.006482832 -0.001331432 -0.040001906
000090 65 ce f5 ba 37 9c bb 3c 9d 57 bf bb bd 3e bd 3c
       -0.0018753527 0.022901637 -0.0058393017 0.023101205
0000a0 09 b8 ef bb dd 2b 0d 3c 1a 8b 4b 3a f7 40 a1 3c
       -0.00731564 0.008616415 0.0007764563 0.019684298
0000b0 19 2e bb 3c fd c3 86 3c 5e 54 10 39 88 7b 01 bd
       0.02284913 0.016450876 0.0001376434 -0.03161195
0000c0 b3 19 90 3c aa f7 a1 bb 92 bf 78 bc 1b db 0d 3d
       0.01759038 -0.004942854 -0.015182393 0.034632783
0000d0 1a d7 38 bb 4c fb 88 3b d9 36 92 3c 30 ab 14 3c
       -0.0028204382 0.0041803475 0.017848419 0.009074017
0000e0 ff b5 c7 3b 00 13 36 bc 26 ac 92 3b de a1 88 bc
       0.0060946937 -0.011112928 0.004476088 -0.016678747
0000f0 06 8b 60 3c 32 cc a0 bc 54 ff f4 3c 62 4b 1a 3c
       0.013705021 -0.019628618 0.029906906 0.009417387
000100 2f a6 8a bc c1 be fc bb 01 4a e6 3b a0 61 13 3c
       -0.016924946 -0.0077131693 0.007027865 0.008995444
000110 47 fe 4a 3b 4c 5c f1 3a 6b 35 be bc 9b fa 3d bc
       0.0030974315 0.0018414347 -0.023218831 -0.0115953935
000120 26 55 56 3d 33 fc e3 3c 99 8c 33 bc 01 b3 e4 3c
       0.052327298 0.027830219 -0.010958814 0.027917387
000130 4c 6d 6d 3b 93 eb 96 bb 98 1a 92 3b 73 60 01 bc
       0.0036228476 -0.0046057194 0.0044587366 -0.00789653
000140 37 14 0a bd af 8b 9f 3b b2 dc 81 3c 7a 9b 7c bd
       -0.033710685 0.0048689465 0.015852306 -0.06167171
000150 5d 5b b8 bb 4d af 47 bc 85 8b b0 bc de d8 09 3c
       -0.0056261257 -0.012187791 -0.021550903 0.008413522
000160 cd ac f6 3b c9 24 36 3c 3c 7d 9b 39 07 97 8c 3c
       0.0075279237 0.011117169 0.0002965721 0.01716186
000170 5e 42 28 bc 1a ba 03 3d 7f c5 ac 39 a5 1f dd 3a
       -0.010269729 0.032159902 0.00032953543 0.0016870393
000180 c6 10 2a bc 74 08 49 bc f4 a6 41 3c 2f 99 7a 3c
       -0.010379976 -0.012270082 0.01181959 0.015295311
000190 67 51 ae 3c c0 ce 68 bd 66 37 03 3d de ec 6d bc
       0.02127905 -0.056837797 0.032035254 -0.014521806
0001a0 72 82 bf 3c d4 c2 05 3d c6 28 02 3d 84 c1 a1 3b
       0.02337763 0.032656506 0.031777166 0.004936399
0001b0 f3 a0 5a 3c cd 52 d8 3c a0 b8 81 3c 17 20 e4 bb
       0.013344037 0.02640667 0.015835106 -0.006961833
0001c0 f4 4f cb 3c 74 3e 00 bd 87 59 22 3c 5f 55 61 bc
       0.024818398 -0.03130956 0.00990904 -0.013753264
0001d0 92 22 37 bd 77 7c 11 3c 0c 5a 11 bc ee 1d a9 bc
       -0.044710703 0.008879772 -0.0088715665 -0.020644154
0001e0 9f b7 2e 3c 19 10 81 bd df 33 21 bc 32 9d 2d ba
       0.010663896 -0.063018985 -0.009839027 -0.000662285
0001f0 f6 aa 4f 3d 7b e3 22 bb 44 1b e8 bb 1c 6f 94 bc
       0.05070015 -0.0024854827 -0.0070833284 -0.018119387
000200 80 77 13 3d 3b fc fa 3b df 2e c9 3c aa ba 03 3c
       0.036002636 0.0076594627 0.024558483 0.00804011
000210 67 12 ac ba 23 d2 1a 3d 7a cc d3 3c d8 c4 cb 3c
       -0.0013128043 0.03779806 0.025854338 0.024874136
000220 47 27 c8 bb 3c b7 b4 bb 76 e6 41 3d 45 04 e6 b8
       -0.006108198 -0.0055150073 0.047338925 -0.0001096805
000230 7c 28 8b 3b c0 e0 c8 3c 22 26 23 3c 52 ef f1 3c
       0.0042467695 0.024521232 0.009957822 0.029533062
000240 51 79 39 bc f5 01 45 3c 58 19 36 bd dc ff a4 3d
       -0.011320428 0.012024392 -0.044457763 0.08056614
000250 03 c9 27 3d ae c9 0e bd 00 f3 89 3c a4 54 d3 3c
       0.040963184 -0.034860305 0.016839504 0.025797196
000260 03 7a b2 3a 2e 4e 63 3d 1b 7d f3 bc 28 ce c4 3c
       0.0013616685 0.05549448 -0.02972274 0.024024084
000270 76 62 88 bb d3 36 bf bb e6 f3 37 ba 6c f3 17 bd
       -0.004162128 -0.005835393 -0.00070172397 -0.03709738
000280 03 b2 6b 3d 4f 07 ce bc c9 8e a9 bc f2 86 27 3a
       0.057542812 -0.02514997 -0.020697968 0.0006390653
000290 81 1e 50 ba 83 7e d8 bc e3 6d a8 3b 73 5e d8 bb
       -0.0007939116 -0.026427513 0.0051400526 -0.006603056
0002a0 9d 56 ab 3b ea af d0 bc fd e5 22 3b 98 8b 4c 3c
       0.005228831 -0.025474507 0.0024856322 0.012484454
0002b0 91 d7 98 ba 1d 57 b6 bc 89 96 8d bc a7 92 9a bb
       -0.0011660923 -0.022258336 -0.017283695 -0.0047171894
0002c0 d4 87 61 bc aa eb d6 3b 12 f0 47 3d 62 09 f0 3c
       -0.013765294 0.006558855 0.048812933 0.02930135
0002d0 ca 19 73 3c a0 5a 8c bc c4 fd 8d bc ef 1b b8 3c
       0.014837692 -0.017133057 -0.017332919 0.022474257
0002e0 fa 83 10 bc c0 ee 11 3c 6a 55 a0 bc 7c 8a f4 3b
       -0.008820528 0.00890702 -0.019571979 0.0074627977
0002f0 b9 ee 1f bc 60 40 f2 3c e0 20 0a bb f2 04 9e bc
       -0.009761506 0.029571712 -0.0021076724 -0.019289467
000300 4a 72 bd 3c 9b 5a 15 3a 52 de 64 bd 35 e3 cb 3c
       0.023125786 0.00056974 -0.055876084 0.024888614

Block1.4.running_mean f4 [196]
000000 51 e0 35 ba 37 0e 9b bc 49 19 60 bc d0 6a b5 3c
       -0.0006938028 -0.018927677 -0.013677903 0.022145659
000010 40 8e 0b bd 3c 6b b2 bc 68 d0 79 3c 47 79 ba 3c
       -0.034071207 -0.021779649 0.015247442 0.022762908
000020 9b dc b8 bc 9e 13 61 bb d0 65 cc ba 8b 7a ce bb
       -0.02256613 -0.0034343968 -0.0015594307 -0.0063012294
000030 04 00 00 00 b3 db 28 3b dc 79 99 bb 70 ad 13 3d
       6e-45 0.0025765717 -0.004683716 0.036054075
000040 93 71 51 3b 35 3e ac 3c e0 18 d2 bb 90 c0 ad ba
       0.0031958565 0.021025756 -0.0064116567 -0.0013256241
000050 e5 cd 81 3b ce 3c 8f bc c0 f1 0a 3c 22 9b b2 bc
       0.003961312 -0.017485049 0.008480489 -0.021802489
000060 7e d2 6d ba 29 f9 e3 3c 4d 05 6e 3a f8 14 b3 bc
       -0.00090721983 0.02782877 0.00090797694 -0.021860585
000070 80 d3 b7 3c b8 2e 93 3c 32 42 3f bc 95 4a 8b 3b
       0.022439718 0.017966613 -0.011673497 0.004250834
000080 27 26 79 bc ad 54 ce 3c 40 7a 37 bc e0 ff f7 ba
       -0.01520685 0.025186861 -0.01119858 -0.0018920861
000090 c9 a1 42 bb 65 bf 2b 3c 40 3c 8a 3a 8a 75 10 3d
       -0.0029698482 0.010482644 0.001054652 0.035268344
0000a0 f4 1d bc bc 1a 2d e7 3c 51 a4 08 bc ab f4 cc bb
       -0.022963502 0.028219748 -0.008339957 -0.0062547526
0000b0 c0 ee 91 3b 21 57 3b 38 4d a1 85 3c bc 72 48 3c
       0.00445351 4.466542e-05 0.016312266 0.012234386
0000c0 53 ba 9a bc aa 71 9d b9 26 ea 1b 3c b3 9a 48 3b
       -0.018887674 -0.0003003006 0.009516275 0.0030609786
0000d0 2c 6e 40 bb d2 2d c9 bb f2 5f b5 ba 07 eb 2e bc
       -0.0029362543 -0.0061394954 -0.0013837798 -0.010676152
0000e0 3d cb 81 bc a2 5f 85 3c e1 20 11 3c 40 6c 91 3b
       -0.015843982 0.016280953 0.008857937 0.0044379532
0000f0 a2 30 3a 3b 83 f6 50 3c f7 3e 8f bc db 7c 6e 3c
       0.0028410335 0.0127540855 -0.017486079 0.014556135
000100 44 23 07 3b 21 60 52 3c 99 f5 f4 bb b1 12 99 3b
       0.0020620385 0.012840302 -0.0074755666 0.0046714176
000110 dc 20 40 bc ac d4 0d 3c c0 eb 01 bd 88 d2 29 bb
       -0.011726584 0.008656662 -0.03171897 -0.002591284
000120 dc 73 16 bc ae 2b 65 3b d4 84 03 38 3a 75 b8 bb
       -0.009182896 0.0034968662 3.135654e-05 -0.005629209
000130 a3 24 8e 3c 83 4c 89 bd 18 12 62 bc 1f 0d 4a bc
       0.017351454 -0.067040466 -0.013798259 -0.01233223
000140 6b 44 80 ba 0d 76 a0 3c 2f e7 c8 bb 8f 75 85 bc
       -0.0009786015 0.019587541 -0.006131075 -0.016291408
000150 cd c5 78 ba e0 5b 15 3d 7c 05 ca 3c fe 7d 8f 3b
       -0.0009489924 0.036464572 0.024660818 0.004379033
000160 5d 55 28 bb af 5e 25 bd 6a f8 8a bb e1 fb 52 bc
       -0.0025685646 -0.0403735 -0.004241039 -0.012877435
000170 8d 96 28 bc ba 94 5a 3c 41 90 64 3c 61 1e 5c bc
       -0.0102898 0.013341123 0.013950408 -0.013434977
000180 52 6b 55 3c 31 a4 24 bc 7b 2b 95 bc e2 09 0f 3c
       0.013026075 -0.010048912 -0.01820921 0.008730384
000190 c3 bf 8b bc 9d 0e a4 3c c9 1e c9 bc 7d 12 56 ba
       -0.017059213 0.0200265 -0.024550812 -0.0008166207
0001a0 76 63 8b bc fd 7c 6b bc 22 42 80 3b 4e 48 a1 bc
       -0.0170152 -0.014373061 0.0039141336 -0.019687798
0001b0 a3 cf ac 3b 02 0a c5 3b c1 db 4c bc 6f c1 54 3b
       0.0052737757 0.006013156 -0.012503565 0.0032463928
0001c0 61 b6 7c 3c 08 ef 82 3b d9 14 68 bc 3b 2f 96 3b
       0.015424342 0.00399578 -0.014165127 0.004583267
0001d0 05 9e b0 bb 1f 10 58 bb aa 09 a2 3c 09 19 93 ba
       -0.005389931 -0.0032968593 0.019779999 -0.0011222671
0001e0 44 72 25 bc 98 22 a2 bb 66 37 d7 ba 92 f1 49 3c
       -0.010098044 -0.0049479716 -0.0016419708 0.012325661
0001f0 6f 2f ae 3c c1 a2 4f 3b 6d 7a 86 3b a1 37 98 ba
       0.021262852 0.0031682702 0.0041039498 -0.0011613258
000200 e7 2b ed bc 7a 79 be bc 6d ec d3 39 3e 05 f7 3c
       -0.028951598 -0.023251284 0.00040421207 0.030153867
000210 3a b0 83 bc 63 a0 49 3c 7c f4 4b 3d 4f e1 9a bc
       -0.016075242 0.012306306 0.049793705 -0.018906264
000220 0d da 69 bc 97 90 1e bc bf 6a b0 3b fa 1b fc 3c
       -0.014273179 -0.009678028 0.005383819 0.030775059
000230 05 95 93 bc 3c 09 ec bc ac 2a b1 bc ac 6f 6e 3c
       -0.018015394 -0.028812997 -0.021626793 0.014552992
000240 77 88 4a 3d 08 47 83 3c d4 e6 c7 bc 20 09 8e 3c
       0.04944655 0.016025081 -0.02440206 0.017338336
000250 85 b7 0d bb 2f 97 f3 bb fc 7f a3 3c 3b 6e 24 ba
       -0.0021624279 -0.007433794 0.019958489 -0.0006272529
000260 3b 1b b5 3b 9b 9f 3a bc 8e 8f 70 3c 3f 2e 24 bc
       0.0055269278 -0.011390592 0.014682664 -0.010020792
000270 25 1f 45 bc cf cd 91 bc 0d 89 59 bc 75 e9 5c 3c
       -0.012031351 -0.017798332 -0.013277304 0.013483395
000280 97 b5 bd bc 99 6c eb bb a1 76 df 3c 0f 7c 9a 3b
       -0.023157878 -0.0071845767 0.027278246 0.004714496
000290 57 8f 86 3c 47 25 ac 3c 94 b9 fb 3b a4 ce 6c 3c
       0.016425772 0.021013869 0.0076820347 0.014453564
0002a0 a1 76 b6 3c 1f a2 0f bc 98 6d 8b bc 6c 45 83 bc
       0.022273364 -0.00876668 -0.017020032 -0.016024314
0002b0 54 af 51 3b 2a 02 03 bc 4b b8 93 bc 64 cf a5 bc
       0.0031995373 -0.007996121 -0.018032214 -0.020240493
0002c0 c2 c3 ca bb 35 3b 8b 3c c7 67 91 3c 37 76 5d bc
       -0.006187887 0.016996006 0.01774968 -0.013516954
0002d0 89 18 de 3b f7 f7 16 3b 3d ba 9c bc 9b 81 8e bc
       0.006777827 0.0023035982 -0.019131774 -0.017395785
0002e0 13 30 34 3c e8 d3 b7 3c 18 20 53 bc b1 14 9f 3c
       0.01099779 0.022439912 -0.01288607 0.019419046
0002f0 04 00 00 80 e0 d1 8a 3b cc e4 3f bb c5 ec 67 3c
       -6e-45 0.004236445 -0.002928066 0.014155571
000300 bc 70 b0 3c c1 ec b0 3b f6 a3 b8 3b b7 d1 94 3c
       0.021538131 0.005399317 0.00563478 0.018166406
