checkpoint/student_1/casia/client/student_3.pt (torch, 253477 bytes, 50 tensors)

torch.sparse_coo f4 [17]
0	0xbe1129d5	-0.14176114
1	0x3dcd78ec	0.1003283
2	0x3da0a2d0	0.07843554
3	0xbdeee707	-0.11665159
4	0xbe14f9a7	-0.1454836
5	0xbc798b2d	-0.015230936
6	0xbdcd3d08	-0.100214064
7	0x3d5a1556	0.053243004
8	0xba9593c9	-0.0011411841
9	0xbab31037	-0.0013661449
10	0x3dea71c6	0.11447482
11	0xbca20c41	-0.019781234
12	0x3c5fe64f	0.01366575
13	0xbdceda2a	-0.10100205
14	0x3b888f0f	0.0041674445
15	0xbcdf1711	-0.027232679
16	0x3e06649f	0.13124321

conv1.1.weight f4 [64]
0	0x3f7ec975	0.9952615
1	0x3f7f6834	0.99768376
2	0x3f800000	1.0
3	0x3f800000	1.0
4	0x3f800000	1.0
5	0x3f7c1119	0.9846359
6	0x3f8186f1	1.0119306
7	0x3f800000	1.0
8	0x3f800000	1.0
9	0x3f800000	1.0
10	0x3f800f39	1.0004646
11	0x3f800000	1.0
12	0x3f800000	1.0
13	0x3f800000	1.0
14	0x3f800000	1.0
15	0x3f800000	1.0
16	0x3f800000	1.0
17	0x3f800000	1.0
18	0x3f800000	1.0
19	0x3f800000	1.0
20	0x3f800000	1.0
21	0x3f800000	1.0
22	0x3f800000	1.0
23	0x3f800000	1.0
24	0x3f800000	1.0
25	0x3f800000	1.0
26	0x3f800000	1.0
27	0x3f800000	1.0
28	0x3f800000	1.0
29	0x3f800000	1.0
30	0x3f800000	1.0
31	0x3f800000	1.0
32	0x3f800000	1.0
33	0x3f800000	1.0
34	0x3f800000	1.0
35	0x3f800000	1.0
36	0x3f800000	1.0
37	0x3f8316c6	1.0241325
38	0x3f7f5dfa	0.9975277
39	0x3f800000	1.0
40	0x3f7e4339	0.99321324
41	0x3f80627e	1.0030057
42	0x3f800000	1.0
43	0x3f800000	1.0
44	0x3f800000	1.0
45	0x3f800000	1.0
46	0x3f800000	1.0
47	0x3f800000	1.0
48	0x3f800000	1.0
49	0x3f7e66d0	0.9937563
50	0x3f7cd368	0.9876008
51	0x3f7cc6a5	0.9874061
52	0x3f800000	1.0
53	0x3f800000	1.0
54	0x3f800000	1.0
55	0x3f800000	1.0
56	0x3f800000	1.0
57	0x3f800000	1.0
58	0x3f800000	1.0
59	0x3f7eb478	0.99494123
60	0x3f800000	1.0
61	0x3f800000	1.0
62	0x3f800000	1.0
63	0x3f800000	1.0

conv1.1.bias f4 [64]
0	0x3cbc4f9f	0.022987185
1	0xbbdcb0fe	-0.0067349663
2	0x00000000	0.0
3	0x00000000	0.0
4	0x00000000	0.0
5	0x3c4d8d21	0.012545855
6	0x3c960f04	0.018317707
7	0x00000000	0.0
8	0x00000000	0.0
9	0x00000000	0.0
10	0xba8cad61	-0.0010732823
11	0x00000000	0.0
12	0x00000000	0.0
13	0x00000000	0.0
14	0x00000000	0.0
15	0x00000000	0.0
16	0x00000000	0.0
17	0x00000000	0.0
18	0x00000000	0.0
19	0x00000000	0.0
20	0x00000000	0.0
21	0x00000000	0.0
22	0x00000000	0.0
23	0x00000000	0.0
24	0x00000000	0.0
25	0x00000000	0.0
26	0x00000000	0.0
27	0x00000000	0.0
28	0x00000000	0.0
29	0x00000000	0.0
30	0x00000000	0.0
31	0x00000000	0.0
32	0x00000000	0.0
33	0x00000000	0.0
34	0x00000000	0.0
35	0x00000000	0.0
36	0x00000000	0.0
37	0x3cdccb4f	0.026952414
38	0x3c0a2f95	0.008434196
39	0x00000000	0.0
40	0x3d847553	0.0646769
41	0x3c9b32f7	0.0189452
42	0x00000000	0.0
43	0x00000000	0.0
44	0x00000000	0.0
45	0x00000000	0.0
46	0x00000000	0.0
47	0x00000000	0.0
48	0x00000000	0.0
49	0x3c7baf61	0.015361638
50	0x3d3597be	0.044334166
51	0x3d47ab42	0.04874731
52	0x00000000	0.0
53	0x00000000	0.0
54	0x00000000	0.0
55	0x00000000	0.0
56	0x00000000	0.0
57	0x00000000	0.0
58	0x00000000	0.0
59	0x3d8207cf	0.063491456
60	0x00000000	0.0
61	0x00000000	0.0
62	0x00000000	0.0
63	0x00000000	0.0

conv1.1.running_mean f4 [64]
0	0x3bb4e3ad	0.005520305
1	0x80000004	-6e-45
2	0x00000000	0.0
3	0x00000000	0.0
4	0x00000000	0.0
5	0xbc8cc5b9	-0.017184125
6	0x3bfc00be	0.007690518
7	0x00000000	0.0
8	0x00000000	0.0
9	0x00000000	0.0
10	0x00000004	6e-45
11	0x00000000	0.0
12	0x00000000	0.0
13	0x00000000	0.0
14	0x00000000	0.0
15	0x00000000	0.0
16	0x00000000	0.0
17	0x00000000	0.0
18	0x00000000	0.0
19	0x00000000	0.0
20	0x00000000	0.0
21	0x00000000	0.0
22	0x00000000	0.0
23	0x00000000	0.0
24	0x00000000	0.0
25	0x00000000	0.0
26	0x00000000	0.0
27	0x00000000	0.0
28	0x00000000	0.0
29	0x00000000	0.0
30	0x00000000	0.0
31	0x00000000	0.0
32	0x00000000	0.0
33	0x00000000	0.0
34	0x00000000	0.0
35	0x00000000	0.0
36	0x00000000	0.0
37	0x3d10f13c	0.03538631
38	0x3cb20abe	0.021733638
39	0x00000000	0.0
40	0xbb47abb2	-0.0030467329
41	0x00000004	6e-45
42	0x00000000	0.0
43	0x00000000	0.0
44	0x00000000	0.0
45	0x00000000	0.0
46	0x00000000	0.0
47	0x00000000	0.0
48	0x00000000	0.0
49	0xbca6d022	-0.020362917
50	0x3cbcb233	0.02303419
51	0x3bddfaeb	0.0067742965
52	0x00000000	0.0
53	0x00000000	0.0
54	0x00000000	0.0
55	0x00000000	0.0
56	0x00000000	0.0
57	0x00000000	0.0
58	0x00000000	0.0
59	0xbce99d15	-0.028517285
60	0x00000000	0.0
61	0x00000000	0.0
62	0x00000000	0.0
63	0x00000000	0.0

conv1.1.running_var f4 [64]
0	0x3a409e87	0.0007347841
1	0x00000004	6e-45
2	0x00000004	6e-45
3	0x00000004	6e-45
4	0x00000004	6e-45
5	0x3ad2327e	0.0016036776
6	0x3b5bab2c	0.0033518774
7	0x00000004	6e-45
8	0x00000004	6e-45
9	0x00000004	6e-45
10	0x00000004	6e-45
11	0x00000004	6e-45
12	0x00000004	6e-45
13	0x00000004	6e-45
14	0x00000004	6e-45
15	0x00000004	6e-45
16	0x00000004	6e-45
17	0x00000004	6e-45
18	0x00000004	6e-45
19	0x00000004	6e-45
20	0x00000004	6e-45
21	0x00000004	6e-45
22	0x00000004	6e-45
23	0x00000004	6e-45
24	0x00000004	6e-45
25	0x00000004	6e-45
26	0x00000004	6e-45
27	0x00000004	6e-45
28	0x00000004	6e-45
29	0x00000004	6e-45
30	0x00000004	6e-45
31	0x00000004	6e-45
32	0x00000004	6e-45
33	0x00000004	6e-45
34	0x00000004	6e-45
35	0x00000004	6e-45
36	0x00000004	6e-45
37	0x3bdcc166	0.006736922
38	0x3b29a449	0.0025885275
39	0x00000004	6e-45
40	0x3a29c0e1	0.00064755796
41	0x00000004	6e-45
42	0x00000004	6e-45
43	0x00000004	6e-45
44	0x00000004	6e-45
45	0x00000004	6e-45
46	0x00000004	6e-45
47	0x00000004	6e-45
48	0x00000004	6e-45
49	0x3b20189f	0.0024428738
50	0x3afcc992	0.0019286147
51	0x39478f36	0.00019031469
52	0x00000004	6e-45
53	0x00000004	6e-45
54	0x00000004	6e-45
55	0x00000004	6e-45
56	0x00000004	6e-45
57	0x00000004	6e-45
58	0x00000004	6e-45
59	0x3b955a65	0.004557895
60	0x00000004	6e-45
61	0x00000004	6e-45
62	0x00000004	6e-45
63	0x00000004	6e-45

Block1.0.weight f4 [737]
0	0xbc5712d6	-0.013127049
1	0x3d1edd78	0.038785428
2	0x3c996c68	0.01872845
3	0xbca99c9b	-0.020704558
4	0xbd1f514a	-0.038895883
5	0xbd1b112c	-0.037858173
6	0xbce59b0e	-0.028028037
7	0xbcedc68b	-0.029025337
8	0xbd06a258	-0.032869667
9	0xbd276257	-0.04086527
10	0xbd050137	-0.03247186
11	0x3c6584d6	0.014008721
12	0x3cbb1a9b	0.022839835
13	0xbd0fec98	-0.035137743
14	0x39171b17	0.00014410574
15	0x3986cb94	0.0002571015
16	0x38bdd221	9.051362e-05
17	0x38655e97	5.468595e-05
18	0x3a28b748	0.00064360024
19	0x36433ee4	2.9093871e-06
20	0xb888bd18	-6.520207e-05
21	0x39802987	0.00024445003
22	0xbc86a480	-0.016435862
23	0x3d0900be	0.033447973
24	0x3d0ef8e6	0.034905337
25	0xbc43bd60	-0.011947006
26	0x3c9b5adf	0.01896423
27	0x3ad1fe5e	0.0016021242
28	0xbca815d8	-0.020518228
29	0xbc38bdc6	-0.011275714
30	0xbd235be8	-0.03988257
31	0x3c2a57c6	0.010396903
32	0x3c8da58e	0.017290857
33	0xbc9616b0	-0.018321365
34	0x3c82de2e	0.015975084
35	0x3d222b2f	0.039591964
36	0xbc21a7a0	-0.009866625
37	0x3cd78cbe	0.026312228
38	0x3c9daece	0.019248392
39	0x3d227e1a	0.03967104
40	0xbd043662	-0.032278426
41	0x3ca9d306	0.020730507
42	0xbc9d3bc6	-0.019193541
43	0xbcbe6926	-0.023243498
44	0xbcb284c3	-0.021791821
45	0x3c1114e0	0.008855075
46	0xbc2a31c6	-0.0103878435
47	0xbd03bd13	-0.032162737
48	0x3cb97c30	0.022642225
49	0xbd1b1a2a	-0.03786675
50	0x3be19e2d	0.006885311
51	0x3cfd4bd6	0.03091995
52	0x3bc7bb19	0.006095302
53	0xbd1a7d2b	-0.037717026
54	0x3cd00c53	0.025396502
55	0x3a86f9d1	0.001029784
56	0xbba601f0	-0.005066149
57	0x3bb1f56f	0.0054308693
58	0x3d00637e	0.031344883
59	0x3ccc945b	0.024973085
60	0xbd29c816	-0.041450582
61	0x3c2f5cd6	0.010703286
62	0xbd16550b	-0.036702197
63	0x3ca92858	0.02064912
64	0x3c898883	0.016788727
65	0xbc955335	-0.018228153
66	0xbd19ce5c	-0.037550315
67	0x3cd5e926	0.02611215
68	0xbc941543	-0.018076545
69	0xbc6b47f6	-0.014360419
70	0x3bb4962e	0.005511067
71	0xbcc26d40	-0.023733735
72	0x3cbce24b	0.023057124
73	0x3ccce110	0.025009662
74	0xbbdd66e8	-0.006756652
75	0x3cc8742f	0.024469463
76	0x39e6c297	0.00044014
77	0x3926574b	0.00015863513
78	0x38b4f812	8.6292755e-05
79	0x399fbcf5	0.00030467627
80	0xb9448502	-0.00018741566
81	0xba18758d	-0.0005815856
82	0xb9afdc81	-0.0003354289
83	0xb93ea644	-0.00018181751
84	0xb9a3596d	-0.0003115641
85	0x3ce11de0	0.027480066
86	0xbc37dd86	-0.011222249
87	0x3b3e3a50	0.0029026456
88	0x393edf1f	0.00018202931
89	0x3cd3a4c0	0.025835395
90	0x39332666	0.00017085075
91	0x3cf68dd0	0.030096918
92	0xbcaf5cde	-0.021406587
93	0x3c3269a0	0.010889441
94	0x3c25e5b0	0.010125563
95	0xbcdaef0b	-0.026725313
96	0xbca8d3f0	-0.020608872
97	0xbce6f2cd	-0.028191948
98	0x3d025887	0.031822708
99	0xbcbb5f98	-0.022872731
100	0x3c1d1b26	0.009588992
101	0xbcc5395e	-0.024075206
102	0x3d264270	0.040590703
103	0xbce1e696	-0.027575772
104	0x3d26bc5a	0.04070697
105	0x3ac9a633	0.0015384614
106	0x3ce5a98b	0.028034946
107	0xbc3a9dfa	-0.011390204
108	0x3bdb84b7	0.0066991705
109	0xbd0916a2	-0.03346885
110	0xbc32ea2b	-0.010920088
111	0xbce4c5b3	-0.027926302
112	0x3d0a78f4	0.033806756
113	0x3c83958b	0.016062519
114	0x3d292847	0.041298177
115	0xba1e992b	-0.00060500455
116	0xb9c37cc0	-0.00037286244
117	0x3c989478	0.018625483
118	0x3d1125d6	0.035436474
119	0x3cb0da18	0.02158837
120	0xbc8e8e7e	-0.01740193
121	0x3a99fce7	0.0011748344
122	0x3d10d007	0.03535464
123	0x3cebd5db	0.028788498
124	0xbbc2ca6b	-0.0059445403
125	0x3d0d183c	0.03444694
126	0x3d2a7b5a	0.041621543
127	0x3c03c536	0.008042624
128	0xbcc43656	-0.02395169
129	0x3ae5dd82	0.0017537328
130	0x3c91c140	0.017792344
131	0x3cacd0c4	0.021095641
132	0xbb668ce4	-0.0035179192
133	0xbd290573	-0.041264962
134	0xbc18e9ab	-0.009333055
135	0xbcd9d0c8	-0.026588812
136	0x3d11c8de	0.035591953
137	0xbce6972e	-0.02814826
138	0x3d109536	0.03529855
139	0xbcb38ff0	-0.02191922
140	0x3c49f750	0.01232703
141	0x3c418d50	0.011813477
142	0xbc8d04fe	-0.017214295
143	0x3c069730	0.008214757
144	0x3b0f6fe8	0.002188677
145	0xbd021d9b	-0.031766515
146	0x3cca33c3	0.024682885
147	0xbc3f911b	-0.011692311
148	0xbd4aee9d	-0.049543966
149	0xba269bb8	-0.00063556014
150	0xbd24e094	-0.040253237
151	0x3cdf1280	0.027230501
152	0xbcc2fe6e	-0.023802962
153	0x3c2ffe10	0.010741726
154	0xbcdb3d38	-0.02676259
155	0x3d24fb5f	0.04027879
156	0x3cc45d74	0.023970343
157	0xbb557b42	-0.0032574688
158	0xbc0165c6	-0.0078978
159	0x3ce08107	0.027405275
160	0xbcbe624e	-0.023240235
161	0xbd105ae6	-0.035242938
162	0xbc8d5c73	-0.017255997
163	0xbccd3a76	-0.02505229
164	0x3c8b0a4e	0.016972687
165	0x3987296a	0.00025780062
166	0x3c1fc602	0.009751799
167	0xbd264b94	-0.04059942
168	0xbccfbbb0	-0.025358051
169	0x3d06a536	0.0328724
170	0x3c221afb	0.009894128
171	0xbc94c8a3	-0.018162077
172	0x3d0df02a	0.034652866
173	0xbb846e1b	-0.004041446
174	0xbcdfa3db	-0.027299812
175	0xbc9b7628	-0.01897724
176	0xbb228ed7	-0.0024804377
177	0xbcecbbe5	-0.028898189
178	0x3d1081e2	0.035280116
179	0x3d13a72c	0.0360481
180	0xbc16aef4	-0.0091969855
181	0x3cc0f7a2	0.02355558
182	0x3d0687f2	0.03284449
183	0x3c84f3b3	0.016229486
184	0x3c0621bb	0.008186753
185	0x3d0803a8	0.033206612
186	0x3d11d1aa	0.03560034
187	0x3c511939	0.012762361
188	0xbc8f25d3	-0.01747409
189	0xbcff0fce	-0.031135466
190	0xb8e00abc	-0.00010683152
191	0xbcefcc3a	-0.029272188
192	0xb7e9f588	-2.7890099e-05
193	0xb9b62155	-0.0003473858
194	0x389e8f67	7.560738e-05
195	0x38fed53a	0.0001215138
196	0x3ce25fc6	0.027633559
197	0xbcd7d886	-0.026348364
198	0x3bbb227f	0.0057108994
199	0x38eebe9e	0.000113842296
200	0xb8682bb5	-5.5353816e-05
201	0x3cca294b	0.024677893
202	0xb939a2c9	-0.00017703617
203	0x38baf9e1	8.915715e-05
204	0x38ff09e3	0.00012161189
205	0x39dab43f	0.00041714494
206	0x3901e32a	0.00012387024
207	0x38973374	7.209825e-05
208	0x3958431a	0.00020624363
209	0x39358f4a	0.00017314884
210	0xb9e08377	-0.00042822558
211	0x3c3aded0	0.011405662
212	0xbd1cb353	-0.038256954
213	0x3d12f603	0.035879146
214	0xbcd7c94e	-0.026341107
215	0x3cf80b03	0.030278688
216	0xbd0a5820	-0.03377545
217	0x3c08badb	0.008345331
218	0x3d0b35a0	0.033986688
219	0x3cb1a0b3	0.021683073
220	0xbd0fe10e	-0.03512674
221	0xbc8991d0	-0.016793162
222	0xbd21bd33	-0.039487075
223	0x3cad809c	0.02117949
224	0x36fd36a4	7.5463486e-06
225	0x3940f743	0.00018402659
226	0xb6fc433c	-7.5180124e-06
227	0xb9f350ca	-0.00046408764
228	0xb9e1d0f6	-0.00043071032
229	0x3d135108	0.03596595
230	0x38a9c083	8.094406e-05
231	0x3972b582	0.00023146535
232	0x3cf6e3d3	0.030137932
233	0x3c49eed0	0.012325004
234	0x3c7468d0	0.014917567
235	0x3cc25b13	0.023725068
236	0x3cbcdb58	0.02305381
237	0x3d10d504	0.035359398
238	0x3beef281	0.0072920923
239	0xbd24d44a	-0.040241517
240	0xbcf28efe	-0.0296092
241	0x3c9f9a03	0.019482618
242	0xbcbdf84e	-0.02318969
243	0xbc3fbcc0	-0.011702716
244	0x3d250fa3	0.040298115
245	0xbd0caaf0	-0.034342706
246	0x3c866748	0.01640667
247	0x3d28e542	0.041234262
248	0xbc40235b	-0.011727179
249	0xbc9ec51e	-0.019381102
250	0xbcd2a390	-0.025712758
251	0x3d2a0a4e	0.041513734
252	0xbce34116	-0.027740996
253	0x3d1f0012	0.038818426
254	0xbd16f10c	-0.036850974
255	0x3cc07138	0.023491487

Block1.1.weight f4 [128]
0	0x3f800000	1.0
1	0x3f800000	1.0
2	0x3f80a0b2	1.004904
3	0x3f800000	1.0
4	0x3f800000	1.0
5	0x3f800000	1.0
6	0x3f800000	1.0
7	0x3f800000	1.0
8	0x3f7be6cd	0.9839905
9	0x3f800000	1.0
10	0x3f802117	1.0010098
11	0x3f800000	1.0
12	0x3f81215e	1.0088308
13	0x3f7c9a0a	0.98672545
14	0x3f801829	1.0007373
15	0x3f8053d1	1.0025579
16	0x3f812e2d	1.0092217
17	0x3f7ffaea	0.9999224
18	0x3f7eedfb	0.9958188
19	0x3f7e9f10	0.9946146
20	0x3f81a329	1.0127918
21	0x3f800000	1.0
22	0x3f800000	1.0
23	0x3f800c6a	1.0003788
24	0x3f80a812	1.0051291
25	0x3f800000	1.0
26	0x3f800000	1.0
27	0x3f811e8a	1.0087445
28	0x3f800fd4	1.000483
29	0x3f7e93e0	0.9944439
30	0x3f7f135d	0.9963892
31	0x3f7e4318	0.99321127
32	0x3f80b073	1.0053848
33	0x3f8097b2	1.0046294
34	0x3f800000	1.0
35	0x3f7d9e9e	0.99070156
36	0x3f800000	1.0
37	0x3f800000	1.0
38	0x3f7fa76d	0.99864846
39	0x3f7caa09	0.98696953
40	0x3f800000	1.0
41	0x3f800a89	1.0003215
42	0x3f805ec8	1.0028925
43	0x3f7f43a9	0.99712616
44	0x3f801c0c	1.0008559
45	0x3f802322	1.0010722
46	0x3f800000	1.0
47	0x3f8072f5	1.0035082
48	0x3f800000	1.0
49	0x3f7f4dd3	0.99728125
50	0x3f7fcb1c	0.99919295
51	0x3f810e54	1.0082498
52	0x3f800448	1.0001307
53	0x3f7fae48	0.9987531
54	0x3f800000	1.0
55	0x3f7dcbb1	0.99138933
56	0x3f8047e7	1.0021943
57	0x3f822cfe	1.016998
58	0x3f7f807e	0.9980544
59	0x3f8016b0	1.0006924
60	0x3f7f8bf7	0.99822944
61	0x3f80e106	1.0068672
62	0x3f7d33c0	0.9890709
63	0x3f800000	1.0
64	0x3f800000	1.0
65	0x3f800000	1.0
66	0x3f8099b0	1.0046902
67	0x3f800694	1.0002007
68	0x3f7f15d0	0.9964266
69	0x3f7d1b03	0.9886934
70	0x3f800000	1.0
71	0x3f800000	1.0
72	0x3f7f21de	0.9966105
73	0x3f7e1fc8	0.99267244
74	0x3f805d08	1.0028391
75	0x3f8040c2	1.0019763
76	0x3f816d17	1.0111417
77	0x3f7f3d0c	0.99702525
78	0x3f7f84ff	0.9981231
79	0x3f7df7c2	0.99206173
80	0x3f800000	1.0
81	0x3f800000	1.0
82	0x3f7ff5c6	0.99984396
83	0x3f800000	1.0
84	0x3f804839	1.0022041
85	0x3f800000	1.0
86	0x3f808073	1.00392
87	0x3f800000	1.0
88	0x3f81dc99	1.0145446
89	0x3f7e8970	0.99428463
90	0x3f7e76f0	0.99400234
91	0x3f8136f6	1.0094898
92	0x3f813883	1.0095371
93	0x3f7c6647	0.9859356
94	0x3f7e8130	0.99415874
95	0x3f8042fa	1.002044
96	0x3f800000	1.0
97	0x3f7eb536	0.99495256
98	0x3f800000	1.0
99	0x3f800000	1.0
100	0x3f813600	1.0094604
101	0x3f800000	1.0
102	0x3f802a56	1.001292
103	0x3f7ffb6c	0.99993014
104	0x3f7f8275	0.99808437
105	0x3f800000	1.0
106	0x3f7f219d	0.99660665
107	0x3f7cf44d	0.98810273
108	0x3f7ebd33	0.99507445
109	0x3f7fdef9	0.99949604
110	0x3f800000	1.0
111	0x3f827055	1.0190531
112	0x3f7fbfc6	0.99902
113	0x3f81dc15	1.0145289
114	0x3f7e8c15	0.994325
115	0x3f8056aa	1.0026448
116	0x3f7d9292	0.99051774
117	0x3f800000	1.0
118	0x3f811c3a	1.0086739
119	0x3f7d1e62	0.98874485
120	0x3f806030	1.0029354
121	0x3f800000	1.0
122	0x3f7f9a85	0.99845153
123	0x3f800000	1.0
124	0x3f800000	1.0
125	0x3f7bff0a	0.98436034
126	0x3f80c097	1.0058774
127	0x3f7ff5d6	0.9998449

Block1.1.bias f4 [128]
0	0x00000000	0.0
1	0x00000000	0.0
2	0x3cae421a	0.021271754
3	0x00000000	0.0
4	0x00000000	0.0
5	0x00000000	0.0
6	0x00000000	0.0
7	0x00000000	0.0
8	0x3c05ec04	0.008173946
9	0x00000000	0.0
10	0x3ca3c88b	0.019993087
11	0x00000000	0.0
12	0x3d3061a8	0.043061882
13	0xbc77c7c0	-0.015123308
14	0x3cab36a6	0.020900082
15	0x3b231ead	0.002489011
16	0x3d6349a0	0.055490136
17	0xbc1b172b	-0.009465973
18	0xb8dc6a08	-0.00010510167
19	0x3cc3a2ce	0.023881342
20	0x3cb7aa39	0.022420036
21	0x00000000	0.0
22	0x00000000	0.0
23	0xbc7ebe7d	-0.015548346
24	0xba0d919b	-0.000540042
25	0x00000000	0.0
26	0x00000000	0.0
27	0x3cbb058c	0.022829793
28	0x3d8ec052	0.06970276
29	0xbac660a5	-0.0015135003
30	0xbba53f7c	-0.0050429683
31	0x3d08e5a6	0.033422135
32	0x3cb156bd	0.021647805
33	0x3ce69626	0.028147768
34	0x00000000	0.0
35	0xbd024b46	-0.031810068
36	0x00000000	0.0
37	0x00000000	0.0
38	0x3d0290ff	0.03187656
39	0x3bd69897	0.006548952
40	0x00000000	0.0
41	0x3b8880d8	0.00416575
42	0xb87c8b66	-6.0211307e-05
43	0xba2cef1d	-0.000659691
44	0xbb9da38b	-0.0048107556
45	0xbb8e98e0	-0.00435172
46	0x00000000	0.0
47	0x3d2283b0	0.03967637
48	0x00000000	0.0
49	0x3c370d5b	0.011172618
50	0xbb8cf600	-0.0043017864
51	0x3c95bcdb	0.01827853
52	0xb988b9bc	-0.00026078324
53	0xbc226932	-0.009912776
54	0x00000000	0.0
55	0x3ca2dd37	0.019880874
56	0xba5d8fe0	-0.000845192
57	0x3c8485df	0.016177116
58	0xba8a2176	-0.0010538537
59	0x3cb53242	0.022118691
60	0xbb46c043	-0.0030327
61	0xbc507151	-0.012722329
62	0x3bea30dc	0.007146938
63	0x00000000	0.0
64	0x00000000	0.0
65	0x00000000	0.0
66	0x3b885970	0.0041610524
67	0x3c6ae455	0.014336665
68	0xba69ee1c	-0.00089237257
69	0x3d07d962	0.033166297
70	0x00000000	0.0
71	0x00000000	0.0
72	0xbccef479	-0.025263058
73	0xbab2b0dc	-0.001363303
74	0xb8d735a6	-0.00010261992
75	0xb8db68c6	-0.00010462249
76	0x3cd5aad2	0.02608243
77	0xbbc495e9	-0.005999316
78	0xbae0db6c	-0.0017155237
79	0x3cf4f776	0.029903155
80	0x00000000	0.0
81	0x00000000	0.0
82	0xbb0da63e	-0.002161398
83	0x00000000	0.0
84	0xbbd477c1	-0.0064840023
85	0x00000000	0.0
86	0x3d6e1176	0.05812212
87	0x00000000	0.0
88	0x3d2f125a	0.04274211
89	0x3d0ec8d3	0.03485949
90	0xbbc31d5b	-0.005954427
91	0xbc734ab0	-0.01484935
92	0x3d6206a6	0.05518212
93	0xbc19b37b	-0.00938117
94	0xbd229cba	-0.039700247
95	0xbab6982b	-0.0013930848
96	0x00000000	0.0
97	0x3bfaf2af	0.0076583247
98	0x00000000	0.0
99	0x00000000	0.0
100	0x3c9acb0b	0.018895647
101	0x00000000	0.0
102	0x3d2405fb	0.040044766
103	0x3d409a9e	0.047022454
104	0xbb172cf3	-0.0023067563
105	0x00000000	0.0
106	0xbc82f4fa	-0.015985955
107	0x3d38944e	0.04506331
108	0xbc1310e8	-0.008976199
109	0xbbc6afab	-0.0060634217
110	0x00000000	0.0
111	0x3d269dca	0.040677823
112	0x3da4ce1f	0.08047127
113	0x3d82ebcf	0.06392633
114	0x3d0a8416	0.033817373
115	0xba970feb	-0.001152513
116	0x3c35998f	0.0110839745
117	0x00000000	0.0
118	0x3d422543	0.047398817
119	0xbd0230bc	-0.031784758
120	0x3d178718	0.03699407
121	0x00000000	0.0
122	0xbb914e55	-0.0044343867
123	0x00000000	0.0
124	0x00000000	0.0
125	0xbc3800d1	-0.011230663
126	0x3d0f9533	0.035054397
127	0x3c86069a	0.01636057

Block1.1.running_mean f4 [128]
0	0x00000000	0.0
1	0x00000000	0.0
2	0x3b88597f	0.0041610594
3	0x00000000	0.0
4	0x00000000	0.0
5	0x00000000	0.0
6	0x00000000	0.0
7	0x00000000	0.0
8	0x3b3aee26	0.0028523295
9	0x00000000	0.0
10	0x3c87c5f8	0.016573891
11	0x00000000	0.0
12	0xbbf4068d	-0.00744707
13	0x3c20759e	0.009793667
14	0x3bef07fa	0.007294652
15	0xba00892e	-0.0004903254
16	0x3bd10f47	0.006379995
17	0x80000004	-6e-45
18	0x00000004	6e-45
19	0x3afe7b6a	0.0019415442
20	0x3c411d63	0.0117867915
21	0x00000000	0.0
22	0x00000000	0.0
23	0x3c073dc0	0.008254468
24	0x80000004	-6e-45
25	0x00000000	0.0
26	0x00000000	0.0
27	0xbca1b163	-0.019737905
28	0x3c42352c	0.0118534975
29	0x3c2d90b4	0.010593582
30	0x00000004	6e-45
31	0x3b2028ee	0.0024438458
32	0xbc602b6f	-0.01368223
33	0x3cc50c59	0.02405374
34	0x00000000	0.0
35	0x3b2437e2	0.0025057723
36	0x00000000	0.0
37	0x00000000	0.0
38	0x3c134212	0.00898792
39	0x3c871d71	0.016493531
40	0x00000000	0.0
41	0x80000004	-6e-45
42	0x00000004	6e-45
43	0xb98a20d9	-0.00026345885
44	0xbca32fd4	-0.019920267
45	0xbc836aaf	-0.016042082
46	0x00000000	0.0
47	0xbcd8f072	-0.02648184
48	0x00000000	0.0
49	0x00000004	6e-45
50	0x80000004	-6e-45
51	0xbc4f8ae5	-0.012667392
52	0x00000004	6e-45
53	0x00000004	6e-45
54	0x00000000	0.0
55	0x39c1ebbe	0.0003698747
56	0xbc776023	-0.015098604
57	0xbbf4e6f6	-0.0074738218
58	0x80000004	-6e-45
59	0x3b8735e2	0.0041262964
60	0x80000004	-6e-45
61	0xbcb28a29	-0.021794396
62	0x3bc62f72	0.0060481364
63	0x00000000	0.0
64	0x00000000	0.0
65	0x00000000	0.0
66	0x3bb5a7ab	0.005543669
67	0xbc77538d	-0.015095604
68	0x00000004	6e-45
69	0x3c0eb5e5	0.008710359
70	0x00000000	0.0
71	0x00000000	0.0
72	0x3bb4a9c5	0.005513402
73	0x80000004	-6e-45
74	0x80000004	-6e-45
75	0x80000004	-6e-45
76	0xbcb3587c	-0.021892779
77	0xbc413aa9	-0.011793771
78	0x00000004	6e-45
79	0x3ca1c806	0.019748699
80	0x00000000	0.0
81	0x00000000	0.0
82	0x80000004	-6e-45
83	0x00000000	0.0
84	0xbbca3e7f	-0.006172001
85	0x00000000	0.0
86	0xbc23245e	-0.009957401
87	0x00000000	0.0
88	0xbb89f617	-0.0042102444
89	0xbc11bd74	-0.008895267
90	0x3c1bdf5c	0.009513702
91	0x3c8a179d	0.016856963
92	0xbc32a2c7	-0.010903067
93	0x3cfc678d	0.030811096
94	0x3c045647	0.008077211
95	0x00000004	6e-45
96	0x00000000	0.0
97	0xbc27e9f5	-0.010248651
98	0x00000000	0.0
99	0x00000000	0.0
100	0xbca8af7b	-0.020591488
101	0x00000000	0.0
102	0xbc5fddbe	-0.013663707
103	0xbca567d1	-0.020191105
104	0x80000004	-6e-45
105	0x00000000	0.0
106	0x00000004	6e-45
107	0xbb3dd6d7	-0.0028967166
108	0x00000004	6e-45
109	0x3c9f1eae	0.019423809
110	0x00000000	0.0
111	0x3c6eedb4	0.01458304
112	0x3bc311eb	0.0059530637
113	0x3ca77608	0.020442024
114	0x3c1a549a	0.009419585
115	0x00000004	6e-45
116	0xbc5341df	-0.012894123
117	0x00000000	0.0
118	0x3c04396c	0.008070331
119	0x3c600b6c	0.013674598
120	0x3c8fc959	0.017552065
121	0x00000000	0.0
122	0x00000004	6e-45
123	0x00000000	0.0
124	0x00000000	0.0
125	0x3b6586cd	0.0035022974
126	0xbc93b47b	-0.018030396
127	0x3c1d12b3	0.009586978

Block1.1.running_var f4 [128]
0	0x00000004	6e-45
1	0x00000004	6e-45
2	0x38804f15	6.118246e-05
3	0x00000004	6e-45
4	0x00000004	6e-45
5	0x00000004	6e-45
6	0x00000004	6e-45
7	0x00000004	6e-45
8	0x37a84178	2.0057647e-05
9	0x00000004	6e-45
10	0x39dc9792	0.000420746
11	0x00000004	6e-45
12	0x38d547ac	0.000101699814
13	0x3918631b	0.0001453277
14	0x3923bb3a	0.00015614639
15	0x3182a257	3.801954e-09
16	0x398ecb81	0.00027235973
17	0x00000004	6e-45
18	0x00000004	6e-45
19	0x384174c1	4.612352e-05
20	0x39637f6b	0.00021695874
21	0x00000004	6e-45
22	0x00000004	6e-45
23	0x38d56c8d	0.000101768506
24	0x00000004	6e-45
25	0x00000004	6e-45
26	0x00000004	6e-45
27	0x3a7f8515	0.0009747309
28	0x397fa18d	0.00024378877
29	0x399e0a86	0.0003014395
30	0x00000004	6e-45
31	0x3774b500	1.4585676e-05
32	0x39b7ab05	0.000350319
33	0x3b08a24a	0.0020848685
34	0x00000004	6e-45
35	0x36e45b40	6.8055524e-06
36	0x00000004	6e-45
37	0x00000004	6e-45
38	0x38c6a7a7	9.4726034e-05
39	0x39dce0ea	0.00042129244
40	0x00000004	6e-45
41	0x00000004	6e-45
42	0x00000004	6e-45
43	0x30163c80	5.465566e-10
44	0x3a30225c	0.0006718987
45	0x39ac967c	0.00032918516
46	0x00000004	6e-45
47	0x39a3ba81	0.0003122874
48	0x00000004	6e-45
49	0x00000004	6e-45
50	0x00000004	6e-45
51	0x39733493	0.00023193871
52	0x00000004	6e-45
53	0x00000004	6e-45
54	0x00000004	6e-45
55	0x3114a700	2.1631763e-09
56	0x39e51376	0.00043692783
57	0x3917e155	0.00014484425
58	0x00000004	6e-45
59	0x38f57cdc	0.00011705767
60	0x00000004	6e-45
61	0x3a93c143	0.0011272806
62	0x388d0019	6.723422e-05
63	0x00000004	6e-45
64	0x00000004	6e-45
65	0x00000004	6e-45
66	0x39c7bc46	0.00038096512
67	0x3995d117	0.0002857528
68	0x00000004	6e-45
69	0x38db33fe	0.00010452418
70	0x00000004	6e-45
71	0x00000004	6e-45
72	0x382c9766	4.1148996e-05
73	0x00000004	6e-45
74	0x00000004	6e-45
75	0x00000004	6e-45
76	0x3a6f4b9b	0.00091283926
77	0x39ad7894	0.0003308697
78	0x00000004	6e-45
79	0x3985a695	0.0002549185
80	0x00000004	6e-45
81	0x00000004	6e-45
82	0x00000004	6e-45
83	0x00000004	6e-45
84	0x38c9346f	9.5941934e-05
85	0x00000004	6e-45
86	0x3907bb05	0.00012944273
87	0x00000004	6e-45
88	0x38cd871a	9.8003264e-05
89	0x38e07e3b	0.000107046646
90	0x3973a79e	0.00023236728
91	0x39b162b3	0.00033833607
92	0x399e72d2	0.00030221656
93	0x3a067574	0.0005129196
94	0x38f3ea14	0.000116307434
95	0x00000004	6e-45
96	0x00000004	6e-45
97	0x3a868fb5	0.0010266217
98	0x00000004	6e-45
99	0x00000004	6e-45
100	0x3a31e2e5	0.0006785824
101	0x00000004	6e-45
102	0x39b25308	0.0003401267
103	0x39e3340c	0.00043335592
104	0x00000004	6e-45
105	0x00000004	6e-45
106	0x00000004	6e-45
107	0x3a28ea90	0.0006443644
108	0x00000004	6e-45
109	0x3a49543d	0.0007680094
110	0x00000004	6e-45
111	0x39821936	0.00024814316
112	0x38d4bab3	0.00010143723
113	0x39b1ff60	0.0003395034
114	0x3935eeb1	0.00017350425
115	0x00000004	6e-45
116	0x396cb77c	0.00022575067
117	0x00000004	6e-45
118	0x390a9e09	0.00013219578
119	0x3937af79	0.00017517609
120	0x39e22f5c	0.00043141365
121	0x00000004	6e-45
122	0x00000004	6e-45
123	0x00000004	6e-45
124	0x00000004	6e-45
125	0x37f56eeb	2.9257926e-05
126	0x39d304a9	0.00040248528
127	0x39753673	0.00023385305

Block1.3.weight f4 [2259]
0	0x3c5ab316	0.0133483615
1	0xbcc0d3b9	-0.023538457
2	0xbce73587	-0.028223766
3	0x3ca7ed08	0.020498767
4	0xbb81f0ee	-0.0039654886
5	0xbca7ecf8	-0.020498738
6	0x3c5c35a5	0.013440524
7	0x3a311e85	0.0006756562
8	0x3a55f786	0.0008162189
9	0x38872042	6.44331e-05
10	0x3a40f211	0.00073602895
11	0x3cd3c404	0.025850303
12	0x3ce55c47	0.027998103
13	0xbcd36d7b	-0.02580904
14	0x3c05e9b7	0.008173398
15	0xbceafc2b	-0.028684696
16	0xbc7ef7b1	-0.015561984
17	0xbc848295	-0.016175548
18	0xbce6e98c	-0.028187536
19	0xbcaed617	-0.02134232
20	0xbca74ff5	-0.020423869
21	0xbc802f02	-0.015647415
22	0xbca82e33	-0.020529842
23	0xbcaf9b29	-0.02143629
24	0xbbaf8ca2	-0.005357341
25	0x3cc16527	0.023607804
26	0x3cd13682	0.025538687
27	0xbd06e55b	-0.032933574
28	0xbc8f059b	-0.017458728
29	0xbccc345e	-0.024927314
30	0x3cde957c	0.02717089
31	0xbc9e4c3e	-0.019323464
32	0x3caf00aa	0.021362621
33	0x3d0b6c5e	0.034038894
34	0x3cd2b709	0.025722044
35	0xbc173ad2	-0.009230332
36	0xbc15dd60	-0.009147018
37	0x3bf32518	0.0074201934
38	0x3c94f588	0.018183485
39	0xbbce6628	-0.006298799
40	0xbbd580ac	-0.006515583
41	0xbc1cc82d	-0.00956921
42	0xbc89b83a	-0.016811479
43	0xbc8b08e0	-0.016972005
44	0xbc96e964	-0.018421836
45	0xbc29b9b7	-0.010359219
46	0xbc4bed31	-0.012446688
47	0x3ba6387a	0.0050726505
48	0xbbeef099	-0.007291865
49	0xbd224e51	-0.03962547
50	0x3c1b0f6d	0.009464127
51	0x3c993f0d	0.018706823
52	0x3d06d42f	0.032917198
53	0xbcb85255	-0.022500196
54	0x3b7cab00	0.0038554072
55	0x3bd0e832	0.006375336
56	0x3ceed890	0.029156
57	0xbc241154	-0.010013897
58	0x378eabf7	1.7007796e-05
59	0xb916610e	-0.0001434127
60	0x39184440	0.00014521275
61	0xbcdd7e91	-0.02703789
62	0xbcb67ad9	-0.022275375
63	0xbc985f64	-0.018600173
64	0x3ced71fc	0.028985016
65	0x3cb6712b	0.02227076
66	0xbc635bb1	-0.013876841
67	0xbadec8d1	-0.0016997104
68	0x3c439708	0.011937864
69	0xbbd0282a	-0.006352444
70	0x3b657aeb	0.0035015892
71	0xbca8664a	-0.020556588
72	0xbc4b43ad	-0.012406272
73	0x3d18be66	0.037290953
74	0x3ba96a36	0.005170132
75	0x3bdee223	0.00680186
76	0xbb3ade24	-0.0028513754
77	0x3c45032e	0.012024684
78	0x3ca72927	0.020405365
79	0x3cd902d7	0.026490612
80	0xbc46b0d4	-0.01212712
81	0x3ccc2a3e	0.024922486
82	0xbce58939	-0.028019534
83	0xbc13bc38	-0.009017043
84	0x3c4ab14d	0.012371373
85	0x3b87af71	0.0041407873
86	0x3ce09b13	0.027417695
87	0x3cbb158b	0.02283742
88	0x3bb3eacb	0.005490636
89	0x3ba95320	0.00516738
90	0x3c16d917	0.009207032
91	0x3c4a834d	0.012360406
92	0xbc83ccd5	-0.016088882
93	0x3c27dddb	0.010245766
94	0xbce12af8	-0.02748631
95	0xbb0072ab	-0.0019599597
96	0xbb8325a5	-0.0040022903
97	0x3cd4a829	0.025959091
98	0xbc3e69cf	-0.011621906
99	0xbcea3153	-0.028587973
100	0xbc794757	-0.015214763
101	0x3d0f254a	0.03494767
102	0x3cda0666	0.02661438
103	0x3b1c16b2	0.0023817238
104	0xbbe3cba8	-0.006951768
105	0x3ce01127	0.027351929
106	0xbc7562c8	-0.014977165
107	0xbc915fc9	-0.01774587
108	0x3d1c3bd2	0.038142987
109	0xbc4d726c	-0.012539487
110	0x3cbd669f	0.023120223
111	0x3be32d40	0.0069328845
112	0xbcbff740	-0.023433328
113	0x3c38cba7	0.011279023
114	0xbbacde77	-0.0052755433
115	0xbd34e12b	-0.04416005
116	0xbc1b9589	-0.009496101
117	0xbc114321	-0.008866102
118	0x3c93afce	0.018028166
119	0xbc50a549	-0.01273472
120	0xbce5a9eb	-0.028035125
121	0x3b7b53ce	0.0038349512
122	0xbca858b3	-0.020550108
123	0x3c241781	0.010015369
124	0x3ce9b768	0.028529838
125	0xbc97d650	-0.01853481
126	0xbcaff001	-0.021476747
127	0xbc18e6aa	-0.009332338
128	0xbbf096db	-0.007342202
129	0x3cad32e6	0.021142434
130	0x3c72cd4b	0.0148194535
131	0x3c66105e	0.014041988
132	0xbbaaa603	-0.0052077784
133	0xbcbd3c49	-0.023100035
134	0xbcad8fe0	-0.021186769
135	0x3c21783a	0.009855324
136	0xbc9170de	-0.017754015
137	0x3c1b1608	0.009465702
138	0xbcb71f81	-0.02235389
139	0x3c4476a2	0.011991175
140	0x3d096188	0.03354028
141	0x3ca8e94c	0.020619057
142	0x3bfdfeed	0.007751337
143	0x3c2533d4	0.010083158
144	0x3c718bdb	0.014742817
145	0xbcabfbaa	-0.020994026
146	0x3bd23e31	0.006416105
147	0x3cd91542	0.026499394
148	0xbbea6b6b	-0.0071539185
149	0x3c81657d	0.015795464
150	0xbc9a4ba2	-0.018834893
151	0x3c124aa9	0.008928933
152	0x3c3401ee	0.010986788
153	0x3c1ef896	0.009702822
154	0xbcd56411	-0.026048692
155	0xbb9f9bec	-0.0048708823
156	0xbbc6e9db	-0.006070358
157	0xbc384b70	-0.011248454
158	0x3cd0f024	0.025505133
159	0x3cf54ce2	0.029943887
160	0xbc2d20ec	-0.010566931
161	0x3ccfc4db	0.025362423
162	0xbc1a43b1	-0.009415553
163	0xbc53e31c	-0.012932565
164	0xbcd03c97	-0.025419516
165	0xbcf29b83	-0.02961517
166	0x3c9525e9	0.018206554
167	0x3bc83742	0.006110103
168	0xbc319839	-0.010839515
169	0x3cb99ffb	0.022659292
170	0x3cd08b41	0.025457026
171	0x3c969b0e	0.018384483
172	0x3cb8abf0	0.022542924
173	0xbc0fc167	-0.008774138
174	0xbc92a78e	-0.017902162
175	0xbc3ea33e	-0.0116356
176	0xbcecfcb6	-0.028929096
177	0xbcbcbcc5	-0.023039231
178	0x3c767756	0.0150431
179	0x3c96853b	0.018374076
180	0xbc452e04	-0.012034897
181	0x3cdf511d	0.027260358
182	0xbc2e1d14	-0.01062705
183	0x3cdfb2f8	0.027307019
184	0xbcba4b34	-0.022740938
185	0x3d67ac2e	0.056560688
186	0x3c5c84eb	0.0134594245
187	0x3cb7cf3f	0.02243769
188	0xbbf82d41	-0.007573754
189	0xbc935745	-0.01798595
190	0x3ce8e82e	0.028431024
191	0xbcd8d4dc	-0.026468687
192	0x3cd48630	0.025942892
193	0xbcd74e2c	-0.026282392
194	0x3c823411	0.015893968
195	0x3a233e51	0.00062272424
196	0x3a5ab4af	0.0008342964
197	0x3aa59993	0.001263427
198	0x3961a110	0.00021517673
199	0xba27f152	-0.0006406504
200	0x3c4891dd	0.012241808
201	0xbc4a68f7	-0.012354127
202	0xbcdbd584	-0.02683521
203	0x3c8ada21	0.016949715
204	0x3cfa90aa	0.03058656
205	0x3cb35556	0.021891277
206	0xbcc78200	-0.024353981
207	0xbc5f186f	-0.013616665
208	0xbca160f5	-0.019699553
209	0xbcdbf4ef	-0.026850192
210	0xbcb658e2	-0.02225918
211	0x3c8b693d	0.017017955
212	0xbc919969	-0.017773347
213	0x3cb8fa64	0.022580333
214	0x3c09c9f3	0.008409965
215	0x3c06e7be	0.008233963
216	0x3ca6e8f0	0.020374745
217	0x3bc561eb	0.0060236356
218	0x3bd28969	0.006425072
219	0xbc926a62	-0.017872993
220	0x3c7b68ce	0.015344812
221	0xbc9c1570	-0.019053191
222	0xbc042112	-0.008064525
223	0xbcbf72a3	-0.023370093
224	0xbce6c640	-0.028170705
225	0xbcbbd4a2	-0.02292854
226	0xbbdf0439	-0.0068059233
227	0xbb875e4e	-0.004131115
228	0xbcbe60e7	-0.023239566
229	0xbc7ecaf2	-0.015551316
230	0xbc08fb38	-0.0083606765
231	0xbc88bbe0	-0.016691148
232	0xbc92c008	-0.017913833
233	0x3cb6aa90	0.022298127
234	0xbc9c0f31	-0.019050213
235	0x3cb57df4	0.022154786
236	0x3c979978	0.018505797
237	0x3bff638a	0.0077938484
238	0x3cb2483a	0.021762956
239	0x3cb6f456	0.022333305
240	0x3cec8d1b	0.028875878
241	0xbcccd340	-0.025003076
242	0xbb472aca	-0.0030390495
243	0x3c56af42	0.013103308
244	0xbc98dc43	-0.018659716
245	0x3ac9fd8e	0.0015410648
246	0x3d03d47a	0.032185055
247	0x3cb02294	0.021500863
248	0xbcf92c25	-0.030416558
249	0xbc440ecf	-0.011966421
250	0xbc73d4d3	-0.014882284
251	0x3c4294c1	0.011876286
252	0x3c03b898	0.008039616
253	0xbc01f87b	-0.0079327775
254	0xbbb4a45a	-0.0055127563
255	0x3c7c602f	0.015403791

Block1.4.weight f4 [196]
0	0x3f7cd986	0.98769414
1	0x3f7e6daf	0.99386114
2	0x3f7e1207	0.9924626
3	0x3f8036fe	1.0016782
4	0x3f816b40	1.0110855
5	0x3f802bfe	1.0013425
6	0x3f820378	1.0157309
7	0x3f7ee3e5	0.9956649
8	0x3f7ce5ec	0.9878833
9	0x3f7d1818	0.9886489
10	0x3f841c92	1.0321219
11	0x3f83c4bf	1.0294417
12	0x3f7efc71	0.99603945
13	0x3f7b7439	0.98224217
14	0x3f80d3fc	1.0064692
15	0x3f808410	1.0040302
16	0x3f7b56d0	0.9817934
17	0x3f7a560d	0.97787553
18	0x3f828c80	1.0199127
19	0x3f8018eb	1.0007604
20	0x3f7dd151	0.99147516
21	0x3f7e8f1c	0.9943712
22	0x3f7d9f95	0.9907163
23	0x3f82ce67	1.0219239
24	0x3f7df572	0.99202645
25	0x3f7ffc08	0.99993944
26	0x3f7c9c5d	0.9867609
27	0x3f813211	1.0093404
28	0x3f80016b	1.0000433
29	0x3f81353a	1.0094368
30	0x3f81d907	1.0144356
31	0x3f80323d	1.0015332
32	0x3f7b8310	0.9824686
33	0x3f7cf299	0.98807675
34	0x3f826482	1.0186923
35	0x3f813728	1.0094957
36	0x3f813bde	1.0096395
37	0x3f7e9eee	0.9946126
38	0x3f811643	1.0084919
39	0x3f8319ed	1.0242287
40	0x3f7dda15	0.9916089
41	0x3f7c80bd	0.9863394
42	0x3f7cc6c9	0.9874082
43	0x3f80cacd	1.006189
44	0x3f819fee	1.0126932
45	0x3f8076a3	1.0036205
46	0x3f7e5551	0.9934893
47	0x3f812bd8	1.0091505
48	0x3f7d5154	0.9895222
49	0x3f7a6a61	0.9781857
50	0x3f7ef43b	0.99591416
51	0x3f81ecc9	1.0150386
52	0x3f7ed5aa	0.99544775
53	0x3f80c694	1.0060601
54	0x3f82b027	1.0210007
55	0x3f8188a1	1.0119821
56	0x3f811706	1.0085151
57	0x3f7c4007	0.985352
58	0x3f80c77c	1.0060878
59	0x3f7eb481	0.9949418
60	0x3f7d85da	0.99032366
61	0x3f7f87d9	0.9981666
62	0x3f7f9ec8	0.99851656
63	0x3f80e51e	1.0069921
64	0x3f80e335	1.0069338
65	0x3f7c4cc3	0.9855463
66	0x3f81ec82	1.0150301
67	0x3f7e2d4d	0.99287874
68	0x3f7be517	0.9839644
69	0x3f7fb96b	0.998923
70	0x3f8299b4	1.0203156
71	0x3f802a5b	1.0012926
72	0x3f8186d3	1.011927
73	0x3f805389	1.0025493
74	0x3f807c61	1.0037957
75	0x3f808d3f	1.0043105
76	0x3f800151	1.0000402
77	0x3f7f9710	0.9983988
78	0x3f809f29	1.0048572
79	0x3f7e1514	0.9925091
80	0x3f8071b0	1.0034695
81	0x3f7b2c95	0.981149
82	0x3f82c010	1.0214863
83	0x3f7c3f99	0.9853454
84	0x3f7f5313	0.99736136
85	0x3f82c71a	1.0217011
86	0x3f7ff7ac	0.9998729
87	0x3f7e7698	0.9939971
88	0x3f7cf0b1	0.98804766
89	0x3f832230	1.0244808
90	0x3f810f43	1.0082783
91	0x3f7fdacf	0.9994325
92	0x3f7fbff1	0.99902254
93	0x3f8172e6	1.0113189
94	0x3f805c53	1.0028175
95	0x3f7c9f5e	0.98680675
96	0x3f7af9ad	0.98037225
97	0x3f7c5d6e	0.9858006
98	0x3f7fcaa7	0.999186
99	0x3f811187	1.0083474
100	0x3f8144de	1.0099142
101	0x3f7f870f	0.9981546
102	0x3f81af99	1.0131713
103	0x3f7db930	0.991107
104	0x3f7ff1fa	0.999786
105	0x3f7e282f	0.99280065
106	0x3f83cf10	1.0297565
107	0x3f809b43	1.0047382
108	0x3f81ae23	1.0131267
109	0x3f7f3219	0.9968582
110	0x3f7f7923	0.99794215
111	0x3f7d896e	0.99037826
112	0x3f80f578	1.0074911
113	0x3f8091bb	1.0044473
114	0x3f81f1be	1.0151899
115	0x3f7e37bb	0.9930379
116	0x3f80da68	1.0066652
117	0x3f825402	1.0181887
118	0x3f7c2072	0.9848701
119	0x3f80d174	1.006392
120	0x3f8063c4	1.0030446
121	0x3f80a283	1.0049595
122	0x3f817583	1.0113987
123	0x3f7fe9a1	0.99965864
124	0x3f80ea08	1.0071421
125	0x3f7c019f	0.98439974
126	0x3f7f291d	0.9967211
127	0x3f8030f1	1.0014936
128	0x3f82dc3c	1.022346
129	0x3f7e4554	0.99324536
130	0x3f80f5e7	1.0075043
131	0x3f82b09f	1.021015
132	0x3f80045b	1.0001329
133	0x3f807d06	1.0038154
134	0x3f7f72da	0.99784625
135	0x3f81b177	1.0132283
136	0x3f7e078c	0.99230266
137	0x3f803921	1.0017434
138	0x3f7c4722	0.9854604
139	0x3f80ab0d	1.00522
140	0x3f7b0395	0.9805234
141	0x3f803617	1.0016507
142	0x3f7ca81d	0.9869402
143	0x3f807933	1.0036987
144	0x3f80b695	1.005572
145	0x3f7e2f90	0.99291325
146	0x3f7d966e	0.9905766
147	0x3f8370f4	1.0268846
148	0x3f7f22a1	0.99662215
149	0x3f7e1fc2	0.9926721
150	0x3f7dcff7	0.99145454
151	0x3f81a890	1.0129566
152	0x3f829068	1.0200319
153	0x3f804a7c	1.0022731
154	0x3f7b8916	0.9825605
155	0x3f7fca45	0.99918014
156	0x3f7ff0d3	0.99976844
157	0x3f803ecc	1.0019164
158	0x3f802e5c	1.0014148
159	0x3f7d13e4	0.98858476
160	0x3f81c150	1.0137119
161	0x3f7ffb3a	0.99992716
162	0x3f7d17b1	0.98864275
163	0x3f7ef5a9	0.995936
164	0x3f7edf57	0.9955954
165	0x3f7eff22	0.9960805
166	0x3f8011c5	1.0005423
167	0x3f7e9768	0.9944978
168	0x3f815b7d	1.0106045
169	0x3f7ed8c8	0.9954953
170	0x3f80780d	1.0036637
171	0x3f80478b	1.0021833
172	0x3f7d74b8	0.99006224
173	0x3f85056c	1.039228
174	0x3f7f8693	0.9981472
175	0x3f7f4c91	0.99726206
176	0x3f80f8f0	1.007597
177	0x3f7c91c6	0.9865993
178	0x3f7f7f08	0.9980321
179	0x3f814bef	1.0101298
180	0x3f8846a1	1.0646554
181	0x3f8188c1	1.0119859
182	0x3f812cc0	1.0091782
183	0x3f80fe30	1.0077572
184	0x3f805210	1.0025043
185	0x3f7f7fd3	0.9980442
186	0x3f801b76	1.000838
187	0x3f815527	1.0104111
188	0x3f7de824	0.99182343
189	0x3f7e58a5	0.9935401
190	0x3f80f9ba	1.007621
191	0x3f7d8aaf	0.9903974
192	0x3f82bd1d	1.0213963
193	0x3f7e1e86	0.99265325
194	0x3f82cf84	1.0219579
195	0x3f7ff58c	0.9998405

Block1.4.bias f4 [196]
0	0xbb754414	-0.003742461
1	0x3a3aed15	0.0007130665
2	0x3d3a4c84	0.045483127
3	0xbb0758c5	-0.0020652276
4	0x3d1eb225	0.03874411
5	0x3d3cda5b	0.046106678
6	0xbb100e9e	-0.0021981369
7	0x3c2a321d	0.0103879245
8	0xbcee7818	-0.02911
9	0xbbc4800f	-0.005996711
10	0x3d5ac97d	0.05341481
11	0x3c05ff69	0.00817857
12	0xbb28090d	-0.002564016
13	0xbc148785	-0.0090655135
14	0x3cd573f2	0.026056264
15	0x3b556075	0.0032558714
16	0xbc1163df	-0.008873909
17	0x3c2be593	0.0104917465
18	0xbb85b2e3	-0.004080163
19	0x3c45402a	0.012039224
20	0x3cbda857	0.02315156
21	0x3c557d6e	0.013030393
22	0xbcb35c75	-0.021894673
23	0x3c834b70	0.016027182
24	0xbc8ab0c6	-0.016929995
25	0xbc95df31	-0.018294903
26	0xbcdf31f0	-0.027245492
27	0xbba3ba79	-0.0049965945
28	0x39e731ed	0.0004409695
29	0x3c1ddd52	0.009635286
30	0x3d82a194	0.06378475
31	0xbca25054	-0.019813694
32	0xbce8da8a	-0.02842452
33	0xbd0defca	-0.03465251
34	0x3d27fc8c	0.04101233
35	0xbb7a3846	-0.0038180514
36	0x3c1f71d0	0.009731725
37	0x3cffdffd	0.031234736
38	0xbc66398b	-0.014051805
39	0x3d0304ed	0.03198712
40	0xbbe323a4	-0.006931739
41	0x3d27b4cd	0.04094391
42	0x3be2d070	0.0069218203
43	0x3cc2044f	0.023683695
44	0x3d3d38e3	0.04619683
45	0x3d1f3499	0.03886852
46	0xbc538386	-0.012909776
47	0x3cd9131e	0.026498374
48	0xbc4fc827	-0.012681997
49	0xbcb8a9e2	-0.022541944
50	0xbd218f03	-0.039443027
51	0x3cec3925	0.028835842
52	0xbb0e97a6	-0.002175787
53	0xbd1fa514	-0.03897579
54	0x3c967383	0.018365627
55	0x3ab2f1ad	0.0013652347
56	0x3c98a33e	0.018632527
57	0xbc0f2dee	-0.008738978
58	0x3c566533	0.013085651
59	0xbc7c051e	-0.015382079
60	0xba57419e	-0.0008211377
61	0x3cc7c8db	0.024387768
62	0x3ccfee66	0.025382232
63	0x3aef60ab	0.0018263062
64	0xbbf27bc9	-0.0074000102
65	0xbc9bf89b	-0.019039443
66	0x3b311a6c	0.0027023805
67	0x3d3aa47e	0.04556703
68	0xbc11cfb4	-0.008899618
69	0x3cda5a57	0.026654406
70	0x3cdcbf8d	0.026946807
71	0x3c41c725	0.011827265
72	0xb9bf0bfa	-0.00036439282
73	0x3d298426	0.041385792
74	0x3ccb56ce	0.024821665
75	0x3c91dd1e	0.017805632
76	0xbb812cab	-0.0039420924
77	0x3d37f71e	0.044913404
78	0xbb83b605	-0.004019501
79	0x397c21a5	0.00024045126
80	0x3b7dae4f	0.0038708632
81	0xbb12b909	-0.0022388122
82	0x3cfbed89	0.030752914
83	0xbcee54e6	-0.029093217
84	0x3cc273c6	0.023736846
85	0x3bc28610	0.0059363917
86	0x3d8c5fd2	0.06854214
87	0xbb99eaf9	-0.0046972004
88	0xbc97d48e	-0.018533971
89	0x3d1af8f8	0.03783509
90	0x3a55a432	0.0008149772
91	0x3c6d9060	0.014499754
92	0xbc5b1082	-0.013370635
93	0x3cc5cf93	0.02414683
94	0x3d42c0fb	0.04754732
95	0x3c550cce	0.013003541
96	0xbca5cb10	-0.02023843
97	0xbc7af95d	-0.015318242
98	0xbca721f7	-0.020401938
99	0xbd2fb9fc	-0.042901978
100	0x3d953486	0.07285409
101	0xbc7c9907	-0.015417344
102	0x3ce7a1e6	0.028275441
103	0xbc1d93c0	-0.009617746
104	0xba31a978	-0.0006777267
105	0xbba8e6c2	-0.0051544616
106	0x3d383976	0.044976674
107	0x3cc73947	0.024319304
108	0x3cd9621a	0.026536036
109	0x3d897737	0.067121916
110	0x3cc5978f	0.02412012
111	0x3a58e544	0.00082739093
112	0xbbd76ea7	-0.00657447
113	0x3bf6d108	0.0075322427
114	0x3cf7deb4	0.03025756
115	0xbb798cee	-0.0038078385
116	0xbd8fa7ce	-0.07014428
117	0x3d41086d	0.047127176
118	0x3d1f1f52	0.03884823
119	0x3caf7d5c	0.02142208
120	0xbc89d3d0	-0.016824633
121	0xbca6bda6	-0.020354103
122	0x3c860ac4	0.016362555
123	0xbc51d1b7	-0.012806348
124	0x3c2f9da1	0.010718734
125	0xbc89c8a0	-0.016819298
126	0x3beba6d6	0.0071915193
127	0x3afc8da6	0.0019268289
128	0x3d42e8d4	0.047585323
129	0xbcc484c6	-0.023989093
130	0x3ac6e6e4	0.0015175012
131	0x3c8ee32c	0.017442308
132	0xbd4274a5	-0.047474522
133	0x3c2b58c2	0.010458173
134	0x3c1795f4	0.00925206
135	0x3cac76bf	0.021052716
136	0x3c31031f	0.010803967
137	0x3bc438e9	0.0059882295
138	0xbd0efb98	-0.034907907
139	0x3c4b6b53	0.012415725
140	0xbc3d12e7	-0.011540151
141	0x3d46d45f	0.048542377
142	0xbbec0084	-0.00720221
143	0x3c0598f8	0.008154146
144	0x3cb9b584	0.022669561
145	0xbc71b6e7	-0.01475308
146	0xbc144442	-0.009049477
147	0x3c22ae1b	0.009929205
148	0x3bb234ed	0.005438438
149	0x3c45d34f	0.012074306
150	0xbd0ab2ac	-0.0338618
151	0xbcd7f08c	-0.026359819
152	0x3d3e93dc	0.04652773
153	0x3ca536c6	0.02016772
154	0x3d087cbf	0.033322092
155	0x3be174c0	0.0068803728
156	0xbc4072cf	-0.0117461225
157	0x3c851f5c	0.016250305
158	0xbc12f269	-0.008968928
159	0xbc5535b4	-0.013013292
160	0x3d713752	0.05889065
161	0x3c868d61	0.016424837
162	0x3cb31efa	0.021865357
163	0xbb85589d	-0.0040694014
164	0x3cfee5ca	0.031115431
165	0xbc2e1173	-0.010624277
166	0x3cac3af3	0.021024203
167	0x3d2ea4d8	0.042637676
168	0x3c9e7d1c	0.019346766
169	0xbb9c951f	-0.004778519
170	0x3d62f592	0.055409975
171	0x3c46daf3	0.0121371625
172	0xbc203f93	-0.009780782
173	0x3ccd4941	0.025059344
174	0xbcaf00d7	-0.021362705
175	0x3bdf6f99	0.0068187234
176	0x3d0c7990	0.03429562
177	0x3ccbc523	0.024874276
178	0x3ba3aadd	0.0049947337
179	0x3d84d8c2	0.06486656
180	0x3d9fac07	0.077964835
181	0xbc42bba3	-0.011885556
182	0x3c90ca26	0.017674517
183	0x3cab088d	0.0208781
184	0x3cf14e9e	0.029456433
185	0x3d8f6f09	0.070036
186	0x3c0ce856	0.008600315
187	0x3ca09766	0.019603442
188	0xbcd382e5	-0.025819251
189	0xbaf639dc	-0.0018785554
190	0xbc894a3a	-0.016759027
191	0xbc633187	-0.013866789
192	0x3cd3078b	0.025760433
193	0xbc231ae4	-0.009955142
194	0x3bccea6a	0.0062535303
195	0xbcc86307	-0.024461282

Block1.4.running_mean f4 [196]
0	0xbb59d702	-0.0033239727
1	0xbc9f7490	-0.019464761
2	0xbcd4ea61	-0.025990667
3	0x3cb5cfc6	0.0221938
4	0xbcf3018a	-0.02966382
5	0x3b434d4d	0.0029800714
6	0x3c43f92e	0.011961265
7	0x3d182d8b	0.03715281
8	0xba5aadab	-0.00083419186
9	0x3b3a3d79	0.0028417988
10	0xbd051043	-0.03248621
11	0xbc2a6427	-0.010399855
12	0x80000004	-6e-45
13	0x3cb1d3a0	0.021707356
14	0x3ba467c5	0.005017253
15	0x3c6177bd	0.013761458
16	0xbc476652	-0.012170391
17	0x3d233c24	0.039852276
18	0xbc299973	-0.010351527
19	0x3c6f9cc2	0.014624776
20	0xbac7d63c	-0.0015246342
21	0xbca0d48c	-0.0196326
22	0x3c7d4d34	0.015460301
23	0xbb5b967d	-0.0033506446
24	0xbca5d3df	-0.02024263
25	0x3cba039b	0.022706797
26	0x3c5ca967	0.013468123
27	0x3aab39cb	0.0013063488
28	0x3ca32f21	0.019919934
29	0x3b24cf1a	0.0025147856
30	0xbc37f039	-0.011226707
31	0x3c125d0a	0.008933315
32	0x3b848738	0.0040444396
33	0x3c906fe1	0.017631473
34	0xbc10b718	-0.008832715
35	0x3c1119e9	0.008856275
36	0xbc36b617	-0.011151812
37	0x3d19a569	0.037511263
38	0x3b947944	0.0045310576
39	0x3ce92f54	0.02846495
40	0x3ccaa28e	0.024735715
41	0x3b963939	0.004584458
42	0xbc006229	-0.007835903
43	0xbbed19b8	-0.007235732
44	0xb73f0dcd	-1.13877e-05
45	0x3d422f76	0.047408544
46	0x3cc296e4	0.02375359
47	0x3b64141f	0.0034802032
48	0xbc8febfb	-0.017568579
49	0xb772a978	-1.4463782e-05
50	0x3c857dde	0.01629537
51	0x3c4b0ebd	0.012393651
52	0x3ba1650e	0.0049253767
53	0xbcabc751	-0.020969065
54	0xbcc167a7	-0.023608996
55	0xbcb37f01	-0.021911146
56	0x3c9a79cc	0.018856905
57	0x3cababc8	0.020955935
58	0x3c17731a	0.009243751
59	0xbb51487c	-0.0031934073
60	0x3c49e3e7	0.012322403
61	0xbb66f161	-0.0035239088
62	0xbb132eee	-0.0022458392
63	0x3c984175	0.0185859
64	0xbc1cad71	-0.009562836
65	0xbbeb5194	-0.0071813557
66	0x3abb33d1	0.001428241
67	0xbba78467	-0.005112219
68	0xbc02940a	-0.007969866
69	0xbaf02ddb	-0.0018324213
70	0xbcf57b76	-0.029966097
71	0x3cc919ca	0.02454843
72	0xbbaa2404	-0.0051922817
73	0xbc51f9f1	-0.012815938
74	0x3c2062ef	0.009789213
75	0xbcf8756a	-0.030329425
76	0x3bc77164	0.0060865153
77	0xbd5256f7	-0.051352467
78	0x3a94836f	0.0011330674
79	0xbc489af4	-0.012243975
80	0x3aa7088c	0.0012743636
81	0xbc6d77a0	-0.014493853
82	0x3bd102c8	0.0063785054
83	0xbb6addba	-0.0035837726
84	0x3c9b7509	0.018976705
85	0x3d12a928	0.03580585
86	0xbb7cc2d7	-0.0038568282
87	0x388f03a0	6.8194466e-05
88	0xba980a16	-0.0011599686
89	0xbc611838	-0.013738684
90	0x3bc347af	0.005959473
91	0xbd164e18	-0.03669557
92	0x3c2bc600	0.010484219
93	0x3c3803c0	0.011231363
94	0x3b41dde0	0.002958171
95	0x3c0ee192	0.008720772
96	0x3c8026bd	0.015643472
97	0xbcaa3d9e	-0.020781334
98	0xbc203f76	-0.009780755
99	0xbbca4310	-0.0061725453
100	0xbc9439c1	-0.018093945
101	0x3c799331	0.015232847
102	0xbc996cdc	-0.018728666
103	0xa3ca96f2	-2.1964812e-17
104	0xbb5a36d4	-0.003329684
105	0x37b6f68b	2.1810896e-05
106	0x3c9fd275	0.019509533
107	0xbcf0743f	-0.029352305
108	0xbc1d6bf7	-0.00960826
109	0xbb4b4901	-0.0031018856
110	0xbb30946c	-0.0026943935
111	0x3c803c95	0.015653888
112	0x3b879634	0.0041377787
113	0xbcf316d3	-0.02967397
114	0x3c0de26b	0.008659939
115	0xba3c2904	-0.00071777427
116	0xbce3cf49	-0.027808802
117	0xbcc62df1	-0.024191828
118	0x3cb27515	0.021784345
119	0x3bb21063	0.0054340824
120	0x3c360be7	0.011111236
121	0xb8d24c6a	-0.000100278136
122	0x3c35889b	0.011079933
123	0x3bde76b2	0.006789052
124	0x3d09da2c	0.03365533
125	0x8f63e588	-1.123617e-29
126	0x3b9b4a5b	0.0047390885
127	0x3c1fd9ce	0.0097565185
128	0xbd0cbbe1	-0.034358863
129	0xbc85b754	-0.01632277
130	0xbb03d7e9	-0.0020117706
131	0x3b371348	0.0027935077
132	0xbc9d0f02	-0.019172195
133	0xbb7f324d	-0.0038939894
134	0x3d4c4ae3	0.049876105
135	0x3adde5bc	0.0016929428
136	0xbc40afb4	-0.011760641
137	0xbc20b6c3	-0.009809199
138	0xbbd2a1a5	-0.006427961
139	0xbc7cc529	-0.015427866
140	0xbc25cd98	-0.010119818
141	0xbc17b320	-0.009259015
142	0xbcd60b1d	-0.026128346
143	0x3c80a3a2	0.015703026
144	0x3d742371	0.059604112
145	0x3c870714	0.016482867
146	0xbd19049b	-0.037357908
147	0x3c517f11	0.012786643
148	0x3a4d9b98	0.00078433147
149	0xbc8addf1	-0.016951533
150	0x3c32d245	0.01091439
151	0x3c49e696	0.012323042
152	0x3a2a3c47	0.00064939674
153	0xbbf87606	-0.007582429
154	0x3c54ee38	0.012996249
155	0xbcc6bacc	-0.024258994
156	0xbd0d0838	-0.034431666
157	0xbc4b2c5b	-0.012400712
158	0xbca8e754	-0.020618118
159	0x3c60e15f	0.013725608
160	0xbce9cd87	-0.028540386
161	0x3b7e8d50	0.0038841553
162	0x3cd4b8e1	0.025967063
163	0x3c8966ea	0.016772706
164	0x3c2fa007	0.010719306
165	0x3cbeba0a	0.02328207
166	0xbc3fbb63	-0.011702391
167	0x3be51751	0.006991305
168	0x3cf8a672	0.030352805
169	0x3c73e950	0.014887169
170	0xbccb2680	-0.024798632
171	0xbc3414e1	-0.010991306
172	0x39703e4e	0.00022911394
173	0x3c165144	0.009174649
174	0xbc24ee62	-0.0100666005
175	0xbbb1bb0d	-0.0054239095
176	0xbc55c399	-0.013047122
177	0x3b90aa41	0.004414827
178	0x3ceb58fb	0.028728953
179	0xbc3d46de	-0.011552541
180	0x3b2337ef	0.0024905165
181	0xbae86fae	-0.0017733478
182	0xbc057b2f	-0.008147045
183	0xbcf628af	-0.030048696
184	0x3bd465a4	0.006481843
185	0x3cdb5664	0.026774593
186	0xbd3e9354	-0.04652722
187	0x3c911690	0.017710954
188	0x3b8190e7	0.0039540413
189	0x3b10885f	0.002205394
190	0x3a2e90fd	0.0006659178
191	0x3c7c0e44	0.015384261
192	0x3c9e4456	0.019319694
193	0x3c3b33e8	0.01142595
194	0x3c0f1acc	0.008734416
195	0x3c86386f	0.016384332
